baseline_explainers/gnninterpreter/ckpts/ba3_ckpt.pt (torch, 72379 bytes, 10 tensors)

conv.convs.0.bias f4 [64]
-0.020847892 -0.041743733 -0.04504223 0.11834245 -0.039922137 0.051334918 0.09168536 0.009022016
-0.029978719 -0.07493951 0.08146014 -0.1416281 -0.16686665 0.0011546339 0.11049321 0.04944358
-0.0111947805 -0.1027611 -0.12855437 0.0057489853 0.104916126 0.06998059 0.040589433 0.2038146
-0.0054481057 0.019081602 0.045492195 0.093063146 -0.024913939 -0.1499631 0.04856658 0.008906206
0.036123615 0.020704146 -0.017492898 -0.044137955 -0.13722868 -0.077684306 0.063266926 -0.009804383
-0.020194203 0.14781103 0.08846272 -0.074922465 -0.06585646 -0.05837828 0.074024186 -0.028579399
0.1929192 0.09143374 0.013181983 0.10441458 -0.08425285 -0.14211823 0.13050845 -0.03325078
-0.0032382775 0.056646377 0.04764249 -0.07159792 0.046442132 0.119062185 -0.17503312 0.069640405
00000000: 33c9 aabc 7afb 2abd 347e 38bd 875d f23d
00000010: 6585 23bd 9044 523d 89c5 bb3d 14d1 133c
00000020: ee95 f5bc e379 99bd 93d4 a63d f506 11be
00000030: 17df 2abe 1657 973a 444a e23d 5a85 4a3d
00000040: 506a 37bc 6974 d2bd c2a3 03be fc61 bc3b
00000050: 44de d63d fc51 8f3d 1b41 263d c6b4 503e
00000060: 0686 b2bb 0551 9c3c 0656 3a3d e497 be3d
00000070: 5118 ccbc ed8f 19be c0ed 463d 56eb 113c
00000080: 5bf6 133d be9b a93c 444d 8fbc 00ca 34bd
00000090: ad85 0cbe f318 9fbd 1792 813d 90a2 20bc
000000a0: 506e a5bc c65b 173e f12b b53d f370 99bd
000000b0: c0df 86bd 101e 6fbd fe99 973d 581f eabc
000000c0: 9c8c 453e 9d41 bb3d 3ef9 573c 50d7 d53d
000000d0: c28c acbd 7187 11be 02a4 053e f831 08bd
000000e0: 4839 54bb 0806 683d c624 433d eea1 92bd
000000f0: 1b3a 3e3d e0d6 f33d e23b 33be a19f 8e3d

conv.convs.0.lin.weight f4 [64, 4]
0.17734493 0.17156167 -0.16457617 -0.15613207 0.26845574 -0.20472755 0.11046966 0.20559905
0.13212599 -0.47206265 -0.0478441 0.15193494 0.18496047 -0.119474754 -0.21640536 -0.15938193
0.1726847 0.12419998 0.10847102 -0.29246882 -0.26114875 0.08406851 0.022365771 -0.20910904
-0.33656272 0.09189008 0.04382424 -0.14043377 -0.10384416 -0.16657478 0.42733192 -0.0804705
-0.009033213 0.33678374 -0.27310577 -0.054143228 -0.23138055 0.10124947 0.32485273 0.05471658
-0.19562347 0.19915919 -0.38762215 -0.24251556 0.22002913 0.1826463 -0.16434015 0.027395718
0.0002102538 0.08723106 0.096797876 0.26349133 0.09316726 -0.13709256 0.016021362 0.19157037
0.14840914 -0.33531827 -0.033888415 -0.02533987 -0.15600178 -0.07694886 -0.0459669 0.22716856
-0.33852205 0.18584915 0.04263435 0.1717188 0.15884134 0.18672715 -0.2746771 0.1719966
-0.027652407 0.08849333 0.19563363 0.2249116 0.0906463 0.25769404 -0.009944256 0.12484488
0.07059248 -0.31204268 -0.06606526 -0.13492434 0.11575334 -0.06595742 -0.1508626 -0.18219538
-0.26149035 0.16045961 -0.060415603 0.08043294 -0.14433113 0.03339604 -0.23189065 -0.054203168
-0.23939024 0.21396756 -0.2534528 0.26596215 0.07604179 0.093292244 -0.306278 0.25192377
-0.23303445 0.17036681 -0.114755966 -0.014590828 0.20189025 -0.027528726 -0.36906844 -0.20055781
0.18874046 0.017326364 -0.2646848 0.055351008 0.1117435 0.19122109 0.06003284 -0.070360966
-0.20178814 -0.06996269 0.10257051 0.030892065 -0.084889375 -0.11817659 -0.11215824 0.3718659
-0.18267888 0.22661445 -0.37958646 0.05114147 -0.1785898 0.060317844 -0.19742848 0.2833278
-0.19243664 0.23534383 0.25605345 0.1290935 0.34243768 -0.18915577 0.02750267 -0.45890832
0.12601592 -0.044282496 0.30885386 -0.11530093 0.116625436 0.078359745 -0.21801232 0.25546882
-0.39374644 0.031484414 0.06546757 0.050804965 0.28860965 -0.17844933 0.056513723 0.04021911
0.08075733 -0.12120502 0.11969294 0.16327544 -0.09825483 -0.12875779 -0.23657838 0.14370635
-0.3281127 -0.019649027 -0.027429475 0.06934918 -0.007877993 0.21350242 0.036643993 0.040334903
0.21580301 -0.05681049 0.054572847 -0.06509355 0.09739208 -0.12110828 0.3020362 -0.14800376
-0.08549841 -0.16150299 0.30823842 -0.18855165 0.2120532 0.079055905 -0.0859044 -0.20715292
-0.052315585 -0.0774682 0.08555367 -0.2937853 -0.18913832 -0.18950836 0.22372283 0.091005035
0.2206899 -0.14356735 0.19157144 -0.22421709 -0.0966326 -0.049423583 0.008516162 -0.056718003
0.19623308 -0.37483913 0.25564033 -0.21776415 -0.008600324 -0.13017881 0.14072241 0.40329784
-0.18573387 -0.19086304 0.084522694 0.049455658 0.20226614 0.2146707 -0.017769344 -0.37801206
0.049983058 -0.0067709056 0.13202487 -0.30064458 -0.094036505 0.17875934 0.15032543 -0.44014186
-0.18002667 -0.10698761 0.015424967 0.273068 0.17992029 -0.070717506 -0.22789821 0.2952894
-0.13446029 -0.23970342 0.19347976 0.1936253 0.032519523 0.025849484 -0.15797809 -0.2477246
0.13988614 0.06824264 0.056471817 -0.00766216 0.12430592 0.012030889 -0.1970762 -0.19842048
00000000: e999 353e ddad 2f3e a886 28be 16e1 1fbe
00000010: 0873 893e 19a4 51be eb3d e23d 8f88 523e
00000020: 094c 073e 32b2 f1be 2df8 43bd d594 1b3e
00000030: 4766 3d3e 2eaf f4bd 5e99 5dbe 0435 23be
00000040: 42d4 303e 8f5c fe3d 0e26 de3d 79be 95be
00000050: 4ab5 85be 1c2c ac3d 6c38 b73c ae20 56be
00000060: f351 acbe de30 bc3d 0c81 333d dfcd 0fbe
00000070: 3fac d4bd 9492 2abe 40cb da3e b8cd a4bd
00000080: 0b00 14bc eb6e ac3e 85d4 8bbe 4ac5 5dbd
00000090: 06ef 6cbe e25b cf3d 1953 a63e 7e1e 603d
000000a0: 8551 48be 63f0 4b3e 6976 c6be 0056 78be
000000b0: 514f 613e a207 3b3e c948 28be fc6c e03c
000000c0: 9377 5c39 33a6 b23d f73d c63d 56e8 863e
000000d0: 7ace be3d fe61 0cbe 3b3f 833c 062b 443e
000000e0: 91f8 173e d6ae abbe 94ce 0abd 8f95 cfbc
000000f0: eebe 1fbe 5d97 9dbd ca47 3cbd e09e 683e
00000100: c352 adbe 3d4f 3e3e 5ba1 2e3d 0ed7 2f3e
00000110: 4ea7 223e 6735 3f3e 7aa2 8cbe e01f 303e
00000120: 4d87 e2bc fe3b b53d 2f54 483e 3a4f 663e
00000130: c4a4 b93d 79f0 833e 3ced 22bc acae ff3d
00000140: ca92 903d 0fc4 9fbe 394d 87bd 9b29 0abe
00000150: 1610 ed3d af14 87bd ba7b 1abe 6d91 3abe
00000160: 10e2 85be 864f 243e 5a76 77bd 06ba a43d
00000170: 8acb 13be 49ca 083d be74 6dbe 2404 5ebd
00000180: b722 75be 501a 5b3e 91c4 81be 312c 883e
00000190: ccbb 9b3d 0110 bf3d 78d0 9cbe 27fc 803e
000001a0: 95a0 6ebe a374 2e3e 2d05 ebbd 5e0e 6fbc
000001b0: 51bc 4e3e ec83 e1bc 8af6 bcbe 075f 4dbe
000001c0: 2e45 413e 05f0 8d3c c484 87be bdb7 623d
000001d0: c7d9 e43d 76cf 433e ffe4 753d 6919 90bd
000001e0: 8da1 4ebe 9948 8fbd 7d10 d23d 5b11 fd3c
000001f0: 7bda adbd 9106 f2bd 38b3 e5bd 3565 be3e
00000200: 2c10 3bbe 9e0d 683e 2859 c2be b879 513d
00000210: 3fe0 36be d80f 773d b12a 4abe 5710 913e
00000220: 1c0e 45be f9fd 703e 7019 833e 1631 043e
00000230: fe53 af3e 0db2 41be 484d e13c 08f6 eabe
00000240: 510a 013e 9061 35bd 1822 9e3e e522 ecbd
00000250: 51d9 ee3d 137b a03d 9f3e 5fbe cfcc 823e
00000260: 2299 c9be cdf5 003d dd13 863d de18 503d
00000270: a5c4 933e 6cbb 36be ef7a 673d cbbc 243d
00000280: 1964 a53d 563a f8bd 9221 f53d ad31 273e
00000290: d439 c9bd 15d9 03be 9a41 72be c227 133e
000002a0: 63fe a7be fff6 a0bc c7b3 e0bc f106 8e3d
000002b0: b312 01bc 61a0 5a3e 0318 163d 3636 253d
000002c0: 77fb 5c3e 1eb2 68bd c787 5f3d c44f 85bd
000002d0: 8075 c73d 9e07 f8bd 7da4 9a3e 4c8e 17be
000002e0: ca19 afbd 0a61 25be 6dd1 9d3e af13 41be
000002f0: 7924 593e 10e8 a13d a5ee afbd e51f 54be
00000300: de48 56bd a6a7 9ebd c336 af3d 076b 96be
00000310: 7aad 41be 7b0e 42be 9917 653e d960 ba3d
00000320: 88fc 613e 5203 13be 4e2b 443e 2a99 65be
00000330: 50e7 c5bd 6270 4abd 5f87 0b3c 2351 68bd
00000340: 53f1 483e eaea bfbe 4ae3 823e 91fd 5ebe
00000350: 60e8 0cbc 984d 05be 8919 103e 0e7d ce3e
00000360: 0531 3ebe 9a71 43be 3c1a ad3d 0492 4a3d
00000370: db1e 4f3e a3d2 5b3e 0491 91bc cc8a c1be
00000380: 09bb 4c3d 79de ddbb 8731 073e 16ee 99be
00000390: 3696 c0bd b00c 373e e9ee 193e 465a e1be
000003a0: e958 38be 521c dbbd 00b9 7c3c 92cf 8b3e
000003b0: 063d 383e 57d4 90bd 265e 69be 2c30 973e
000003c0: f5af 09be d074 75be 8f1f 463e b645 463e
000003d0: 3133 053d 4cc2 d33c 02c5 21be 84ab 7dbe
000003e0: 503e 0f3e ccc2 8b3d fe4e 673d db12 fbbb
000003f0: 1a94 fe3d 351d 453c 58ce 49be bd2e 4bbe

conv.convs.1.bias f4 [64]
-0.024864655 -0.23469801 0.022124393 0.05098922 0.025374617 0.0077259573 -0.022337668 -0.23056844
-0.07586766 0.025740616 0.16162719 0.016829178 -0.031794466 0.048001397 0.0148376 -0.14689732
-0.0070996126 0.00911729 -0.0076259775 -0.0010266191 0.0024192964 0.012654977 0.02400087 -0.01152014
0.0055539664 0.033647552 0.13939713 -0.24151757 0.08949412 0.067259446 -0.013410187 0.022938456
-0.0063043856 0.001805915 0.057014797 0.026229661 -0.07969174 0.08008808 -0.13900132 0.045389105
0.015922695 0.05973938 0.01784583 0.16386041 0.12955892 0.010734861 0.04359274 0.16303217
0.09729249 -0.009539756 0.0422766 -0.053320352 0.009452264 0.03191924 0.0014144902 0.018146852
0.10114701 0.08446796 -0.009767113 0.10876803 0.037696417 -0.04437916 0.090817526 -0.008421441
00000000: f6b0 cbbc ad54 70be 373e b53c 13da 503d
00000010: 6ede cf3c 072a fd3b 7cfd b6bc 221a 6cbe
00000020: 8160 9bbd fcdd d23c 9981 253e 58dd 893c
00000030: ea3a 02bd 1d9d 443d 6819 733c 406c 16be
00000040: dea3 e8bb b060 153c 56e3 f9bb 9f8f 86ba
00000050: 0f8d 1e3b d256 4f3c 799d c43c f8be 3cbc
00000060: 0cfe b53b 04d2 093d 1fbe 0e3e 6250 77be
00000070: b148 b73d 52bf 893d 67b6 5bbc 6ee9 bb3c
00000080: 0595 cebb 74b4 ec3a 5988 693d 96df d63c
00000090: 6c35 a3bd 3805 a43d 5d56 0ebe ede9 393d
000000a0: 5070 823c 48b1 743d 6b31 923c 06cb 273e
000000b0: 18ab 043e 45e1 2f3c 4d8e 323d e8f1 263e
000000c0: 4941 c73d a34c 1cbc 3a2a 2d3d 7166 5abd
000000d0: abdd 1a3c c0bd 023d 6a66 b93a b5a8 943c
000000e0: 2a26 cf3d 8afd ac3d 3e06 20bc c6c1 de3d
000000f0: 8f67 1a3d ecc6 35bd 8afe b93d 15fa 09bc

conv.convs.1.lin.weight f4 [64, 64]
-0.44011742 0.15199243 -0.19988725 -0.534538 -0.09656993 0.038688008 0.025771374 0.15142033
-0.6588253 0.14986701 -0.01795646 -0.4089329 0.09940308 0.07360189 -0.06116735 -0.21649443
-0.07174059 -0.57841194 0.17000964 -0.06579614 -0.6855276 -0.7563212 0.04453754 -0.25079662
-0.31523335 -0.22662355 0.0910492 -0.18484761 -0.39173526 -0.03176436 0.022980262 -0.155885
0.09439452 -0.2378707 0.16449232 -1.5642352 -0.039274637 -0.22788458 -0.060427286 -0.09872829
-0.025406796 -0.621971 -0.26241767 -0.13768871 0.16059448 0.11555062 0.13398884 -0.26951125
0.044358753 0.19971392 0.06667946 0.087856926 -0.25705317 0.17529455 0.057784095 -0.29245785
-0.13980217 -0.2707675 0.11556089 -0.16199087 -0.018879943 -0.9073077 -0.08234094 -0.671323
0.10335679 0.23039028 -0.2558701 -0.031452805 0.20875199 0.10175025 0.3618677 0.008182374
-0.17959999 0.07823869 -0.038769715 -0.05733566 0.086905845 0.009231441 0.038905717 0.0154072745
0.06718579 -0.05357397 -0.14360683 0.21942496 0.24384953 -0.084325895 0.21363139 0.5385491
-0.08326132 0.036486413 0.28851107 0.03980574 -0.023944328 0.036408942 -0.1037925 -0.13399975
-0.117802694 0.0899198 0.040405624 -0.09192285 0.016276442 0.118516296 -0.086206265 0.03715536
0.07492208 0.073215246 -0.09684693 0.18056647 0.12256499 -0.08191469 0.22316256 0.050293986
0.17150745 0.05660263 0.16003662 0.18601234 -0.14472476 0.0047201305 0.1960515 -0.08629851
-0.11140778 -0.03279637 0.1633661 0.13857765 0.046206053 0.135224 0.060377873 0.11943693
-0.4625291 0.024807276 0.3018367 -0.19445512 -0.027316192 -0.15935558 -0.0053394143 0.17014183
-0.7150545 -0.1708514 0.015714135 -0.2571332 -0.18314195 -0.14202014 0.19432269 -0.10238089
0.1261888 -0.777966 -0.009157836 -0.029052457 0.11701938 -0.42321005 0.18386807 0.18211097
-0.0075210975 0.009322818 0.14808437 -0.5382418 -0.023024868 -0.028225612 0.07007654 -0.114092685
-0.24458805 0.07622806 0.040828686 0.09544877 0.22814275 -0.3940528 0.13911915 -0.042142313
-0.05109557 0.23730591 0.23348644 -0.16416414 0.005678747 0.1233877 0.10328925 -0.03442819
-0.16060589 0.24702075 0.108292736 0.016224533 0.41585574 -0.07090826 0.20677918 -0.29320154
0.20356086 -0.32639867 -0.009063465 -0.01727093 0.11826227 -0.9987683 0.052087817 -0.62162435
-0.057361018 -0.02795145 0.23596007 0.07812364 -0.24846469 -0.06878768 0.2203126 -0.39680132
-0.045906942 -0.7169075 -0.0008335653 0.009556469 -0.4920664 -0.1294908 0.14057738 -0.011077555
-0.10999385 -0.14574812 0.09910924 -0.2038006 0.30160427 -0.22931764 -0.16541024 0.045153413
-0.31614557 0.05585083 0.015510976 -0.03252704 0.14154932 -0.14323774 0.20899153 0.13486925
0.24519211 -0.31282637 -0.35319433 -0.14200523 -0.25618276 -0.113147706 -0.51841664 0.20789173
0.050642584 -0.13175328 -0.08770222 -0.10123883 -0.022423543 0.08552924 0.1964403 -0.04193181
-0.056478668 -0.21460843 0.10676619 -0.0857322 -0.01842782 -0.08616038 0.104446664 -0.19801053
-0.054188516 0.10145383 -0.270096 -0.07195206 -0.035987496 -0.18703786 -0.32110074 0.10262277
00000000: 1257 e1be e7a3 1b3e 3eaf 4cbe 7bd7 08bf
00000010: 75c6 c5bd 5177 1e3d 7d1e d33c ee0d 1b3e
00000020: c6a8 28bf bd76 193e 6d19 93bc a75f d1be
00000030: d893 cb3d 96bc 963d 9d8a 7abd b7b0 5dbe
00000040: bbec 92bd ce12 14bf 0217 2e3e 20c0 86bd
00000050: bd7e 2fbf 449e 41bf ff6c 363d 6a68 80be
00000060: 4466 a1be 0110 68be 0178 ba3d b148 3dbe
00000070: 8691 c8be 581b 02bd 1a41 bc3c 51a0 1fbe
00000080: ea51 c13d 6094 73be ad70 283e dc38 c8bf
00000090: 71de 20bd 935a 69be 9a82 77bd 0f32 cabd
000000a0: ea21 d0bc 7e39 1fbf 9c5b 86be 45fe 0cbe
000000b0: e172 243e cea5 ec3d 5f34 093e 61fd 89be
000000c0: 86b1 353d ce81 4c3e 3e8f 883d 55ee b33d
000000d0: 799c 83be 6a80 333e 04af 6c3d 09bd 95be
000000e0: 4d28 0fbe 0aa2 8abe 30ab ec3d efe0 25be
000000f0: 1caa 9abc 5145 68bf 5ea2 a8bd d3db 2bbf
00000100: baac d33d 6eeb 6b3e 6801 83be a8d4 00bd
00000110: 15c3 553e 6f62 d03d b946 b93e 5d0f 063c
00000120: 0fe9 37be 9b3b a03d fecc 1ebd ccd8 6abd
00000130: b1fb b13d 783f 173c 9a5b 1f3d cb6e 7c3c
00000140: b498 893d 6170 5bbd ab0d 13be f0b0 603e
00000150: b1b3 793e 0eb3 acbd 30c2 5a3e 5bde 093f
00000160: e984 aabd c772 153d b9b7 933e 580b 233d
00000170: e526 c4bc 8b21 153d 2a91 d4bd 3b37 09be
00000180: 8a42 f1bd df27 b83d 5e80 253d 0c42 bcbd
00000190: 2c56 853c acb8 f23d e98c b0bd 3830 183d
000001a0: bf70 993d e0f1 953d af57 c6bd 6be6 383e
000001b0: 5a03 fb3d e4c2 a7bd ba84 643e 1101 4e3d
000001c0: a69f 2f3e 29d8 673d a4e0 233e 057a 3e3e
000001d0: ba32 14be 53ab 9a3b b9c1 483e 46bd b0bd
000001e0: c329 e4bd 7d55 06bd 7149 273e 4de7 0d3e
000001f0: 8f42 3d3d 2978 0a3e ca4e 773d 599b f43d
00000200: 9dd0 ecbe a138 cb3c 578a 9a3e 3e1f 47be
00000210: 35c6 dfbc 1c2e 23be 41f6 aebb a939 2e3e
00000220: d00d 37bf abf3 2ebe eeba 803c f6a6 83be
00000230: 9089 3bbe ba6d 11be 87fc 463e 12ad d1bd
00000240: a337 013e c828 47bf c00a 16bc 6bff edbc
00000250: dba7 ef3d fdae d8be e947 3c3e 4c7b 3a3e
00000260: 8a73 f6bb bcbe 183c 6ea3 173e 37ca 09bf
00000270: a69e bcbc 6639 e7bc 4a84 8f3d 6da9 e9bd
00000280: 4a75 7abe 751d 9c3d fb3b 273d a57a c33d
00000290: 419e 693e 4ac1 c9be 4075 0e3e 6b9d 2cbd
000002a0: 9749 51bd 5200 733e 1217 6f3e a51a 28be
000002b0: c814 ba3b b1b2 fc3d 5089 d33d 9304 0dbd
000002c0: df75 24be 02f3 7c3e 95c8 dd3d 50e9 843c
000002d0: 0beb d43e 5a38 91bd ecbd 533e 831e 96be
000002e0: 4272 503e ba1d a7be ed7e 14bc c47b 8dbc
000002f0: 7d33 f23d 48af 7fbf 095a 553d c622 1fbf
00000300: 63f3 6abd 70fa e4bc 849f 713e 49ff 9f3d
00000310: 876d 7ebe 8ee0 8cbd a099 613e 8b29 cbbe
00000320: eb08 3cbd 4087 37bf 9f83 5aba bc92 1c3c
00000330: 21f0 fbbe 3c99 04be 84f3 0f3e a27e 35bc
00000340: 7544 e1bd ff3e 15be c9f9 ca3d 1bb1 50be
00000350: e06b 9a3e 3ed2 6abe 4d61 29be c9f2 383d
00000360: d5dd a1be d7c3 643d c021 7e3c 133b 05bd
00000370: 4ef2 103e eaac 12be e001 563e 2a1b 0a3e
00000380: a413 7b3e c72a a0be e3d5 b4be d269 11be
00000390: 632a 83be fcb9 e7bd f4b6 04bf 92e1 543e
000003a0: 996e 4f3d 55ea 06be 399d b3bd 4e56 cfbd
000003b0: 94b1 b7bc f429 af3d a527 493e b1c0 2bbd
000003c0: 2d56 67bd 50c2 5bbe 3ba8 da3d 5d94 afbd
000003d0: f1f5 96bc da74 b0bd 22e8 d53d 46c3 4abe
000003e0: c7f4 5dbd 07c7 cf3d 064a 8abe 9a5b 93bd
000003f0: a067 13bd da86 3fbe 5167 a4be e32b d23d

conv.convs.2.bias f4 [64]
-0.046025943 0.051782437 -0.014995073 0.057315394 -0.039875504 0.05146662 0.019851267 0.038792927
0.039485596 0.01708705 0.05944721 0.0773139 -0.042258788 0.053630162 -0.06388899 -0.055309866
0.045260824 0.07448944 -0.07961971 -0.01008113 0.05882664 0.06704734 0.051525515 -0.05668815
-0.06335198 0.07109889 -0.0538126 0.014284364 -0.08966597 0.06639942 -0.006051095 -0.04580294
-0.062366884 -0.051278856 -0.04023076 0.04118006 -0.066794395 0.01203182 -0.070276 0.043281876
0.013669876 -0.07647203 -0.08446681 -0.009623003 -0.013136818 0.019975474 -0.07253182 0.069760494
0.07632132 -0.010588602 -0.06275871 -0.07241514 -0.0673173 0.06914387 0.054351036 -0.034454443
-0.0030953707 -0.044647165 0.007683601 0.04537061 0.04627082 -0.03183043 0.071257204 0.013628164
00000000: b385 3cbd d219 543d e5ad 75bc 8cc3 6a3d
00000010: 7f54 23bd aace 523d 209f a23c 55e5 1e3d
00000020: a6bb 213d 24fa 8b3c eb7e 733d c056 9e3d
00000030: 8d17 2dbd 4dab 5b3d 3bd8 82bd 998c 62bd
00000040: 6a63 393d eb8d 983d a90f a3bd 532b 25bc
00000050: 34f4 703d 1e50 893d 6b0c 533d d531 68bd
00000060: afbe 81bd 4b9c 913d 9a6a 5cbd f708 6a3c
00000070: cba2 b7bd 6bfc 873d 4448 c6bb dd9b 3bbd
00000080: 6b74 7fbd c709 52bd 02c9 24bd 6cac 283d
00000090: 80cb 88bd 1c21 453c ddec 8fbd 5648 313d
000000a0: 9ef7 5f3c 5e9d 9cbd effc acbd cda9 1dbc
000000b0: cf3b 57bc 9ba3 a33c 908b 94bd 97de 8e3d
000000c0: 5a4e 9c3d d17b 2dbc a387 80bd 644e 94bd
000000d0: a7dd 89bd 4d9b 8d3d 319f 5e3d 1a20 0dbd
000000e0: b4db 4abb f2df 36bd b8c6 fb3b 88d6 393d
000000f0: 7986 3d3d a060 02bd 4cef 913d aa48 5f3c

conv.convs.2.lin.weight f4 [64, 64]
0.1839166 -0.49248308 -0.099621505 0.06512025 0.18187542 0.06803693 0.2904844 -0.4930503
0.0995605 0.31534278 0.24920672 0.31648183 0.17098801 0.117086284 -0.08421298 -0.119841024
0.11291766 0.39495048 0.25180784 -0.05079054 0.106695406 0.2118675 0.031160792 0.19660664
0.37739983 0.08530474 0.0010840102 -0.5773717 0.38093972 0.4085728 0.27257216 -0.015888669
0.03192369 -0.01403541 -0.21119253 0.056765873 0.053836294 -0.010599156 0.10482026 -0.048603415
0.15682815 0.100956954 0.1891774 0.4188773 0.70246494 0.17152034 -0.09703303 0.16202132
0.04394161 0.4441387 0.11404387 0.263384 0.20050387 0.35903117 0.23897061 0.056802146
0.01466301 -0.07254595 0.340804 0.009917063 -0.10921589 0.21571909 0.04339008 0.31529295
-0.17541851 0.7841679 0.06220513 -0.31996047 0.026453706 -0.13325244 -0.22383155 0.5376214
-0.050409347 -0.4109191 0.13809201 -0.0008538066 -0.24137022 0.17256628 0.061423734 0.1575068
-0.2710248 0.077845335 0.1973412 -0.00937326 -0.053735573 -0.21132617 -0.37747288 0.025932716
-0.6288806 -0.035762545 -0.097274095 0.59688765 0.24176633 0.0006260753 -0.019492263 -0.18021193
0.10017249 -0.19080012 0.18022896 -0.36727542 0.025854519 0.015936835 0.14549607 -0.25625545
0.038865946 0.07648625 0.12398217 -0.036729105 -0.42478392 -0.03354148 0.20558405 0.2434578
0.05234701 -0.049535114 0.21164393 -0.2795119 0.4308731 0.3301464 -0.15304258 0.06660334
-0.056426022 0.04413225 -0.40866876 -0.023353314 -0.14913687 -0.15320279 -0.10027721 -0.30168995
0.039806586 -0.082783304 0.092841536 0.3182192 0.13911676 -0.14197391 -0.21289137 -0.14919028
0.2795336 -0.166481 -0.06965729 -0.099145055 0.1620967 0.18079036 0.28330404 -0.06857683
-0.006350539 -0.010879672 0.060651 -0.20392723 -0.36006936 -0.2739998 0.32813892 0.25976795
0.13277556 -0.022557402 -0.0837097 -0.24071841 -0.15648738 -0.13274352 -0.10310001 0.42615664
-0.024311813 -0.10060593 0.009644962 0.17218986 -0.11967044 0.4328883 -0.6977815 0.35152072
0.4222132 -0.37208378 -0.17339852 0.016109645 0.3592964 0.318421 0.11911554 0.17299213
0.32758057 -0.025085025 -0.013527701 0.2247967 0.24402839 0.056642197 -0.17056704 -0.13461699
0.46036685 -0.0892816 -0.5378922 0.0112580955 0.026582919 -0.30798966 -0.103683025 -0.41825476
0.10621996 0.5311021 -0.007697191 -0.23581174 0.14861098 -0.11454807 -0.13949805 0.49890497
0.29151604 -0.12233482 -0.23364833 -0.049966898 0.07159205 -0.18466839 -0.108860046 -0.19793575
0.26423717 -0.07163077 0.047582127 0.27967265 -0.3958618 0.079985015 -0.14825806 0.10745983
0.029658075 0.16923533 -0.12499597 0.6139519 -0.30843997 0.08045 0.039826386 -0.04784377
0.010555455 -0.2757502 -0.2553489 -0.0094999885 -0.33040172 -0.058362566 0.0013027447 -0.14687291
0.21172762 -0.359101 0.10295364 -0.38291106 -0.07592533 -0.10895308 -0.1262466 -0.06616117
-0.3950608 -0.43315262 -0.05249513 0.084450014 -0.29022834 0.103291094 0.04062858 -0.04889068
-0.4476247 -0.17536402 -0.13478173 -0.08461903 -0.2765087 0.13353004 -0.19873972 -0.045218647
00000000: a254 3c3e be26 fcbe 5c06 ccbd c45d 853d
00000010: 8d3d 3a3e f256 8b3d 5fba 943e 1771 fcbe
00000020: 60e6 cb3d 9c74 a13e 0c30 7f3e e809 a23e
00000030: 7b17 2f3e efca ef3d db77 acbd 366f f5bd
00000040: 6041 e73d f336 ca3e f5ec 803e be09 50bd
00000050: 1f83 da3d cbf3 583e eb44 ff3c 4053 493e
00000060: 8d3a c13e 40b4 ae3d 5915 8e3a a2ce 13bf
00000070: 880a c33e 7430 d13e 948e 8b3e f428 82bc
00000080: 6ac2 023d c7f4 65bc db42 58be 5583 683d
00000090: 7283 5c3d 15a8 2dbc 01ac d63d 6014 47bd
000000a0: 8f97 203e 85c2 ce3d b8b7 413e 1677 d63e
000000b0: bed4 333f 07a3 2f3e 41b9 c6bd ebe8 253e
000000c0: 1efc 333d 2666 e33e d58f e93d 45da 863e
000000d0: e350 4d3e efd2 b73e b6b4 743e 5ea9 683d
000000e0: 1f3d 703c f992 94bd dd7d ae3e 2d7b 223c
000000f0: 95ac dfbd 77e5 5c3e ccb9 313d 146e a13e
00000100: e9a0 33be 3abf 483f ceca 7e3d dcd1 a3be
00000110: 71b5 d83c 5473 08be 1934 65be 8ea1 093f
00000120: 087a 4ebd fd63 d2be fe67 0d3e fed1 5fba
00000130: c129 77be 37b5 303e 7497 7b3d 7649 213e
00000140: c3c3 8abe 606d 9f3d d013 4a3e 4d92 19bc
00000150: d519 5cbd e365 58be 2044 c1be d970 d43c
00000160: 52fe 20bf bf7b 12bd a437 c7bd a1cd 183f
00000170: 9891 773e 341f 243a 3dae 9fbc 7a89 38be
00000180: 3c27 cd3d 1b61 43be f18d 383e 860b bcbe
00000190: dbcc d33c f78d 823c ecfc 143e ea33 83be
000001a0: e631 1f3d d3a4 9c3d 5dea fd3d 4271 16bd
000001b0: 477d d9be ca62 09bd a084 523e 004d 793e
000001c0: d169 563d 55e5 4abd 30b9 583e 2f1c 8fbe
000001d0: 669b dc3e f308 a93e 32b7 1cbe 5567 883d
000001e0: f91e 67bd 05c4 343d 083d d1be 734f bfbc
000001f0: 56b7 18be 31e1 1cbe 235e cdbd 1b77 9abe
00000200: 3b0c 233d 4b8a a9bd b423 be3d a1ed a23e
00000210: a074 0e3e 9c61 11be 3200 5abe 56c5 18be
00000220: 071f 8f3e ff79 2abe 7ba8 8ebd 900c cbbd
00000230: adfc 253e 1c21 393e 3a0d 913e 0272 8cbd
00000240: 2f18 d0bb a740 32bc 2f6d 783d 4dd2 50be
00000250: 035b b8be b449 8cbe d301 a83e 4e00 853e
00000260: 51f6 073e 4dca b8bc fe6f abbd e37e 76be
00000270: 3a3e 20be ebed 07be 1926 d3bd 3431 da3e
00000280: 9129 c7bc 7b0a cebd e705 1e3c 8a52 303e
00000290: c715 f5bd 89a3 dd3e cfa1 32bf 86fa b33e
000002a0: 542c d83e c481 bebe 628f 31be 60f8 833c
000002b0: b3f5 b73e 1408 a33e d9f2 f33d d924 313e
000002c0: a4b8 a73e 1c7f cdbc 4aa3 5dbc 1b31 663e
000002d0: 94e2 793e a601 683d 20a9 2ebe 09d9 09be
000002e0: 34b5 eb3e 46d9 b6bd 4eb3 09bf e073 383c
000002f0: 6cc4 d93c d2b0 9dbe c457 d4bd 7d25 d6be
00000300: da89 d93d 4ff6 073f b838 fcbb a278 71be
00000310: 7a2d 183e 2e98 eabd 94d8 0ebe 7970 ff3e
00000320: 9741 953e ae8a fabd 8241 6fbe 17aa 4cbd
00000330: da9e 923d b619 3dbe 04f2 debd abaf 4abe
00000340: 184a 873e 27b3 92bd 7ae5 423d 4131 8f3e
00000350: 66ae cabe 2fcf a33d f6d0 17be e613 dc3d
00000360: 7ef5 f23c 074c 2d3e e3fd ffbd f42b 1d3f
00000370: d8eb 9dbe f8c2 a43d fe20 233d d4f7 43bd
00000380: caf0 2c3c 212f 8dbe 17bd 82be d7a5 1bbc
00000390: 6a2a a9be 960d 6fbd dcc0 aa3a da65 16be
000003a0: 20cf 583e 16dc b7be 5cd9 d23d eb0c c4be
000003b0: bd7e 9bbd cb22 dfbd ca46 01be 827f 87bd
000003c0: 6945 cabe 2ec6 ddbe 2205 57bd 21f4 ac3d
000003d0: cf98 94be 488a d33d 276a 263d 9841 48bd
000003e0: 112f e5be a092 33be 3904 0abe be4c adbd
000003f0: 8c92 8dbe 19bc 083e 6d82 4bbe 3037 39bd

lin.weight f4 [64, 128]
0.04685655 -0.1881549 0.011909901 0.052531824 -0.039504375 -0.03218214 -0.1794122 -0.16105823
0.119149484 0.013926616 -0.3623164 -0.07871609 -0.037953395 -0.17130701 0.12328214 0.3525316
-0.09652658 0.0018896532 0.12958437 0.076702796 -0.5155783 0.15021378 -0.0029167647 -0.0808551
-0.07814536 0.04015077 0.23186307 0.14873262 0.020764524 -0.12139201 0.15481329 0.20429178
-0.04603472 0.09054916 -0.022673171 -0.14153096 -0.11747666 -0.09865872 -0.12496249 0.051998485
0.055178303 0.20811771 0.05405932 0.06513113 -0.106873065 -0.19091593 0.0004412365 -0.16250603
0.047853425 0.10490874 0.04969256 0.20544663 -0.052269053 -0.1585913 -0.1717111 0.27066582
0.47069895 0.22147608 -0.1611729 -0.1343801 0.013741721 0.060871076 -0.11979785 0.08567707
-0.17950006 0.02246707 0.12993795 0.28737873 -0.33419424 0.31451285 -0.11005992 0.40490806
0.048961114 0.10769397 0.23391274 0.35405472 0.26152003 -0.3770689 -0.46298975 -0.16733046
0.2639784 0.29014796 -0.35988268 -0.1444551 0.10885834 0.20137724 0.42973825 -0.016397823
0.33067846 0.27575764 0.04687599 -0.274545 0.16858819 0.30731952 -0.32390445 0.0707939
-0.113679826 0.21055548 0.1425444 0.08951692 -0.3114876 0.0813969 -0.77577657 -0.1440835
0.093255684 -0.3042077 -0.014547502 0.16337052 -0.110571034 0.2493453 0.13376442 0.5839884
0.25621557 -0.06747234 -0.24543425 0.20727566 -0.50251114 -0.34038305 0.3376345 -0.36097586
0.1930586 -0.15124336 0.18550757 0.16216475 -0.24278842 -0.2075263 0.3148344 -0.22872636
0.027129076 -0.18757193 0.03678141 0.098196164 -0.38972163 -0.052370004 -0.1430956 -0.14999662
0.15554595 0.11822758 0.0957579 -0.29414272 -0.062073983 0.22847065 0.2737384 -0.017719107
-0.09234297 -0.042537067 -0.18287207 0.028547421 -0.113208346 -0.09260482 0.3292363 -0.2959781
-0.043489795 0.53749406 -0.10908657 -0.2350057 0.055304915 -0.39146352 -0.33772686 0.4218358
0.19675511 0.054951534 0.31002167 0.07156726 0.22814035 0.09085026 0.17688376 -0.3797608
-0.37669873 -0.311818 0.07746231 -0.09084804 -0.0710331 0.17642598 -0.031055989 -0.18211687
-0.02198504 0.015527486 -0.08060406 -0.24007493 -0.01561515 0.07510714 0.14895502 0.038561452
-0.37482685 0.23047419 0.16335967 -0.15608947 -0.40438926 -0.035304155 0.39885008 -0.53168464
0.33413425 -0.30199403 -0.31130928 0.22621481 -0.52438754 0.021070093 -0.42051643 -0.38161975
0.29366145 0.3150691 -0.14715514 -0.58893746 0.13246441 0.3608854 0.4834508 0.30683237
-0.43102115 -0.25995415 -0.21824907 0.29778337 -0.51523405 -0.53968984 0.35434672 -0.21497639
-0.24461585 0.66394126 -0.26834136 0.0031849884 -0.049911786 -0.65246314 -0.10025196 0.4518697
0.09223181 -0.13738884 0.21172205 0.051144764 0.5638044 0.03108038 0.345296 -0.45225906
-0.38507912 -0.20304818 -0.25492936 -0.3189269 -0.43277994 -0.07948499 -0.29894292 -0.43535155
-0.2931903 0.275458 -0.12877236 -0.3979512 -0.1263762 0.087713756 -0.13871147 0.3613995
-0.37195382 0.4386367 -0.20870283 -0.5534053 -0.41353318 0.27607754 0.39101678 -0.56382334
00000000: a7ec 3f3d aeab 40be bf21 433c 9c2b 573d
00000010: 57cf 21bd 6bd1 03bd d5b7 37be 73ec 24be
00000020: a504 f43d 762c 643c 8981 b9be e735 a1bd
00000030: 0575 1bbd 1b6b 2fbe 597b fc3d 067f b43e
00000040: baaf c5bd 3dae f73a c4b1 043e 5b16 9d3d
00000050: f1fc 03bf a4d1 193e 3127 3fbb 5c97 a5bd
00000060: ad0a a0bd 2275 243d 836d 6d3e 5d4d 183e
00000070: 5d1a aa3c 609c f8bd 6087 1e3e dd31 513e
00000080: e78e 3cbd d771 b93d 16bd b9bc 7eed 10be
00000090: 9a97 f0bd 950d cabd 55ec ffbd 5dfc 543d
000000a0: a502 623d cf1c 553e 4e6d 5d3d 7863 853d
000000b0: 44e0 dabd 777f 43be c355 e739 fb67 26be
000000c0: f401 443d 65da d63d 6d8a 4b3d 9a60 523e
000000d0: 1318 56bd c265 22be 09d5 2fbe b694 8a3e
000000e0: 74ff f03e a0ca 623e 820a 25be f09a 09be
000000f0: f524 613c f353 793d 9358 f5bd 7677 af3d
00000100: ddce 37be dc0c b83c 740e 053e 4e23 933e
00000110: 821b abbe d407 a13e 1867 e1bd 1c50 cf3e
00000120: 738b 483d a88e dc3d d286 6f3e a946 b53e
00000130: f4e5 853e 2d0f c1be fe0c edbe ad58 2bbe
00000140: 2d28 873e 468e 943e 8b42 b8be 0aec 13be
00000150: 1ff1 de3d d635 4e3e a706 dc3e ba54 86bc
00000160: b04e a93e 1b30 8d3e 0a01 403d 2a91 8cbe
00000170: 62a2 2c3e fc58 9d3e ced6 a5be 64fc 903d
00000180: f8d0 e8bd db9b 573e 29f7 113e a654 b73d
00000190: 4d7b 9fbe 6bb3 a63d 4b99 46bf a08a 13be
000001a0: d6fc be3d 1dc1 9bbe a558 6ebc 9a4a 273e
000001b0: 1173 e2bd 6054 7f3e 8af9 083e 4480 153f
000001c0: b02e 833e f02e 8abd 1e53 7bbe 1240 543e
000001d0: 92a4 00bf b046 aebe 6ede ac3e d4d1 b8be
000001e0: 27b1 453e 8adf 1abe b2f5 3d3e 840e 263e
000001f0: 879d 78be c681 54be f931 a13e 3e37 6abe
00000200: cc3d de3c db12 40be 1ba8 163d 121b c93d
00000210: 9889 c7be ee81 56bd a787 12be b798 19be
00000220: 7047 1f3e 4d21 f23d b81c c43d e099 96be
00000230: 4a41 7ebd 36f4 693e 7127 8c3e a927 91bc
00000240: 501e bdbd 593b 2ebd d142 3bbe 48dc e93c
00000250: c7d9 e7bd 99a7 bdbd a991 a83e 718a 97be
00000260: 5b22 32bd 3699 093f c868 dfbd 56a5 70be
00000270: 6887 623d e86d c8be 89ea acbe ddfa d73e
00000280: 2c7a 493e dc14 613d 29bb 9e3e db91 923d
00000290: a09d 693e b30f ba3d 0421 353e 0270 c2be
000002a0: a8de c0be 9ca6 9fbe 8fa4 9e3d 8a0e babd
000002b0: cd79 91bd 03a9 343e 2169 febc d87c 3abe
000002c0: f819 b4bc ff66 7e3c be13 a5bd 34d6 75be
000002d0: b0d6 7fbc c6d1 993d aa87 183e 9df2 1d3d
000002e0: 4ee9 bfbe 6d01 6c3e c247 273e ebd5 1fbe
000002f0: 1c0c cfbe 179b 10bd 1436 cc3e 7c1c 08bf
00000300: a513 ab3e f69e 9abe ee63 9fbe dba4 673e
00000310: 433e 06bf 309b ac3c ee4d d7be aa63 c3be
00000320: cb5a 963e bd50 a13e d6af 16be 9bc4 16bf
00000330: c0a4 073e f9c5 b83e dd86 f73e 2219 9d3e
00000340: ceae dcbe b618 85be af7c 5fbe 1077 983e
00000350: 61e6 03bf 1d29 0abf ef6c b53e c522 5cbe
00000360: 947c 7abe 0ef8 293f 0a64 89be 3dbb 503b
00000370: 4d70 4cbd d307 27bf e650 cdbd 775b e73e
00000380: 08e4 bc3d a9af 0cbe aacd 583e 2c7d 513d
00000390: 7c55 103f 489c fe3c a3ca b03e 808e e7be
000003a0: 1729 c5be ddeb 4fbe 1a86 82be 634a a3be
000003b0: 5595 ddbe 07c9 a2bd 0c0f 99be 66e6 debe
000003c0: 0a1d 96be d508 8d3e e7dc 03be 42c0 cbbe
000003d0: c368 01be 45a3 b33d 610a 0ebe 5b09 b93e
000003e0: bb70 bebe fd94 e03e 32b6 55be f8ab 0dbf
000003f0: 9fba d3be 095a 8d3e 5a33 c83e ba56 10bf

lin.bias f4 [64]
-0.1849332 0.16533162 -0.22950888 -0.22928336 -0.04030504 0.041248318 0.30339137 -0.11565131
0.5849832 -0.12438463 0.07611932 -0.14228465 0.24362053 0.10802369 0.094984904 0.2597405
-0.116773434 -0.019753996 0.3602834 -0.08451038 0.04110681 -0.10623782 0.12634675 0.0663482
-0.18003519 0.15831335 -0.063483216 0.09143069 -0.2942468 0.20800097 -0.04059713 -0.073449
-0.05968201 0.19774665 0.16935627 -0.1854701 -0.025222499 0.016700946 0.1495495 0.38918278
-0.10492495 0.27918953 -0.068488635 0.096869744 0.18829738 -0.11640704 0.035971336 -0.110500455
0.108299635 0.07383272 -0.079430915 -0.35775286 -0.07204223 -0.18055892 0.18323578 -0.2728922
-0.0052583255 0.36816704 0.5417717 -0.066793 -0.09282246 0.05308078 -0.1455987 -0.056712292
00000000: 215f 3dbe b14c 293e 6004 6bbe 42c9 6abe
00000010: e616 25bd fff3 283d 1d56 9b3e 98da ecbd
00000020: 76c1 153f 5ebd febd 72e4 9b3d 11b3 11be
00000030: a977 793e 863b dd3d 7287 c23d b5fc 843e
00000040: e926 efbd 22d3 a1bc 1177 b83e c713 adbd
00000050: 9d5f 283d 3793 d9bd 0b61 013e 91e1 873d
00000060: 255b 38be e51c 223e 7d03 82bd 0340 bb3d
00000070: 84a7 96be 35fe 543e 2d49 26bd 6e6c 96bd
00000080: 2075 74bd 197e 4a3e bb6b 2d3e e0eb 3dbe
00000090: 6a9f cebc 6cd0 883c 8123 193e f742 c73e
000000a0: e4e2 d6bd eef1 8e3e c543 8cbd a563 c63d
000000b0: 07d1 403e d066 eebd ae56 133d 104e e2bd
000000c0: 33cc dd3d 9c35 973d adac a2bd 622b b7be
000000d0: e08a 93bd 70e4 38be 29a2 3b3e 87b8 8bbe
000000e0: 084e acbb 6480 bc3e 8db1 0a3f c5ca 88bd
000000f0: b419 bebd 3b6b 593d d317 15be 264b 68bd

out.weight f4 [3, 64]
0.19431442 -0.7221494 -0.69479495 0.092559844 -0.051182713 0.35351068 -0.28659156 -0.23294239
-0.54516834 0.6408619 0.10793792 0.21539935 -0.33122534 -0.38740826 -0.36369938 -0.36583006
0.514144 0.12227071 -0.32917777 0.2648371 -0.019063596 -0.014692572 -0.40706292 -0.61409974
0.12408311 -0.39504597 0.14950821 -0.33838233 0.28578874 0.24965118 -0.029756293 0.18046466
-0.04776048 0.11860841 -0.28742242 0.16235325 -0.096085615 -0.06155017 -0.11777611 -0.24956687
0.25746712 0.2984931 0.13702643 -0.019942166 -0.31793034 0.1164103 0.32130468 0.3505057
0.16083087 0.57895434 0.26574197 0.48879856 -0.13645563 -0.42826918 -0.51980376 0.36203438
-0.65944093 -0.36773044 -0.03667427 -0.048362106 0.26921028 0.25642166 -0.7148914 0.088228725
-0.4846614 0.43100742 0.5616555 -0.44855613 -0.10942213 0.05557902 0.056078874 0.6309553
0.6375225 0.2375694 0.16124184 -0.34048894 0.27321875 0.35351962 0.48146155 0.45682886
-0.23556939 -0.32885396 0.6399974 0.14832848 -0.33036324 -0.046298504 0.2175643 0.08343217
-0.35643 0.19646047 0.29983112 0.28265142 -0.75261074 0.29713273 -0.061646428 -0.29310533
-0.049450975 0.5900856 0.28386796 -0.48566258 -0.03780392 -0.05779678 0.47132757 0.4403258
-0.06435836 0.21520941 -0.32234147 -0.33194858 0.35494366 -0.34974107 0.16505574 0.12056144
0.17833059 0.33697864 0.38193077 -0.83814126 -0.043309364 0.46428165 0.22999799 -0.7151
0.39584857 0.108575314 0.76698625 -0.09765269 0.39799055 0.0960272 0.43537107 -0.103195846
0.09202187 0.26365307 -0.29244867 0.21168123 -0.006013788 -0.49330556 0.27670902 -0.43780458
1.6812548e-05 -1.17612 -0.3586513 0.1493574 -0.0018808403 -0.0011483391 -0.20489848 0.074975796
-0.541716 0.14252955 -0.28617787 -0.48313126 0.04364819 0.021591602 0.1968018 0.24271713
-0.011223135 0.15091182 -0.42620367 -0.011406406 -0.003151756 -0.53874546 -0.014738936 0.09448312
0.06258781 -0.9265869 -0.0017029692 0.013919964 -0.0007392341 -0.0676218 -0.31158832 -0.0149454
-0.48873958 -0.85100347 0.10462151 0.08188894 0.12628497 0.03810034 -0.40777814 -0.43148935
-0.4585807 -0.96193135 -0.42985937 -0.14857821 0.05455198 -0.20504935 0.18899009 -0.1441038
0.14792156 0.29424053 -0.55470115 0.074686244 -0.8053409 -0.4905175 0.30583662 -0.083469346
00000000: 5cfa 463e c8de 38bf 15de 31bf 0490 bd3d
00000010: f7a4 51bd 5aff b43e 21bc 92be 7388 6ebe
00000020: 2790 0bbf 870f 243f 8e0e dd3d a691 5c3e
00000030: 5e96 a9be 605a c6be ce36 babe 144e bbbe
00000040: f19e 033f 1169 fa3d fd89 a8be ba98 873e
00000050: 422b 9cbc 1db9 70bc 8d6a d0be a435 1dbf
00000060: 491f fe3d 7743 cabe ae18 193e 7340 adbe
00000070: e752 923e 8fa4 7f3e 78c3 f3bc bacb 383e
00000080: 7ea0 43bd f7e8 f23d 0829 93be ee3f 263e
00000090: 89c8 c4bd 081c 7cbd 9a34 f1bd 758e 7fbe
000000a0: bbd2 833e 16d4 983e a850 0c3e c15d a3bc
000000b0: c4c7 a2be 8668 ee3d 0c82 a43e 7c75 b33e
000000c0: d9b0 243e 5a36 143f 550f 883e ce43 fa3e
000000d0: 06bb 0bbe 1946 dbbe dc11 05bf 925c b93e
000000e0: 1fd1 28bf 2a47 bcbe c237 16bd 5817 46bd
000000f0: eed5 893e b349 833e 1f03 37bf 43b1 b43d
00000100: 8a25 f8be 01ad dc3e a8c8 0f3f 26a9 e5be
00000110: b618 e0bd d4a6 633d f6b2 653d 4986 213f
00000120: ad34 233f 6545 733e 951c 253e 9154 aebe
00000130: 54e3 8b3e 8600 b53e 2182 f63e 79e5 e93e
00000140: 1a39 71be 8c5f a8be dfd6 233f 6ce3 173e
00000150: 5f25 a9be 80a3 3dbd 2dc9 5e3e 7cde aa3d
00000160: fe7d b6be ef2c 493e 7783 993e b0b7 903e
00000170: 19ab 40bf c821 983e f780 7cbd e711 96be
00000180: 1b8d 4abd da0f 173f 2457 913e c4a8 f8be
00000190: 49d8 1abd 51bc 6cbd d951 f13e 6272 e13e
000001a0: 51ce 83bd db5f 5c3e f109 a5be 2af5 a9be
000001b0: 2dbb b53e 4311 b3be 5f04 293e ebe8 f63d
000001c0: 4b9c 363e 7788 ac3e 6e8c c33e 6d90 56bf
000001d0: 2965 31bd 53b6 ed3e 9884 6b3e cb10 37bf
000001e0: aaac ca3e bc5c de3d 3659 443f 22fe c7bd
000001f0: 6bc5 cb3e e9a9 c43d f5e8 de3e 5858 d3bd
00000200: f675 bc3d 89fd 863e d5bb 95be f7c2 583e
00000210: 4f0f c5bb 8c92 fcbe ceac 8d3e ec27 e0be
00000220: ac08 8d37 1a8b 96bf 25a1 b7be 25f1 183e
00000230: 8786 f6ba de83 96ba e8d0 51be e98c 993d
00000240: e6ad 0abf 44f3 113e e885 92be fb5c f7be
00000250: 72c8 323d dfe0 b03c 6986 493e d78a 783e
00000260: 3de1 37bc a188 1a3e 5e37 dabe efe1 3abc
00000270: b18d 4ebb 39eb 09bf 947b 71bc 5e80 c13d
00000280: 0a2e 803d cd34 6dbf 2a36 dfba 9010 643c
00000290: 29c9 41ba 4c7d 8abd 8188 9fbe 8ddd 74bc
000002a0: 133c fabe 5ddb 59bf cd43 d63d 63b5 a73d
000002b0: d950 013e 1a0f 1c3d 4cc8 d0be 2cec dcbe
000002c0: 17cb eabe 2241 76bf 8716 dcbe e324 18be
000002d0: e671 5f3d 75f8 51be 9e86 413e f28f 13be
000002e0: c078 173e b2a6 963e e500 0ebf 1af5 983d
000002f0: d22a 4ebf 1c25 fbbe 9e96 9c3e faf1 aabd

out.bias f4 [3]
-0.18299565 -0.094956554 0.22450247
00000000: 3663 3bbe 9578 c2bd fae3 653e
