baseline_explainers/gnninterpreter/ckpts/bashapes_ckpt.pt (torch, 72535 bytes, 10 tensors)

conv.convs.0.bias f4 [64]
0.0049671642 0.0029765498 0.034794267 0.062601656 0.018881036 0.07460325 0.030764017 0.0049905237
0.018887503 0.022857996 -0.03636833 0.010927431 -0.002988996 -0.014933565 0.048712134 0.016902497
0.002979043 0.21642806 0.1606278 -0.020878965 -0.0049794354 -0.25228095 0.02087654 -0.046715084
0.024851399 0.008941447 0.052689213 0.036791686 0.0009972083 0.17050226 0.014943273 0.018887866
0.032803744 0.0149163455 0.0049456554 0.024861436 0.0009896732 0.004964266 0.088626884 0.01490767
0.006953343 0.046733506 -0.18210612 0.32630733 0.0049665016 0.02684393 0.056669917 0.010933021
0.07058657 0.03479318 0.018888488 0.0028820015 0.054679792 -0.016899109 0.21047124 0.0069562285
0.008952307 0.03479176 0.058651358 0.0029756262 0.1366626 0.024939856 -0.03876848 0.024855765
00000000: 98c3 a23b 3812 433b 6f84 0e3d 4c35 803d
00000010: 67ac 9a3c 97c9 983d d204 fc3c 8c87 a33b
00000020: f7b9 9a3c b140 bb3c f5f6 14bd f808 333c
00000030: 08e3 43bb e9ab 74bc 6086 473d 1b77 8a3c
00000040: 0c3c 433b 519f 5d3e 9d7b 243e 5d0a abbc
00000050: 882a a3bb f82a 81be 4705 ab3c 5158 3fbd
00000060: 2995 cb3c 267f 123c a5d0 573d e1b2 163d
00000070: c2b4 823a 2598 2e3e a1d4 743c baba 9a3c
00000080: 385d 063d b063 743c 2a0f a23b 36aa cb3c
00000090: ecb7 813a 48ab a23b 0382 b53d 4d3f 743c
000000a0: ded8 e33b a26b 3f3d 077a 3abe c111 a73e
000000b0: 09be a23b cde7 db3c b71e 683d 6a20 333c
000000c0: b18f 903d 4b83 0e3d 08bc 9a3c f6df 3c3b
000000d0: ebf7 5f3d 0070 8abc c685 573e 13f1 e33b
000000e0: b2ac 123c ce81 0e3d 683c 703d b902 433b
000000f0: 48f1 0b3e ab4e cc3c b3cb 1ebd 519e cb3c

conv.convs.0.lin.weight f4 [64, 4]
0.26835603 0.2713017 -0.06817281 -0.10775619 0.29469633 -0.15947682 0.084799826 0.21932034
0.205373 -0.21889749 0.053525157 0.08149768 0.25849065 -0.08565689 -0.20883395 -0.1633636
0.25245354 0.18396513 0.13954483 -0.19965328 -0.26428267 0.07986509 -0.070707925 -0.24225542
-0.24511418 -0.06524176 -0.058880698 -0.22392356 -0.08958775 -0.095046505 0.27220994 -0.13361272
-0.08793904 0.28653854 -0.18013085 -0.0011584974 -0.16207618 0.1734253 0.3009739 0.1494563
-0.007269693 -0.018649504 0.08005133 0.016578589 0.29711294 0.2778298 -0.11933475 0.18881302
0.01333767 0.13680021 -0.0029493968 0.26684278 0.23414677 -0.15758738 -0.004567762 0.49161974
0.18641645 -0.2720438 -0.00716362 -0.050622985 -0.089599736 0.0094719855 -0.07873376 0.17418233
-0.34969935 0.2283378 0.040909767 0.18593127 0.07172928 0.29792693 -0.45536196 -0.014865957
-0.083257034 -0.10282528 0.5502815 0.1880998 0.18813577 0.33607027 -0.012068163 0.20113465
0.075750984 -0.14059721 -0.100128844 -0.17799814 -0.08966298 -0.28176636 0.028069628 -0.22457829
-0.23337872 0.3227296 0.11281541 0.035824705 -0.17758778 0.047594573 -0.24775665 0.04519964
-0.23802161 0.27570632 -0.16764596 0.2820911 0.14478727 0.16467552 -0.26806447 0.3022749
-0.21167581 0.16504459 0.0007577499 0.117426075 0.21645485 0.0058933636 -0.20688841 -0.12576085
0.23260556 0.074160285 -0.23515438 0.19644593 0.13808988 0.48627648 -0.124632046 -0.18144418
-0.25328654 -0.10579481 0.08468988 -0.039318133 -0.102558084 -0.051166456 -0.107960805 0.2558458
-0.12311906 0.24341217 -0.2539808 0.11057437 -0.23410432 0.11298197 -0.12835608 0.22874658
-0.3307656 0.27653328 0.7804237 -0.22548938 0.3090179 -0.25957477 0.02334045 -0.20536059
0.1983303 -0.034982547 0.19016837 -0.0731643 0.16338018 0.23607306 -0.20137653 0.29334825
-0.39397478 0.08590062 0.018645506 -0.02437807 0.36147562 -0.15383199 0.022171434 0.016470995
0.14329687 -0.07068518 0.30290467 0.29390916 -0.13465852 -0.052978322 -0.17502801 0.22078001
-0.39555615 -0.0718569 -0.63646805 -0.20742275 -0.16708107 0.29498658 0.113947675 -0.4361978
0.19685587 -0.017225893 0.07165709 -0.10554499 0.18698001 -0.13557151 0.3074827 -0.09168672
-0.0038681803 -0.21605761 0.23673353 -0.13029072 0.3408209 0.13372512 -0.0077844397 -0.11760811
0.0029276786 -0.14165632 0.15980358 -0.20602538 -0.10338821 -0.18276535 0.14589046 0.12910022
0.2996179 -0.051959895 0.29211807 -0.18365918 -0.19980349 -0.29515615 0.020840907 -0.2820285
0.26274773 -0.17429784 0.1622689 -0.110680796 0.014397942 -0.109214485 0.14331031 0.28299627
-0.23003945 -0.21631384 0.17595395 -0.0065306732 0.31052026 0.11335359 0.010360591 -0.24104582
0.07212939 -0.12279766 0.12799728 -0.101859994 -0.006884131 0.25039187 0.3020811 -0.24285014
-0.1560739 -0.058855034 0.012546275 0.29744732 0.21620128 -0.019758003 -0.15046747 0.31170177
-0.16603118 -0.4878781 0.38380036 0.35384834 0.1198127 -0.03166239 -0.09957337 -0.06715438
0.2175638 0.12488498 0.1017839 -0.051140614 0.17308585 0.0555746 -0.16637233 -0.13207592
00000000: f665 893e 0ee8 8a3e 309e 8bbd 47af dcbd
00000010: 70e2 963e e44d 23be 88ab ad3d 8395 603e
00000020: 4d4d 523e aa26 60be 323d 5b3d 41e8 a63d
00000030: e358 843e e16c afbd 91d8 55be ca48 27be
00000040: 9741 813e 5b61 3c3e d7e4 0e3e e971 4cbe
00000050: 0f50 87be 4f90 a33d 51cf 90bd ce11 78be
00000060: 36ff 7abe 799d 85bd e32c 71bd 384c 65be
00000070: c879 b7bd bea7 c2bd 1a5f 8b3e c6d1 08be
00000080: 6219 b4bd 2eb5 923e 3974 38be b9d8 97ba
00000090: 4cf7 25be 6796 313e 4019 9a3e 130b 193e
000000a0: 9b36 eebb d8c6 98bc f4f1 a33d d2cf 873c
000000b0: 301f 983e b53f 8e3e c765 f4bd 3358 413e
000000c0: 3e86 5a3c 5b15 0c3e ab4a 41bb 9e9f 883e
000000d0: 2cc4 6f3e 965e 21be 2aad 95bb 95b5 fb3e
000000e0: f4e3 3e3e 5349 8bbe cdbc eabb 0c5a 4fbd
000000f0: 1180 b7bd 6330 1b3c 2a3f a1bd da5c 323e
00000100: cb0b b3be 62d1 693e 0091 273d c464 3e3e
00000110: cde6 923d e189 983e 3425 e9be 5890 73bc
00000120: aa82 aabd 0f96 d2bd 40df 0c3f 3c9d 403e
00000130: aaa6 403e 6711 ac3e 8bb9 45bc 3ef6 4d3e
00000140: 5523 9b3d b7f8 0fbe 5a10 cdbd 2545 36be
00000150: 39a1 b7bd ae43 90be 47f2 e53c daf7 65be
00000160: d5fa 6ebe d03c a53e c40b e73d edbc 123d
00000170: 92d9 35be 87f2 423d ebb3 7dbe 4223 393d
00000180: f0bb 73be 6129 8d3e 62ab 2bbe 3f6e 903e
00000190: 1d43 143e b3a0 283e bf3f 89be c7c3 9a3e
000001a0: 8bc1 58be 7301 293e bca3 463a 157d f03d
000001b0: 57a6 5d3e 1e1d c13b 8eda 53be 74c7 00be
000001c0: 2730 6e3e 59e1 973d 4fcc 70be 1f29 493e
000001d0: 6f67 0d3e 3bf9 f83e 163f ffbd 81cc 39be
000001e0: c6ae 81be f3aa d8bd e371 ad3d 0d0c 21bd
000001f0: f909 d2bd eb93 51bd 8e1a ddbd 38fe 823e
00000200: d925 fcbd 0a41 793e c509 82be d174 e23d
00000210: 0bb9 6fbe 1763 e73d c76f 03be 8b3c 6a3e
00000220: 1c5a a9be c595 8d3e d9c9 473f b0e6 66be
00000230: 9837 9e3e fce6 84be 7934 bf3c 0c4a 52be
00000240: 1917 4b3e dc49 0fbd 7fbb 423e 2ad7 95bd
00000250: 224d 273e 23bd 713e a635 4ebe be31 963e
00000260: 10b7 c9be aaec af3d 76be 983c 85b4 c7bc
00000270: 5513 b93e 2286 1dbe dea0 b53c 2eee 863c
00000280: 6abc 123e 64c3 90bd 5216 9b3e 437b 963e
00000290: ece3 09be ccff 58bd 8b3a 33be 2814 623e
000002a0: 5686 cabe b629 93bd 92ef 22bf a166 54be
000002b0: 4d17 2bbe 7b08 973e 665d e93d 5155 dfbe
000002c0: 9694 493e 511d 8dbc f4c0 923d f927 d8bd
000002d0: b077 3f3e 42d3 0abe 5f6e 9d3e 3fc6 bbbd
000002e0: 4c81 7dbb 353e 5dbe 466a 723e ee6a 05be
000002f0: 1480 ae3e 3def 083e 9d14 ffbb 85dc f0bd
00000300: 4cde 3f3b 5b0e 11be 8da3 233e 51f8 52be
00000310: 33bd d3bd d726 3bbe 4f64 153e d932 043e
00000320: 8467 993e e6d3 54bd 8090 953e 2711 3cbe
00000330: 4999 4cbe b51e 97be 8dba aa3c 0a66 90be
00000340: df86 863e 227b 32be d229 263e 9dac e2bd
00000350: 59e5 6b3c d8ab dfbd f0bf 123e e3e4 903e
00000360: 768f 6bbe 6081 5dbe 462d 343e 42ff d5bb
00000370: 83fc 9e3e ed25 e83d 78bf 293c b7d4 76be
00000380: 93b8 933d 577d fbbd b811 033e f99b d0bd
00000390: 4794 e1bb 5d33 803e 60aa 9a3e b5ad 78be
000003a0: d6d1 1fbe fa11 71bd e48e 4d3c 044b 983e
000003b0: de63 5d3e 89db a1bc 2514 1abe 6097 9f3e
000003c0: 1404 2abe 29cb f9be 7b81 c43e 9c2b b53e
000003d0: 5c60 f53d 6cb0 01bd 1fed cbbd 3c88 89bd
000003e0: 0bc9 5e3e b2c3 ff3d 1474 d03d d278 51bd
000003f0: 6b3d 313e 31a2 633d 825d 2abe e93e 07be

conv.convs.1.bias f4 [64]
-0.02286781 -0.012930931 -0.012928519 0.03480187 0.008948288 0.024855835 -0.14642793 -0.048711117
-0.0268642 -0.006963853 0.012925431 0.04075967 -0.010942997 -0.0009837669 0.028840771 -0.0029773472
-0.022870956 -0.0129301 -0.012932342 -0.0009898666 0.020879028 -0.032798182 0.016904384 0.008949706
0.020884784 0.024856279 -0.0029777647 0.028831454 0.03479188 0.046750892 -0.012926724 0.024855942
0.028830381 -0.0049780114 0.026848575 0.016898653 -0.022869019 -0.012920813 0.026854781 0.022865385
0.01492535 -0.0009780951 -0.010943381 0.0029700003 0.028832886 0.016907528 0.036780547 0.006962676
0.030816797 -0.010943217 -0.044754732 -0.01491897 0.026839884 0.008954362 0.024862917 0.0052889814
0.032805145 -0.025253026 -0.010943679 -0.0010009658 -0.03678755 -0.020885779 0.034834355 0.030797958
00000000: 4655 bbbc 41dc 53bc 24d2 53bc 688c 0e3d
00000010: d79b 123c 779e cb3c 34f1 15be 4f85 47bd
00000020: 5012 dcbc 0831 e4bb 30c5 533c 9df3 263d
00000030: 424a 33bc bdf1 80ba 7b43 ec3c 991f 43bb
00000040: df5b bbbc c5d8 53bc 2ce2 53bc 69be 81ba
00000050: 7f0a ab3c 6357 06bd 107b 8a3c caa1 123c
00000060: 9116 ab3c 659f cb3c 9a26 43bb f12f ec3c
00000070: ee81 0e3d dd7d 3f3d 9cca 53bc b09e cb3c
00000080: b12d ec3c 961e a3bb 8bf1 db3c 0b6f 8a3c
00000090: cf57 bbbc d1b1 53bc 8ffe db3c 3050 bb3c
000000a0: 7589 743c 6d33 80ba de4b 33bc 56a4 423b
000000b0: f232 ec3c a881 8a3c 33a7 163d 2927 e43b
000000c0: 8273 fc3c 2e4b 33bc bd50 37bd b26e 74bc
000000d0: 51df db3c 51b5 123c 51ad cb3c 314f ad3b
000000e0: b05e 063d 6fdf cebc 1e4d 33bc d732 83ba
000000f0: 8bae 16bd a718 abbc 78ae 0e3d 004c fc3c

conv.convs.1.lin.weight f4 [64, 64]
0.18324342 0.18100926 -0.19926567 -0.09079105 -0.010693615 0.116176195 0.117590986 0.0014600471
0.12854892 0.069758974 0.022672454 0.009357253 0.08707998 0.12544647 -0.095959134 -0.15774965
-0.18667085 -0.121453665 0.18220818 -0.075051986 -0.12063663 -0.039696787 0.05343575 -0.113873824
-0.062940635 -0.054291356 0.04598596 0.014819218 0.14386976 -0.10052836 0.12659761 -0.10966547
-0.034138717 0.01092673 0.14746734 -0.26549894 -0.10454847 -0.0033249124 0.4658236 -0.11759105
-0.021842081 -0.2973149 -0.008824293 -0.20629649 0.18584706 0.0946613 0.040798604 0.07007603
0.022502756 0.104917005 0.081573345 -0.04210789 -0.10340521 0.18460928 0.017697705 -0.011359768
0.13940172 -0.17233352 0.078541555 0.1205518 -0.08545639 -0.15524516 0.09115051 -0.22635563
0.17845958 0.22868948 -0.1746819 -0.3276722 0.21546273 -0.0032541645 0.06513354 -0.21977018
-0.11685468 0.018288705 -0.04202246 -0.033512924 0.102634 -0.009338028 -0.16678591 -0.038155593
-0.060136765 -0.0486255 -0.19976021 0.20732142 0.11706395 -0.14040901 0.07542161 0.166083
-0.21218352 0.006882827 0.16708864 -0.093275875 0.029561449 0.08308918 -0.108885154 -0.22145234
-0.27969614 0.092906654 -0.018780671 -0.19700292 -0.03960805 0.18199822 0.12947309 0.020582007
0.011893698 -0.16593954 0.08353458 0.13066883 0.17890444 -0.16866587 0.054882504 0.060239203
-0.2400012 -0.120957695 0.12907538 0.09985543 -0.05707822 0.02848915 0.14513747 -0.06895999
-0.2897662 -0.09459219 0.049726833 0.16975996 0.077881 0.006361502 0.14470002 0.056273296
0.0869315 0.03183256 0.22331238 -0.26282993 0.035630014 -0.014009483 0.09361241 0.008157105
-0.29018012 -0.17680128 0.016669344 -0.010618499 -0.11127278 -0.1272105 0.008514134 -0.11151212
0.05586437 -0.15582876 0.052694526 0.031523373 -0.04218281 -0.08513771 0.1298971 -0.12064976
0.031808667 0.19348092 0.069836415 -0.07320598 0.02055369 0.122570984 0.06346491 -0.08009931
-0.20013879 0.003991119 0.10353562 -0.1304169 0.17819571 -0.08284684 0.32471862 -0.076574706
-0.045007527 0.011285648 -0.06676192 -0.13381946 -0.092640996 0.06874907 -0.05879564 0.08368957
-0.28528196 0.13741902 0.1027751 -0.09550224 0.14354713 -0.01144196 0.12766957 -0.068377495
0.12755647 -0.09356012 -0.0813787 0.1096566 0.048283838 -0.1698731 0.07358369 -0.07749736
0.04272388 -0.11061208 0.04839886 0.19418281 -0.14614126 -0.112349726 0.07707706 -0.05578764
0.09934336 -0.12402092 -0.0660357 0.15636674 -0.19087422 -0.20981604 0.103466906 0.18891796
0.17710717 -0.0399173 0.22157387 -0.18660629 0.20238806 -0.22734989 -0.09361514 0.010356965
-0.14992538 0.11841419 0.14467199 0.0962629 0.19033338 0.0051635248 0.20122829 0.17060956
0.22988716 -0.043442234 -0.17768322 0.14046475 -0.21095565 -0.031595048 -0.36147082 0.15313101
0.02615187 -0.05719477 0.019590244 0.015384405 -0.104106985 0.04761988 0.27864176 0.06847223
0.03882905 -0.038972847 0.06315234 -0.116867185 0.06503597 -0.05119817 0.11655062 -0.054963194
-0.057170745 0.14570145 0.02402961 -0.09487749 0.07959808 0.007872052 -0.050250776 0.27039438
00000000: 2aa4 3b3e 7e5a 393e 4d0c 4cbe a8f0 b9bd
00000010: 4634 2fbc c9ed ed3d 8bd3 f03d 0d5f bf3a
00000020: 54a2 033e cbdd 8e3d 95bb b93c 2a4f 193c
00000030: fd56 b23d 0a75 003e 3986 c4bd 2089 21be
00000040: a526 3fbe b3bc f8bd c894 3a3e dbb4 99bd
00000050: 5610 f7bd 1999 22bd 72df 5a3d ae36 e9bd
00000060: 05e7 80bd 9d60 5ebd c65b 3c3d 4ecc 723c
00000070: 9852 133e d0e1 cdbd cea2 013e 4a98 e0bd
00000080: 0ad5 0bbd 0706 333c ae01 173e 7aef 87be
00000090: 821d d6bd c6e6 59bb 6e80 ee3e 94d3 f0bd
000000a0: 2aee b2bc a939 98be c493 10bc 633f 53be
000000b0: b14e 3e3e c9dd c13d 701c 273d 0684 8f3d
000000c0: b357 b83c bade d63d ed0f a73d 5379 2cbd
000000d0: 1cc6 d3bd 370a 3d3e c7fa 903c 521e 3abc
000000e0: 53bf 0e3e 3378 30be 65da a03d dde3 f63d
000000f0: c303 afbd 96f8 1ebe 1ead ba3d c5c9 67be
00000100: 1cbe 363e 932d 6a3e d0df 32be a7c4 a7be
00000110: 43a2 5c3e d243 55bb bc64 853d 6f0b 61be
00000120: 8251 efbd 32d2 953c be1f 2cbd d944 09bd
00000130: c631 d23d 87fe 18bc edc9 2abe 0a49 1cbd
00000140: f851 76bd 882b 47bd f18d 4cbe 114c 543e
00000150: 39bf ef3d 61c7 0fbe a576 9a3d a911 2a3e
00000160: a346 59be 5689 e13b 4919 2b3e 6c07 bfbd
00000170: da2a f23c a92a aa3d 2eff debd 67c4 62be
00000180: 5534 8fbe d845 be3d ecd9 99bc 22bb 49be
00000190: 0d3c 22bd be5d 3a3e 9894 043e 999b a83c
000001a0: c9dd 423c 0eec 29be 2e14 ab3d 0dce 053e
000001b0: ba32 373e bfb6 2cbe 7acc 603d 62bd 763d
000001c0: e0c2 75be abb8 f7bd 562c 043e 0181 cc3d
000001d0: daca 69bd 1462 e93c eb9e 143e e53a 8dbd
000001e0: 3c5c 94be 8db9 c1bd 5dae 4b3d 8ed5 2d3e
000001f0: 1380 9f3d 2674 d03b 3e2c 143e d47e 663d
00000200: 2409 b23d dc62 023d 00ac 643e a591 86be
00000210: c7f0 113d 0888 65bc ddb7 bf3d 61a5 053c
00000220: 7d92 94be 650b 35be 268e 883c 36f9 2dbc
00000230: fce2 e3bd 7843 02be de7e 0b3c 7760 e4bd
00000240: 0ad2 643d 9391 1fbe 37d6 573d a71e 013d
00000250: e2c7 2cbd ae5c aebd bf03 053e 3917 f7bd
00000260: ce49 023d dd1f 463e 6506 8f3d 04ed 95bd
00000270: 3660 a83c 7f06 fb3d e4f9 813d 1b0b a4bd
00000280: 2ff1 4cbe efc7 823b 7c0a d43d 028c 05be
00000290: f078 363e 9bab a9bd 8541 a63e 33d3 9cbd
000002a0: d059 38bd 70e7 383c 79ba 88bd f807 09be
000002b0: 90ba bdbd 50cc 8c3d b2d3 70bd 7065 ab3d
000002c0: 7a10 92be 92b7 0c3e c07b d23d ae96 c3bd
000002d0: 05fe 123e 0f77 3bbc d0bb 023e 8009 8cbd
000002e0: 2a9e 023e 739c bfbd e0a9 a6bd a493 e03d
000002f0: 46c5 453d 37f3 2dbe 0cb3 963d f0b6 9ebd
00000300: 3cff 2e3d 9688 e2bd e23d 463d dcd7 463e
00000310: 0ea6 15be 9d17 e6bd 94da 9d3d 9581 64bd
00000320: 8874 cb3d aefe fdbd ba3d 87bd 9a1e 203e
00000330: 8874 43be 04da 56be 75e6 d33d b673 413e
00000340: 955b 353e 5380 23bd 43e4 623e b815 3fbe
00000350: d13e 4f3e 69ce 68be 4bb9 bfbd 42b0 293c
00000360: 0a86 19be 2483 f23d e524 143e 7c25 c53d
00000370: c1e6 423e c932 a93b ca0e 4e3e 46b4 2e3e
00000380: 8a67 6b3e 7cf0 31bd 97f2 35be fed5 0f3e
00000390: c204 58be cf69 01bd b412 b9be 60ce 1c3e
000003a0: 723c d63c 1045 6abd b87b a03c df0e 7c3c
000003b0: 0b36 d5bd 100d 433d 22aa 8e3e 2b3b 8c3d
000003c0: 360b 1f3d fea1 1fbd 0456 813d 1058 efbd
000003d0: 9431 853d 2cb5 51bd 17b2 ee3d 1621 61bd
000003e0: df2b 6abd c332 153e bfd9 c43c 214f c2bd
000003f0: 5104 a33d c7f9 003c c2d3 4dbd 2271 8a3e

conv.convs.2.bias f4 [64]
0.0009877238 0.03876831 -0.1143534 0.1024119 0.016908212 -0.044729516 0.022873644 0.024861759
0.058657754 0.2916115 -0.024862356 0.30157915 -0.032798447 -0.01092947 -0.48334086 -0.5870794
-0.014920286 0.12029928 0.03677471 -0.3155375 0.54509825 0.6190721 0.048724294 0.04475187
0.028842732 -0.06461665 -0.09843225 -0.004964291 0.48316678 -0.09449294 0.03281574 0.008940324
0.46919638 -0.020884966 -0.12629065 0.0009875624 0.026850551 0.09445984 0.012931446 -0.018898234
-0.01293158 0.5013576 0.6190721 0.030829787 0.0049762065 -0.0010017332 -0.030826893 -0.004977898
-0.04276179 -0.59720737 -0.012932248 -0.012927838 0.16417032 -0.58329207 0.012931612 -0.0069640465
-0.6190721 0.09446211 -0.0169088 0.5832708 -0.040769517 -0.01094271 -0.090519615 0.032797292
00000000: 8376 813a 85cb 1e3d 1e32 eabd 55bd d13d
00000010: 1783 8a3c 4c36 37bd 8261 bb3c e3aa cb3c
00000020: 1d43 703d 1a4e 953e 24ac cbbc 9568 9a3e
00000030: aa57 06bd 8511 33bc 7478 f7be d64a 16bf
00000040: 3774 74bc 785f f63d 14a1 163d 228e a1be
00000050: 8f8b 0b3f 827b 1e3f 2093 473d bd4d 373d
00000060: 9847 ec3c bc55 84bd d996 c9bd 7eab a2bb
00000070: a361 f73e 8485 c1bd cc69 063d 707a 123c
00000080: 823a f03e f316 abbc 5652 01be 1871 813a
00000090: b0f5 db3c 2974 c13d 6ade 533c 78d0 9abc
000000a0: fade 53bc f958 003f 827b 1e3f c08e fc3c
000000b0: 720f a33b 974c 83ba ae88 fcbc a31d a3bb
000000c0: fd26 2fbd 95e2 18bf c8e1 53bc 48cf 53bc
000000d0: 441c 283e a152 15bf 1ddf 533c a832 e4bb
000000e0: 827b 1ebf 5a75 c13d 5384 8abc 3c51 153f
000000f0: f0fd 26bd 0d49 33bc 5962 b9bd 7456 063d

conv.convs.2.lin.weight f4 [64, 64]
-0.05332799 0.21804252 -0.17642763 0.021608647 -0.057338417 -0.09008507 0.21736513 0.06552795
0.18240958 0.2487928 0.03354705 0.091122076 0.016175933 -0.13568924 -0.22217314 -0.26015165
0.18678984 0.2016485 0.20938085 -0.25614533 -0.052086223 0.08505947 -0.048312653 -0.040508058
-0.24374816 -0.25558272 -0.30574983 -0.4462581 0.12970847 -0.28502735 0.18794882 -0.1426573
-0.27316323 -0.052351404 -0.27115554 -0.3503823 0.14672895 -0.10301579 -0.13466065 -0.2791413
0.025341034 -0.18900077 0.2410889 0.19209945 0.070648104 0.0064659063 -0.12927221 0.045153577
-0.089307465 0.1666365 0.1637859 0.113742284 -0.106027626 0.0060775047 0.09299939 -0.01367941
0.0023166377 -0.21570124 0.17003362 0.03725926 -0.025196077 0.22290416 -0.015521328 0.12236827
-0.07722579 0.23856495 -0.037235163 0.19999398 0.11744872 0.2602912 0.081680186 0.05501296
-0.08966866 -0.113093466 0.03929862 0.09627588 -0.16200761 0.7684172 0.40686673 0.19928664
-0.23589271 0.07741972 0.14836691 0.18740952 0.57957524 0.14559297 -0.40004316 0.26514664
0.24782328 0.51956856 0.13648656 0.37870425 0.26071364 -0.48172194 0.031167958 -0.06542713
0.48946497 -0.06385748 0.6017908 0.26096043 0.002396349 0.1236515 0.46592897 0.42670375
-0.1356097 -0.3066308 0.18576339 -0.1289268 -0.21608754 0.1337814 0.48111078 0.28076795
0.17548174 0.057707135 0.15823367 0.0665974 0.29182723 0.16911158 -0.08750271 0.026928108
0.5262329 0.07703848 -0.013952528 -0.00011427293 -0.19711864 -0.16074301 -0.14811492 -0.1038331
-0.07606276 0.0055395896 -0.07677324 -0.05500883 0.31769148 -0.022716228 -0.139561 -0.09786099
0.062888294 -0.047084276 -0.098851174 0.06606666 -0.16233933 0.28197977 0.14470874 0.2464515
-0.14743385 -0.0026104432 -0.067481585 -0.056249797 0.03145926 -0.013272579 0.28453845 0.25361678
-0.015724603 0.21286179 -0.1102577 0.27038735 -0.13899234 0.47439557 -0.16714525 0.32281765
0.19121647 -0.20448057 -0.008845369 0.1532011 -0.20495196 -0.17344166 0.11890814 0.2573606
0.18332154 -0.041078977 -0.17219031 -0.14425084 0.16855341 0.12502809 0.10828732 0.28796816
0.19211116 0.077396564 -0.056400705 -0.10473829 0.30853567 0.14630638 0.032000933 -0.19702941
0.3216124 -0.15208773 -0.21948676 -0.1788534 0.044186212 -0.1476202 -0.084889285 -0.21272115
0.17656307 -0.026406527 0.017844073 -0.18035719 -0.04087355 -0.32906905 -0.15872127 0.010976899
0.1803127 0.23748212 -0.10500781 -0.15535879 0.15664324 -0.46229982 -0.15758227 -0.26203617
0.13471402 0.010511799 -0.051640894 0.10709547 -0.3190423 -0.05893692 -0.19305786 0.055814862
-0.1597077 0.039817467 -0.25054502 -0.05234353 -0.20534253 -0.32906488 0.030226864 -0.0003031768
-0.16199118 -0.121947266 -0.2806476 -0.19961168 -0.15319614 -0.23478219 -0.22474006 -0.24523734
-0.0864677 -0.3012961 0.19534156 -0.20390418 0.08367507 -0.23831964 -0.076079935 -0.13968022
-0.18748724 -0.12553883 -0.048142366 0.20665349 -0.13656117 0.06310551 -0.13364123 0.04534123
-0.23585257 0.005576786 0.045031384 -0.0009934268 -0.06019406 0.15293121 -0.063004285 0.10536817
00000000: 736e 5abd 8a46 5f3e 72a9 34be 9e04 b13c
00000010: b0db 6abd 857e b8bd f794 5e3e 8533 863d
00000020: 94c9 3a3e 8ac3 7e3e a268 093d 369e ba3d
00000030: 6483 843c 1ff2 0abe 5b81 63be 9932 85be
00000040: d645 3f3e f27c 4e3e ef67 563e 7b25 83be
00000050: 5d58 55bd a933 ae3d 7de3 45bd c7eb 25bd
00000060: 1e99 79be bddb 82be 3e8b 9cbe f17b e4be
00000070: 4cd2 043e 1bef 91be a875 403e c114 12be
00000080: 0ddc 8bbe 6d6e 56bd e6d4 8abe 4f65 b3be
00000090: 1d40 163e f1f9 d2bd 7be4 09be 9ceb 8ebe
000000a0: 0098 cf3c 6b89 41be 02e0 763e b8b5 443e
000000b0: f4af 903d f4df d33b ef5f 04be f5f2 383d
000000c0: d5e6 b6bd c2a2 2a3e 7eb7 273e b7f1 e83d
000000d0: 0325 d9bd ce25 c73b 7776 be3d 9b1f 60bc
000000e0: bbd2 173b c9e0 5cbe 4b1d 2e3e 2a9d 183d
000000f0: 0168 cebc fd40 643e 2b4d 7ebc 379c fa3d
00000100: 8e28 9ebd 5f4a 743e e683 18bd 39cb 4c3e
00000110: f488 f03d e344 853e f147 a73d 4555 613d
00000120: 34a4 b7bd 8c9d e7bd 97f7 203d 4a2c c53d
00000130: 53e5 25be fdb6 443f d650 d03e cc11 4c3e
00000140: dc8d 71be 3b8e 9e3d 7fed 173e 48e8 3f3e
00000150: 0b5f 143f 5316 153e 75d2 ccbe 4dc1 873e
00000160: 63c5 7d3e 7202 053f 22c3 0b3e 86e5 c13e
00000170: 427c 853e 42a4 f6be f253 ff3c a9fe 85bd
00000180: 279b fa3e b6c7 82bd f60e 1a3f 9b9c 853e
00000190: 110c 1d3b ff3c fd3d 3e8e ee3e ea78 da3e
000001a0: 45dd 0abe b6fe 9cbe c238 3e3e 6305 04be
000001b0: 0d46 5dbe fefd 083e 2754 f63e d1c0 8f3e
000001c0: 7cb1 333e 515e 6c3d 0208 223e 3864 883d
000001d0: 616a 953e 962b 2d3e 9f34 b3bd 5698 dc3c
000001e0: 33b7 063f 5ac6 9d3d 2599 64bc d0a5 efb8
000001f0: 78d9 49be d199 24be 70ab 17be 73a6 d4bd
00000200: cbc6 9bbd 7285 b53b 4a3b 9dbd f050 61bd
00000210: 75a8 a23e 6217 babc 14e9 0ebe 586b c8bd
00000220: 94cb 803d 71db 40bd 7c72 cabd f54d 873d
00000230: 483c 26be a75f 903e 872e 143e c85d 7c3e
00000240: e6f8 16be f813 2bbb c933 8abd 3066 66bd
00000250: 6ddb 003d 3b75 59bc 06af 913e 0fda 813e
00000260: e2d0 80bc 71f8 593e cace e1bd 3670 8a3e
00000270: 0254 0ebe fae3 f23e 2028 2bbe 5b48 a53e
00000280: 40ce 433e 5b63 51be 2bec 10bc c0e0 1c3e
00000290: edde 51be b19a 31be 1c86 f33d c5c4 833e
000002a0: a4b8 3b3e 6e42 28bd a852 30be 7eb6 13be
000002b0: 4499 2c3e 5d07 003e bec5 dd3d 9070 933e
000002c0: cab8 443e 1782 9e3d 6d04 67bd 0781 d6bd
000002d0: 63f8 9d3e 57d1 153e 6913 033d 14c2 49be
000002e0: 61aa a43e e3bc 1bbe 23c1 60be 5825 37be
000002f0: 9afc 343d c029 17be 6fda adbd 93d3 59be
00000300: f3cc 343e 8052 d8bc bc2d 923c 8eaf 38be
00000310: 066b 27bd bd7b a8be d487 22be 74d8 333c
00000320: e4a3 383e 832e 733e 560e d7bd 6016 1fbe
00000330: 1667 203e 90b2 ecbe 3f5d 21be 9b29 86be
00000340: 79f2 093e ae39 2c3c 6785 53bd df54 db3d
00000350: 8359 a3be d767 71bd f6b0 45be 209e 643d
00000360: 6a8a 23be a417 233d 7047 80be 2b66 56bd
00000370: 5045 52be 317b a8be 549e f73c b4f3 9eb9
00000380: 04e1 25be 7dbf f9bd 0bb1 8fbe 0167 4cbe
00000390: 73df 1cbe be6a 70be 4222 66be 7f1f 7bbe
000003a0: fa15 b1bd 7b43 9abe 9e07 483e 42cc 50be
000003b0: d65d ab3d 100a 74be cccf 9bbd 5508 0fbe
000003c0: a8fc 3fbe 408d 00be ee30 45bd f99c 533e
000003d0: b1d6 0bbe 763d 813d 3fd9 08be bab7 393d
000003e0: 5683 71be 79bd b63b d472 383d df35 82ba
000003f0: 0c8e 76bd 009a 1c3e 6408 81bd 44cb d73d

lin.weight f4 [64, 128]
-0.08774459 0.021163344 -0.062222403 -0.036018454 -0.051457465 -0.041644953 -0.040945053 -0.037291784
0.088219136 -0.013790743 0.03635131 0.012661272 -0.06768435 -0.0233901 0.059770722 0.06891568
0.05178478 -0.046730824 0.03215103 0.010885741 -0.017808476 -0.015945911 -0.0067645162 -0.081569426
-0.05149131 0.087779075 -0.00750078 0.038780347 0.051705867 -0.027459145 0.03342032 0.0061735334
-0.04811738 -0.014663215 -0.048368715 -0.009417175 -0.01048779 -0.064519234 -0.01429383 -0.012434637
-0.027822936 0.015316881 0.07036928 -0.024937015 0.08069456 -0.05871982 -0.043464873 0.085284576
0.06540686 -0.015059533 0.00907017 0.06969094 -0.033666197 -0.06305631 0.022879047 0.06531004
0.04361928 -0.022857353 -0.0019695538 0.013223363 0.0006846439 0.025812289 -0.044443324 0.07350037
0.05356312 0.08737661 -0.0439146 0.06713986 -0.00022113397 0.06746175 -0.08130675 0.03336214
0.0071095517 0.012468323 0.08153393 -0.05309739 -0.0129189575 0.014381137 0.019963128 -0.004164741
-0.08075984 0.08818499 -0.06161141 0.083504885 0.07772573 -0.043248452 -0.059168357 -0.06735804
0.07531922 0.045148462 -0.0691613 -0.07515048 0.020706367 -0.043393552 -0.06901235 -0.06459741
-0.07508151 0.069967 0.013254941 0.038477942 -0.061963852 0.0033606421 -0.08069639 -0.008469051
-0.00034073618 0.057912424 -0.03367138 0.038898118 0.022470802 -0.027731024 -0.009255364 0.003916759
0.034120064 -0.055016197 -0.01058811 0.038280465 -0.08677462 -0.07030133 -0.043265972 -0.079499766
0.06971861 -0.06991434 -0.0126314 0.04455984 -0.05426943 0.01516392 -0.034294542 -0.05323879
-0.035306003 -0.08211717 -0.011995941 -0.03656275 -0.04539777 -0.0470431 -0.044918194 -0.051658854
-0.018832013 0.017777372 0.021254865 -0.044832803 -0.012683019 0.006736763 -0.0023533958 0.024681522
-0.02572339 -0.04640111 -0.08449262 -0.08451078 0.015176732 0.081637956 -0.055333216 0.010264074
0.030645942 0.0778186 0.05595194 0.021926444 -0.008730161 -0.024928238 -0.049793847 -0.0012283172
0.011902165 0.07078836 0.019650547 0.041180704 -0.07423878 -0.052450456 -0.022093326 -0.045760687
-0.08104666 -0.026051968 0.027878169 -0.037836596 0.06278233 0.014008664 0.02338226 0.017826978
0.006195418 -0.022229554 -0.0694854 -0.026206162 -0.03592041 0.040265653 0.0040434315 -0.071247615
0.044104885 0.011165764 0.055562243 0.06842493 -0.05261211 -0.0353138 0.079832286 -0.08202351
-0.029184047 -0.081105754 -0.08275953 -0.08276957 0.021436498 -0.013778026 -0.054869536 0.03955329
0.018306842 0.002457667 0.028749261 -0.06846507 0.081941366 -0.037184857 0.045806017 0.028272454
-0.07818959 -0.044663414 -0.01106282 -0.078664534 -0.08657953 0.05952043 0.017874679 0.015222883
0.07345876 -0.04836294 -0.025163533 -0.009207464 -0.038713638 0.0026614259 -0.042392954 0.08511867
0.0140346475 0.016603561 -0.0006217187 0.06321154 -0.028822817 0.011954215 -0.07646274 0.0036532993
-0.04453353 0.065261856 -0.06674247 0.043108523 -0.06479421 0.0043499866 -0.087853536 -0.057457387
-0.014109132 -0.01671113 -0.058882233 0.02168879 -0.033510588 0.008322159 -0.006885467 -0.03020357
0.043751925 0.08006919 -0.06531584 -0.053435143 0.014814238 -0.009493156 -0.032949172 0.07747647
00000000: 70b3 b3bd c05e ad3c ebdc 7ebd 1688 13bd
00000010: 10c5 52bd e693 2abd 00b6 27bd 45bf 18bd
00000020: 3cac b43d 92f2 61bc 1ce5 143d 3971 4f3c
00000030: 189e 8abd 989c bfbc 25d2 743d aa23 8d3d
00000040: 471c 543d d268 3fbd ccb0 033d 1b5a 323c
00000050: 15e3 91bc 00a1 82bc e0a8 ddbb df0d a7bd
00000060: 8de8 52bd 84c5 b33d 1ac9 f5bb 24d8 1e3d
00000070: 88c9 533d 00f2 e0bc bfe3 083d 5a4b ca3b
00000080: bb16 45bd fb3d 70bc 461e 46bd 7f4a 1abc
00000090: fbd4 2bbc a922 84bd ab30 6abc a6ba 4bbc
000000a0: edec e3bc a8f3 7a3c c51d 903d b648 ccbc
000000b0: 3143 a53d 3284 70bd 3908 32bd aea9 ae3d
000000c0: 08f4 853d 42bc 76bc 0d9b 143c 20ba 8e3d
000000d0: 91e5 09bd ab23 81bd d76c bb3c 45c1 853d
000000e0: 21aa 323d 583f bbbc a113 01bb cea6 583c
000000f0: ad79 333a 4b74 d33c 340a 36bd 5d87 963d
00000100: 0165 5b3d 82f2 b23d ccdf 33bd 9f80 893d
00000110: 33e0 67b9 6329 8a3d 2784 a6bd bda6 083d
00000120: 3ef7 e83b f047 4c3c 43fb a63d a67c 59bd
00000130: 09aa 53bc dc9e 6b3c b789 a33c 6178 88bb
00000140: 6a65 a5bd 559a b43d 3f5c 7cbd 9c04 ab3d
00000150: ab2e 9f3d 4a25 31bd 855a 72bd 03f3 89bd
00000160: f740 9a3d 98ed 383d 71a4 8dbd 7fe8 99bd
00000170: 66a0 a93c 70bd 31bd 5956 8dbd a64b 84bd
00000180: 56c4 99bd dc4a 8f3d 412b 593c 0c9b 1d3d
00000190: cfcd 7dbd 383e 5c3b 2644 a5bd c6c1 0abc
000001a0: d6a4 b2b9 9435 6d3d 00eb 09bd a253 1f3d
000001b0: b014 b83c 2c2c e3bc cfa3 17bc 2858 803b
000001c0: 7bc1 0b3d aa58 61bd c179 2dbc facb 1c3d
000001d0: e4b6 b1bd 25fa 8fbd a937 31bd c6d0 a2bd
000001e0: a1c8 8e3d 402f 8fbd eef3 4ebc 6184 363d
000001f0: 9f49 5ebd 1772 783c 6f78 0cbd eb10 5abd
00000200: 079d 10bd 0c2d a8bd a08a 44bc d2c2 15bd
00000210: 03f3 39bd 44b0 40bd 24fc 37bd 3c98 53bd
00000220: 9845 9abc daa1 913c af1e ae3c 9aa2 37bd
00000230: 70cc 4fbc 10c0 dc3b 6e3b 1abb e730 ca3c
00000240: dcb9 d2bc 170f 3ebd 770a adbd fd13 adbd
00000250: d4a7 783c cd31 a73d 15a5 62bd a62a 283c
00000260: 330d fb3c 5c5f 9f3d dd2d 653d 169f b33c
00000270: f308 0fbc 4e36 ccbc a2f4 4bbd 7cff a0ba
00000280: 4c01 433c 7df9 903d 2ffa a03c 19ad 283d
00000290: 800a 98bd 4ad6 56bd 10fd b4bc 8f6f 3bbd
000002a0: cbfb a5bd f06a d5bc c260 e43c 8cfa 1abd
000002b0: 0694 803d 9884 653c 278c bf3c e209 923c
000002c0: ef02 cb3b c11a b6bc 5d4e 8ebd 4eae d6bc
000002d0: 4821 13bd 99ed 243d c37e 843b 45ea 91bd
000002e0: 53a7 343d 9cf0 363c 3c95 633d 5f22 8c3d
000002f0: cc7f 57bd 34a5 10bd 1c7f a33d f1fb a7bd
00000300: 6213 efbc c61a a6bd d47d a9bd 1883 a9bd
00000310: 989b af3c 3bbd 61bc e1be 60bd a102 223d
00000320: 3bf8 953c cf10 213b 9283 eb3c 6a37 8cbd
00000330: e0d0 a73d 264f 18bd 179f 3b3d a29b e73c
00000340: dd21 a0bd fcf0 36bd d540 35bc df1a a1bd
00000350: 9c50 b1bd b2cb 733d eb6d 923c 6669 793c
00000360: 8c71 963d 3818 46bd c123 cebc e7da 16bc
00000370: 3192 1ebd 516b 2e3b 3ca4 2dbd b252 ae3d
00000380: 94f1 653c 3104 883c d6fa 22ba 0d75 813d
00000390: d41d ecbc 9ddb 433c 7f98 9cbd 316c 6f3b
000003a0: ca68 36bd 02a8 853d 47b0 88bd 9092 303d
000003b0: d4b2 84bd 558a 8e3b 8eec b3bd 7058 6bbd
000003c0: fd29 67bc c8e5 88bc 7f2e 71bd b0ac b13c
000003d0: 6642 09bd aa59 083c 7c9f e1bb 7a6d f7bc
000003e0: 3835 333d 51fb a33d 50c4 85bd cfde 5abd
000003f0: 6bb7 723c 2f89 1bbc b6f5 06bd fcab 9e3d

lin.bias f4 [64]
0.05157458 -0.03439483 0.024300724 -0.016865157 0.0025405276 -0.009116394 -0.0054470375 -0.07894263
0.0025866996 0.0029792027 -0.086815886 -0.050892383 0.0880788 0.043872647 0.045108993 0.07851964
0.00054162915 -0.01658823 0.07439759 -0.052626997 0.059601396 -0.058864143 -0.05879775 0.08579719
-0.069576904 0.032739386 -0.08363255 -0.017609712 -0.050905522 0.07541735 0.017721264 0.07711197
-0.016306078 0.035716515 0.06739734 0.015276273 0.04163178 0.062328372 -0.02738541 -0.07172072
0.040020425 0.05013413 0.004629989 0.058151282 -0.03237745 0.021808254 -0.033314418 -0.024753919
0.060418624 -0.019725546 0.0323203 0.03177156 -0.004035339 0.07521526 -0.0051235077 -0.0384425
0.07103612 0.024919577 0.06840977 -0.056044023 0.028142715 -0.02292503 -0.01683792 -0.017347125
00000000: de3f 533d 98e1 0cbd 5012 c73c cc28 8abc
00000010: fb7e 263b ee5c 15bc 107d b2bb acac a1bd
00000020: 9e85 293b ba3e 433b 87cc b1bd 8874 50bd
00000030: a862 b43d ceb3 333d 35c4 383d e8ce a03d
00000040: 1efc 0d3a 0ae4 87bc c35d 983d 688f 57bd
00000050: 9820 743d 871b 71bd e9d5 70bd 70b6 af3d
00000060: 567e 8ebd bc19 063d 8b47 abbd 3e42 90bc
00000070: 4f82 50bd 6974 9a3d 2f2c 913c e1ec 9d3d
00000080: 5394 85bc 7b4b 123d 9e07 8a3d 5549 7a3c
00000090: 1686 2a3d 094c 7f3d 5e57 e0bc 50e2 92bd
000000a0: 75ec 233d 7259 4d3d 2ab7 973b 0a30 6e3d
000000b0: 389e 04bd 39a7 b23c b374 08bd bbc8 cabc
000000c0: 8579 773d 7897 a1bc 4a62 043d e522 023d
000000d0: e13a 84bb 750a 9a3d 19e3 a7bb e275 1dbd
000000e0: 637b 913d 2424 cc3c 6c1a 8c3d 6b8e 65bd
000000f0: 8d8b e63c 46cd bbbc adef 89bc 8f1b 8ebc

out.weight f4 [4, 64]
0.16189767 -0.096616894 -0.13716264 0.38463873 -0.14808075 -0.10820704 -0.20997034 -0.06282492
-0.14173497 0.29618558 0.18592738 0.5002111 -0.17725638 -0.37211433 0.009457284 0.073150635
0.50608104 0.12781133 0.15468062 0.45008755 0.12533014 0.20985 -0.54117644 -0.32584062
-0.1334854 -0.13232373 -0.1532198 -0.1653693 -0.02048024 -0.34400505 -0.08795627 0.29150197
-0.22291306 0.14950001 -0.1382073 0.13990977 -0.5631147 -0.18163635 -0.3883884 0.45610374
-0.0004419001 0.19082497 0.14884341 -0.38063017 -0.2575991 0.49539796 0.65237725 0.26751432
0.116487354 0.22204632 0.2648387 0.17008175 0.25455362 0.057237875 -0.19586036 0.23670243
-0.11851302 0.09400903 0.32521915 -0.19370002 0.18160944 0.28502858 -0.018603465 0.47144026
-0.037958372 0.10660079 0.17619814 -0.3757252 0.03400345 0.17604253 0.13848539 0.14326231
0.021726802 -0.70100284 -0.075231336 -0.6505336 0.2661676 0.35166866 0.08540435 0.16219632
-0.27235228 -0.25421283 -0.13889056 0.56441426 -0.5950838 -0.6954645 -0.22968444 -0.0028531048
-0.07399842 0.17958045 0.29004818 0.16401592 -0.096277304 0.55470663 0.012725159 -0.12908992
-0.52618855 -0.07644526 0.5214493 -0.1751625 0.12927692 -0.090083845 0.24590538 -0.15012415
-0.0799723 -0.59607327 -0.66164464 0.033124734 0.26805612 -0.38736302 -0.18461764 -0.11679655
-0.024943784 0.57296383 -0.009623027 -0.041438352 -0.47214857 0.15403725 0.10049963 -0.21890604
0.7288857 -0.08471167 -0.14017126 -0.5554974 -0.002585177 -0.21907549 0.17864785 -0.36594746
0.011679061 0.6672972 -0.07287175 0.23108575 0.34655145 -0.0068149827 0.34734648 0.20363954
0.41497552 0.5633169 -0.11270178 0.7397235 -0.0048394892 -0.11974874 -0.23881783 -0.2826464
-0.16523248 0.087679125 0.043206457 -0.58613616 0.37607288 0.6824321 0.52034533 0.28267533
-0.040232692 -0.008371891 -0.017345333 -0.08816631 0.4674265 -0.3360976 0.1087206 0.00952642
0.721724 -0.15112504 -0.0713746 -0.031322513 0.15827352 0.22592083 0.15799257 -0.0776253
-0.0819256 0.43434763 0.6500121 0.14227247 0.17703451 -0.14778687 -0.2260333 0.0030370904
-0.23816432 -0.69425255 0.00842556 -0.057257682 0.5319205 -0.064249635 0.09911752 -0.4171514
-0.5915102 0.09107995 -0.10486341 0.6667274 -0.20851646 -0.16746515 0.007294936 0.056804173
-0.08528712 -0.03404608 0.13858925 -0.04393956 0.08433851 0.36302608 0.18657555 0.38253438
0.009342777 -0.1449991 -0.51550776 0.042433772 0.52707684 0.26633158 -0.15844813 0.02459725
-0.27750292 -0.26887435 -0.19063072 -0.50960976 0.009728578 0.32709455 0.048738126 0.46868664
0.25853252 0.08872865 0.20998122 -0.036877003 0.032288607 0.08934907 0.04166473 -0.27440995
0.2341384 -0.112153746 0.24496388 -0.16885298 0.34666502 0.3873116 0.23413375 -0.28543264
-0.27752966 0.043144435 0.2266941 0.53196234 0.13765237 -0.103827894 -0.42945164 -0.37834758
-0.68601656 -0.19298789 -0.6115079 0.04497089 -0.07155987 -0.053605426 0.3696987 -0.009744147
-0.18806557 -0.17133226 -0.42406386 0.39856362 -0.077767976 -0.53634894 -0.041491736 -0.36254293
00000000: 81c8 253e 14df c5bd 5d74 0cbe 5eef c43e
00000010: 7ba2 17be a79b ddbd 7702 57be 5aaa 80bd
00000020: f922 11be a3a5 973e bf63 3e3e d60d 003f
00000030: b282 35be c585 bebe b9f2 1a3c 00d0 953d
00000040: 878e 013f f9e0 023e 9964 1e3e e071 e63e
00000050: 8b56 003e ebe2 563e 8a8a 0abf 95d4 a6be
00000060: 66b0 08be df7f 07be a7e5 1cbe 9256 29be
00000070: 2dc6 a7bc 6e21 b0be 6b22 b4bd bf3f 953e
00000080: 5243 64be 8816 193e 3786 0dbe 8244 0f3e
00000090: 4928 10bf e1fe 39be d8da c6be 6e86 e93e
000000a0: d4ae e7b9 9f67 433e 686a 183e f5e1 c2be
000000b0: 07e4 83be cda4 fd3e 3202 273f a3f7 883e
000000c0: ec90 ee3d 1c60 633e f098 873e e929 2e3e
000000d0: da54 823e 4372 6a3d 9e8f 48be 1f62 723e
000000e0: f4b6 f2bd ce87 c03d 2083 a63e 4c59 46be
000000f0: d3f7 393e 44ef 913e 4b66 98bc 9e60 f13e
00000100: 3d7a 1bbd 8451 da3d 496d 343e 0e5f c0be
00000110: 3447 0b3d 7e44 343e 1dcf 0d3e 5bb3 123e
00000120: 68fc b13c ec74 33bf e312 9abd 5f89 26bf
00000130: 1f47 883e ea0d b43e 7ae8 ae3d cb16 263e
00000140: c271 8bbe 2f28 82be 5439 0ebe 747d 103f
00000150: 6957 18bf f609 32bf 6632 6bbe 28fb 3abb
00000160: 7c8c 97bd f0e3 373e 3281 943e caf3 273e
00000170: 092d c5bd 4101 0e3f 2f7d 503c 2630 04be
00000180: 4bb4 06bf 558f 9cbd b47d 053f cc5d 33be
00000190: 2b61 043e e17d b8bd 9fce 7b3e 25ba 19be
000001a0: 84c8 a3bd 4298 18bf 8b61 29bf cdad 073d
000001b0: a73e 893e 7254 c6be 680c 3dbe 0833 efbd
000001c0: e856 ccbc c2ad 123f e7a9 1dbc 43bb 29bd
000001d0: 75bd f1be f1bb 1d3e c0d2 cd3d e828 60be
000001e0: 4198 3a3f 507d adbd 0e89 0fbe 1435 0ebf
000001f0: 136c 29bb 5355 60be 76ef 363e 775d bbbe
00000200: 8859 3f3c fdd3 2a3f c93d 95bd bea1 6c3e
00000210: 316f b13e 3850 dfbb 66d7 b13e e286 503e
00000220: ac77 d43e 8935 103f 31d0 e6bd 855e 3d3f
00000230: 9494 9ebb d43e f5bd a98c 74be 07b7 90be
00000240: b432 29be 1d91 b33d 41f9 303d 050d 16bf
00000250: a08c c03e dfb3 2e3f 5a35 053f d2ba 903e
00000260: 09cb 24bd 422a 09bc cd17 8ebc 8a90 b4bd
00000270: 8752 ef3e fc14 acbe e8a8 de3d b414 1c3c
00000280: e7c2 383f 86c0 1abe d92c 92bd 094c 00bd
00000290: 7412 223e ca57 673e cec8 213e 03fa 9ebd
000002a0: 9cc8 a7bd d062 de3e 3167 263f e0af 113e
000002b0: 8948 353e 7155 17be 4675 67be ec09 473b
000002c0: 59e1 73be 89ba 31bf 5c0b 0a3c 0887 6abd
000002d0: f12b 083f 5095 83bd 20fe ca3d de94 d5be
000002e0: 366d 17bf 2088 ba3d a1c2 d6bd a6ae 2a3f
000002f0: 5785 55be fc7b 2bbe 5c0a ef3b 7eab 683d
00000300: 03ab aebd e773 0bbd 57ea 0d3e f8f9 33bd
00000310: abb9 ac3d 8ede b93e a90d 3f3e 8cdb c33e
00000320: 7212 193c a57a 14be 51f8 03bf 09cf 2d3d
00000330: 82ee 063f 9d5c 883e 3a40 22be 2c80 c93c
00000340: dd14 8ebe e6a9 89be b334 43be c975 02bf
00000350: 9d64 1f3c f078 a73e a1a1 473d b2f7 ef3e
00000360: 605e 843e 5eb7 b53d 5105 573e 570c 17bd
00000370: 0f41 043d a5fc b63d a3a8 2a3d 767f 8cbe
00000380: fac1 6f3e ddb0 e5bd d0d7 7a3e cce7 2cbe
00000390: 147e b13e b54d c63e c2c0 6f3e 3a24 92be
000003a0: 5e18 8ebe 38b8 303d 8022 683e af2e 083f
000003b0: bef4 0c3e b8a3 d4bd 16e1 dbbe c6b6 c1be
000003c0: c89e 2fbf 9e9e 45be c88b 1cbf 6533 383d
000003d0: fb8d 92bd 5d91 5bbd 2649 bd3e eaa5 1fbc
000003e0: 4394 40be b971 2fbe e61e d9be 8810 cc3e
000003f0: d144 9fbd 2a4e 09bf 3df3 29bd 3a9f b9be

out.bias f4 [4]
-0.01822283 -0.2710865 0.3566744 -0.012918659
00000000: 0b48 95bc dacb 8abe 079e b63e c8a8 53bc
