baseline_explainers/gnninterpreter/ckpts/dblp_ckpt.pt (torch, 72463 bytes, 10 tensors)

conv.convs.0.bias f4 [64]
00000000: d7fa 2f3d 2558 13bc d636 0f3d 63c7 273d
00000010: 8066 173d d5c7 273d 4609 78bd e181 133c
00000020: 3251 44bb 07f8 2f3d dc1a 8bbc 3652 44bb
00000030: f839 13bc 06d6 543c df97 1f3d 29dd 7b3c
00000040: 3587 48bd 372a 8b3c e601 dd3c a1cd 543c
00000050: ee5e ed3c 18f7 2f3d 6a76 713d 1853 ed3c
00000060: 81a5 793d 58c7 273d cbe6 583d d897 1f3d
00000070: 5d70 173d 0c76 13bc e5b5 3f3d 7e13 89bd
00000080: d9f3 a33b 1433 8d3d b127 383d cd38 0f3d
00000090: 6549 693d 24c7 273d c74a 0fbd f591 44bb
000000a0: 1d03 853d 3def 163d 8dea 49bd d886 9b3c
000000b0: bdea abbc 78eb 803d e876 173d 6109 073d
000000c0: 6b54 023d 3240 8b3c 77a6 793d 77c7 97bb
000000d0: 1ec7 273d e430 bc3c a4f6 ca3c 4177 753c
000000e0: d178 713d 0812 073d fbe4 47bd 6196 753c
000000f0: 48a6 793d bce5 ab3c a5b8 50bd 5229 8b3c
0.04296383 -0.008993183 0.034964405 0.040961634 0.036962986 0.04096206 -0.06055572 0.0090031335
-0.0029955623 0.042961147 -0.016980581 -0.0029956228 -0.008985989 0.01299048 0.038963195 0.015372553
-0.04895707 0.016987903 0.026978444 0.012988479 0.02897593 0.042960256 0.05895082 0.028970286
0.060948852 0.040961593 0.052954476 0.03896317 0.036972392 -0.009000313 0.046804328 -0.06693171
0.005003434 0.06894508 0.044959728 0.03496628 0.05695476 0.0409614 -0.034983423 -0.0029994224
0.064947344 0.03684925 -0.04929595 0.018985197 -0.020985955 0.06294912 0.036978632 0.03296793
0.03181879 0.016998384 0.06094977 -0.0046319324 0.040961377 0.022972532 0.02477581 0.014982046
0.05895311 0.03297618 -0.048802357 0.014989466 0.060949594 0.02098357 -0.05095734 0.016987476

conv.convs.0.lin.weight f4 [64, 4]
00000000: 4db9 a53e 389a 243e 86b9 46bd 6925 41be
00000010: 7aa2 963e b2aa 67be ea25 2fbc cc46 493e
00000020: e0da 3c3e 5137 5dbe f93c d6bc d508 c93b
00000030: f2a8 793e bfab 44be fef6 56be 7f66 2ebe
00000040: 9a37 3c3e 4a72 413e beca 423e ce87 8dbe
00000050: 68bd a1be d85f 073c f035 7abd cf6c bfbe
00000060: 299c 94be 689c 7cbd aa5c 10be 0562 0fbe
00000070: 200a 76bd 5440 86bd d425 8f3e 4112 7cbe
00000080: 1564 c5bd 8193 983e 6bd4 4bbe 5f85 ae3d
00000090: ab1b 08be c4ef 193e 6050 823e c398 b03d
000000a0: 1a9c 2bbe 68ab e73d 0403 70be 65af 06be
000000b0: 08a6 8d3e 6cf5 453e 4d19 07be cdb2 523e
000000c0: 88f4 de3c 896d e43d 62f0 84bd f1cf 8e3e
000000d0: 77d4 6c3e 20af 85bc 714b 57bd 0d73 933e
000000e0: c1c4 3b3e 30c5 81be 21bb 91bd 8643 babd
000000f0: 6802 0cbd 640d 52bc 5673 18be 577e 8a3e
00000100: cce7 b1be acce 823e db22 50bd 7457 943e
00000110: 9ffa f53d aa97 583e ae30 c4be 5ecd 603e
00000120: 95cc 973c 16cb 623e d64d ad3e f202 8d3e
00000130: bab8 453e 3468 6d3e 9de3 13bd 8bea 1b3e
00000140: 6390 e53d 6fce 89be 81fa 3ebd d6df fabc
00000150: 0d27 093e 6594 58bd 2602 10be 55f9 dcbd
00000160: 96b3 03be 7e34 803e 4a29 5a3d 2605 6f3d
00000170: 410c cebd b747 173e 0b10 c5be e3cb c23d
00000180: 2ea5 0ebe d2db 8c3e ce4f 88bd d17a 9e3e
00000190: 8240 1f3e f466 253e 2b74 a0be d357 bc3e
000001a0: 060c fbbd db29 0b3e e9f7 a93c c9e8 e33d
000001b0: 28e8 643e aa3c a4bc acc1 4cbe 0745 eebd
000001c0: 84ea 803e d85c 883d ab59 57be d55d 423e
000001d0: 8276 493e 2ee1 5d3e 1213 a1bb e0d8 453d
000001e0: 13d1 2ebe 35b3 d9bd 4426 043e 3b40 f83c
000001f0: f163 1cbe b820 8abd 641c 47be 3a98 9b3e
00000200: 7036 f5bd e1ee 5f3e 8359 92be e9d1 423e
00000210: d48f 33be aeec f83d 194d 0abd e619 403e
00000220: 6883 55be 54fe a83e 64ae b03e ebbe d53d
00000230: df3f a93e 1b70 aabe 8d6e 94bd cf6a 8bbe
00000240: 5ea2 623e 744a ebbb 7a14 7f3e ed32 1dbe
00000250: ca6f 343e 1ced 8c3e 0bec 6bbe 9c6e 9b3e
00000260: f9ef abbe 1edd 19bd a033 79bd e000 81bd
00000270: 1272 a33e 3749 80be 07ef 63bd c5f4 253d
00000280: 073a 343e 9934 77bc 01e3 9c3e 2b04 403e
00000290: 618f 02be 106d a4bd f02b 7cbe a80d 833e
000002a0: a274 9cbe 8604 d7bd 0ffe 5bbe 72d6 b83c
000002b0: 07d0 f4bd 2e6d 7c3e 8506 123e a81c b23d
000002c0: feb4 4e3e 7f03 ecbd faa1 01bc a63a 05be
000002d0: cc40 383e 5407 e8bc aaec 903e 3a66 63be
000002e0: de79 a3bd 7d41 5abe d44a 633e 56d4 24be
000002f0: 4103 9f3e b7e2 ac3d 0656 5cbd de44 26be
00000300: 2714 89bd 34cc 13be 66c8 053e 4a85 81be
00000310: 038a fdbd 3532 40be 34b7 083e 98ad 263d
00000320: cf82 a83e 454c cdbb d5a6 a43e f7b8 94be
00000330: 3bb2 55be bf9e 84be 7c1c d13d 2377 91be
00000340: 9e0b 803e f1ad 6abe 9536 043e 2830 60be
00000350: 5cfe 00bd f69c 0abd 5114 593e 764b 823e
00000360: 0082 a0be 75f2 62be cc22 f83c eee5 c43b
00000370: 31f5 a63e e89a f53d 7fab 6bbd a981 93be
00000380: 8bf1 153e 4eb2 4abd 74fa 3a3e 2423 4bbe
00000390: 7cef 68bd f560 733e 03e6 ae3e 9358 8cbe
000003a0: 8b73 91be 5b9f babd 1f96 9dbd 80cc 953e
000003b0: a657 563e e7da 02be 2d70 08be df11 c13e
000003c0: 2167 dabd 54dc 92bd e996 563e 1361 233e
000003d0: cb74 ee3d cc70 d0bd 8eb7 c8bd 54a7 77bd
000003e0: 17f2 093e 7b2c 1d3e 7a54 c73c ba46 04be
000003f0: eb51 3a3e 086f 013c 7311 ecbd ac72 b1bd
0.32367936 0.16074455 -0.048516773 -0.18861927 0.29420835 -0.22623709 -0.010690192 0.19655913
0.18442869 -0.21603133 -0.02615212 0.006135086 0.24380854 -0.19206141 -0.20992658 -0.17031287
0.18380585 0.18891254 0.19022653 -0.27642673 -0.31589818 0.008262597 -0.061086595 -0.37387702
-0.2902539 -0.061672598 -0.14097849 -0.14002235 -0.06006825 -0.06555238 0.27958548 -0.24616338
-0.0963823 0.29800037 -0.1990525 0.08521532 -0.13291804 0.1503287 0.25451946 0.08622887
-0.16758767 0.1131199 -0.2343865 -0.13152845 0.27665734 0.19331902 -0.13193245 0.2057602
0.027216211 0.11153705 -0.06491162 0.27893022 0.23127924 -0.016318858 -0.05256218 0.28798714
0.18336774 -0.25345755 -0.0711577 -0.0909491 -0.034181982 -0.012820575 -0.14887747 0.27049515
-0.3474716 0.25548303 -0.05081449 0.2897297 0.12010693 0.21151605 -0.3831839 0.21953341
0.01853017 0.22147784 0.33848447 0.2754131 0.19308749 0.23184282 -0.03610574 0.1522619
0.1120918 -0.2691531 -0.046625618 -0.030624311 0.13393803 -0.052875895 -0.1406332 -0.10789744
-0.12861475 0.25040048 0.053262033 0.05835452 -0.10060931 0.14773451 -0.38488802 0.095115446
-0.13930199 0.2751146 -0.066558465 0.30953076 0.15551952 0.16152555 -0.3133863 0.36785755
-0.12258153 0.13590185 0.020748096 0.111283846 0.22354186 -0.020048458 -0.19995755 -0.1163426
0.2517892 0.066583335 -0.210303 0.18981107 0.19674113 0.2166793 -0.0049156034 0.04830253
-0.17071943 -0.10629884 0.12905222 0.030304065 -0.152725 -0.06744522 -0.19444424 0.30389577
-0.11973274 0.21868469 -0.28583917 0.19025387 -0.17535335 0.12154518 -0.033764932 0.1875988
-0.20850909 0.33006537 0.3450805 0.10436805 0.33056542 -0.33288655 -0.072476484 -0.27229926
0.2213225 -0.0071805064 0.24910155 -0.15351458 0.17620769 0.2752465 -0.23039262 0.30357826
-0.33581522 -0.03756439 -0.06084025 -0.06298995 0.31922966 -0.25055858 -0.055647876 0.040516634
0.1760026 -0.015088224 0.3064194 0.1875159 -0.12750007 -0.080286145 -0.24626136 0.25596356
-0.30557734 -0.1049891 -0.21483634 0.022563193 -0.119537406 0.24651024 0.142603 0.08696872
0.2018623 -0.11524104 -0.007912153 -0.13010654 0.17993468 -0.028323807 0.2830556 -0.22206965
-0.07982229 -0.21314044 0.22196513 -0.16096625 0.3105717 0.0844168 -0.053792976 -0.16237208
-0.06693297 -0.14433366 0.13064727 -0.25297004 -0.12379839 -0.18769152 0.13351136 0.040692896
0.329123 -0.0062651956 0.32158533 -0.29047367 -0.20868771 -0.25902364 0.10210511 -0.28411207
0.25008863 -0.22917916 0.12911446 -0.2189337 -0.031492576 -0.033841096 0.21199156 0.25448197
-0.31349182 -0.22162803 0.03029003 0.006008855 0.3260894 0.11992437 -0.0575366 -0.2880986
0.14642923 -0.04948645 0.18259603 -0.19837624 -0.056869015 0.23767455 0.3415986 -0.27411327
-0.28408465 -0.09112426 -0.07694649 0.29257584 0.20931873 -0.12778817 -0.13324042 0.37708947
-0.106642015 -0.071709305 0.20956005 0.15955 0.1164337 -0.10177764 -0.09800635 -0.06046231
0.13471256 0.15348999 0.024332274 -0.12917605 0.18195312 0.007900007 -0.11526766 -0.0866445

conv.convs.1.bias f4 [64]
00000000: de0d 073d 39df fd3c b7c6 273d 6df1 fcbc
00000010: f3f3 dc3c e10c 073d 9701 dd3c 323d bc3c
00000020: 6418 10bc 0738 0f3d bd6b 173d aaf6 2f3d
00000030: 0710 073d 9a61 52bb a5f6 2f3d cf48 dbbc
00000040: 0006 073d 8d28 34bc 6e09 073d f4a0 e43b
00000050: 7f65 173d 304a e53b dd26 e53b c6cf 893c
00000060: aae0 113c 6efa e43b 6e8b 9b3c fc7e 343c
00000070: d49c 54bc f542 90ba 9a66 173d 7bde ab3c
00000080: ee82 cc3c e116 a63a b8c8 273d ad9c cbbc
00000090: 4e66 173d 3686 8abc a397 1f3d 5868 173d
000000a0: 3269 133c 997b 713d a6e2 ab3c e09f a33b
000000b0: 2599 dcbc 0795 1f3d 57c8 273d efb9 fd3c
000000c0: 9519 17bd 7d53 ed3c a79b cc3c 7097 1f3d
000000d0: a2a8 0ebd 8e95 333c f839 0f3d 59ba 273d
000000e0: 3a36 bc3c 6f1c 9a3c 36a7 a33b e7f7 2f3d
000000f0: 9c73 753c 9940 0f3d 7bde 26bd 5c01 79ba
0.03297221 0.03099023 0.040960994 -0.03087684 0.026971793 0.032971267 0.026978297 0.022978399
-0.008794878 0.03496554 0.03696798 0.042959847 0.03297427 -0.0032101632 0.042959828 -0.026768116
0.032964706 -0.010995996 0.032967977 0.006977195 0.03696203 0.006997369 0.0069931583 0.016822707
0.008903662 0.0069878614 0.018987384 0.011016604 -0.012976844 -0.0011006283 0.036963083 0.02098011
0.024964776 0.0012671613 0.040962905 -0.024854982 0.0369628 -0.0169097 0.03896297 0.036964744
0.0089972485 0.058955763 0.020982098 0.004993424 -0.026928494 0.038960483 0.040962543 0.03097245
-0.03688963 0.028970474 0.024976565 0.03896278 -0.03482879 0.01096095 0.034967393 0.0409492
0.022975076 0.018812386 0.0049942983 0.042961027 0.014981177 0.034973715 -0.040739518 -0.0009498799

conv.convs.1.lin.weight f4 [64, 64]
00000000: a9b0 133e da13 ac3d 4c1d 80be eb03 5abd
00000010: 457b 793c 647c b33d 2b3f e73d 2d76 213e
00000020: 3366 083e 65a3 e93d 95e6 34bc 54e1 1dbd
00000030: 7a9e 323d aef0 9b3d 50f7 ddbd fce0 66be
00000040: fd40 46be 96db 23be bd51 5e3e 6c94 cbbd
00000050: 25b3 54be 7384 acbd 35c7 923d 9d0b 22be
00000060: 192c 9ebd 110d d6bd 82ac 2c3d 9342 713d
00000070: 2a89 b93d e31d d3bd beaf 553e 23a1 e0bd
00000080: 84ff 24bd a62c 8b3c 1eee 4a3e faaf 8bbe
00000090: 5899 59bd 9fea 49bd b624 25bc db1d 55be
000000a0: 9f40 0b3d 23c7 7ebe 2a2f b5bc c49f 33be
000000b0: a380 ca3d 8e17 2b3e dd38 393e 4863 1d3d
000000c0: f80b 283e a8ba 6c3e 6955 113e 8147 4cbc
000000d0: 7956 f1bd ffca 813e 2e78 9c3c b319 8ebc
000000e0: e61f 853e 6754 f8bd beb8 ca3d 6c6c 6a3d
000000f0: 4ecf 81bb f330 07be 7625 a73d 7c06 42be
00000100: 74e3 143e f0b3 4e3e bed4 5ebe 54cf 81be
00000110: 9d7e 513e bf1e 9a3c d16c d63d f422 8dbd
00000120: a252 b0bc 138b 5e3d 0170 84bc fd72 86bd
00000130: 8160 d73d 81f1 81bd 6c99 afbd ecd0 a83c
00000140: c73d 0bbc e43c 79bd ea17 37be 5cf5 423e
00000150: f3b4 9b3d 2e55 3bbe 8f10 ed3d 5070 403e
00000160: 6c94 37be e4cd edbc 7aa0 713e df42 fdbb
00000170: c095 27bc 7c3f 863d 0e9c 9cbd 88c7 30be
00000180: 34c6 43be ad42 293e 0b10 bd3c 04a5 e9bd
00000190: b5fa 96bd a996 1a3e a083 3abe ffc8 7ebc
000001a0: 3511 223c bb0e babd 727b e03d 495c 273e
000001b0: fcee 173e 50c6 33be 53b4 473e 51a0 a83c
000001c0: dd81 bcbd 3a79 6ebd 5b64 d03d 2d7d ff3d
000001d0: 126d 9ebd 53ba 573d ad7b 473e 0dc4 b2bd
000001e0: 5699 60be 0eb7 61bd bc6c ea3d abd7 fe3d
000001f0: 58ec 0b3e 59e4 b43d bda4 f43d 8501 1a3e
00000200: 525d cb3d e8a7 82bb 0f03 6e3e c3b6 e9bd
00000210: cf77 333d 7f82 e0bb f29c 933d 6f6a 3a3e
00000220: 8b8b 79be 77d4 2fbe bb5f aeba d914 16bd
00000230: 6a2e 0fbe a9af d4bd aad3 cd3d c532 33be
00000240: a1e8 9b3d 78f0 38be 678e 483d d27c 603c
00000250: 1ada acbd d735 2abd e7c7 093e f256 0fbe
00000260: 7a96 4c3d 1216 1c3e 60da c03d 33fe b83d
00000270: de9d b93c c093 db3d 7691 8f3d 813e 9abd
00000280: 590c 25be 0df5 2b3d d854 dd3d 03f8 8cbc
00000290: befc 7a3e f9e2 e3bd ccfa c13c dc65 ebbd
000002a0: 5682 ca3c 3eb5 893d f843 d3bd f7ea 11be
000002b0: 3754 e7bd bca0 183e 1cfc 903d 8203 cd3d
000002c0: e920 1fbe 3b7b 573e cf7f 373e 9c31 a0bd
000002d0: 02f2 753e dd2d 3e3d a11f dc3d 1cfc fbbc
000002e0: 7c6d 903e 49aa 97bd b371 9abd 3dff c43d
000002f0: dca0 033e 3978 1fbd da0d 873d 6e6a 8b3d
00000300: 8eb9 dc3c a243 00be 6b30 0c3d 8f1a a13d
00000310: a088 2dbe 69de f4bd 961e 983d 8d51 e4bd
00000320: ad2f 9cbc cd74 1cbe 9c80 88bd aa86 043e
00000330: 7689 80be fcd5 45be 3b77 eabc ec2f 003e
00000340: 504c a43d 6e41 b0bd 00f0 4a3e 9d75 67be
00000350: 2a4c 7b3e 6572 6abe 2bbf 13be d4be b5bc
00000360: 26c2 5bbe 8aca be3d 5fd7 873d 20d7 11b8
00000370: f07b 403e 9eab 06bd abb9 773e 7bfa f03d
00000380: f908 eb3d 8b68 0bbe 3dd1 61be da02 cd3c
00000390: 8e89 35be dbf2 78bd 62f4 1dbe edb5 133e
000003a0: 8c09 5c3d 6218 13be e1b3 d53c 71f9 03bd
000003b0: 863f c8bd adde 863d d642 7f3e b205 903d
000003c0: 9c38 fbba b958 53bd 32c1 c93d a86d bfbd
000003d0: 484c 813d d3c6 73bc 4e77 013e 1f1e 74bd
000003e0: 1ca0 cfbd 0086 d23d 7750 c4bc bf62 b5bd
000003f0: 83c4 bb3d 160f dbbd 92bb 9ebd 33c8 2f3e
0.14422859 0.08402224 -0.25022352 -0.053226393 0.015227144 0.0876396 0.11291345 0.15767737
0.13320236 0.11408118 -0.011041303 -0.038544968 0.043608166 0.076142654 -0.10838187 -0.22546762
-0.19360729 -0.16001734 0.21710868 -0.099404186 -0.20771463 -0.084237 0.07166902 -0.15824743
-0.07723255 -0.10451711 0.042156704 0.05890138 0.09059365 -0.10308435 0.20867822 -0.109682344
-0.04028274 0.016989063 0.19817397 -0.27282697 -0.053124756 -0.049296018 -0.010079553 -0.2081217
0.033997174 -0.24880652 -0.022117216 -0.17541414 0.09887817 0.16708204 0.18088098 0.03842476
0.16410816 0.23118079 0.14192738 -0.01246822 -0.117840715 0.25350186 0.019100275 -0.017346239
0.260009 -0.121254735 0.09898518 0.057232305 -0.00396148 -0.13202266 0.08161442 -0.18947786
0.14539891 0.20185828 -0.21760842 -0.2535349 0.20458455 0.018813489 0.10469974 -0.068914324
-0.021523777 0.05433185 -0.016166689 -0.06564901 0.105164535 -0.06344891 -0.08574185 0.020607434
-0.008498616 -0.060849085 -0.17880216 0.1903891 0.07602873 -0.18294212 0.11575424 0.18792844
-0.17927712 -0.02902884 0.23596373 -0.007728919 -0.010228574 0.065550774 -0.076469526 -0.17263615
-0.19118577 0.16529341 0.023078939 -0.11408427 -0.07372037 0.15096535 -0.18214273 -0.015550851
0.009891798 -0.09084841 0.10961045 0.16343798 0.14837259 -0.17556119 0.19502382 0.020584257
-0.09204457 -0.05822108 0.10175391 0.12475047 -0.07735647 0.052667927 0.19480772 -0.087288
-0.21933493 -0.055106215 0.11446521 0.12443479 0.13664377 0.08832616 0.11945484 0.15039642
0.09929909 -0.003987301 0.23243354 -0.11411812 0.04381543 -0.006851494 0.07207669 0.18204664
-0.24369638 -0.17170893 -0.0013303676 -0.036640976 -0.1398255 -0.10385067 0.10050137 -0.17499836
0.0761273 -0.18060482 0.04896393 0.0137016345 -0.08440037 -0.041555252 0.13455163 -0.13998011
0.049948193 0.15242794 0.09416652 0.0903286 0.022658285 0.107215405 0.07010166 -0.07531453
-0.16117992 0.041981746 0.10807198 -0.017208105 0.24510476 -0.11127276 0.02367916 -0.114940375
0.024720352 0.06724022 -0.103156984 -0.14249788 -0.112953596 0.14905065 0.07079336 0.10010435
-0.15539898 0.21043102 0.17919849 -0.07821962 0.240181 0.046430457 0.1074822 -0.030759864
0.2820853 -0.07405526 -0.07541218 0.09618995 0.12854332 -0.038933013 0.06594439 0.06807409
0.026943948 -0.125258 0.034225862 0.07866394 -0.1694665 -0.11956484 0.07427709 -0.11148367
-0.019065702 -0.15278931 -0.06665155 0.12941995 -0.25104874 -0.1931991 -0.028621307 0.1251828
0.08022368 -0.0860623 0.19818115 -0.2260346 0.24540773 -0.228952 -0.14428394 -0.02218572
-0.2146078 0.09315975 0.06632876 -3.4771045e-05 0.18797278 -0.03287851 0.2419192 0.11766525
0.11476321 -0.13614099 -0.22052474 0.025025774 -0.17728254 -0.06077848 -0.15425256 0.14424868
0.053720042 -0.1436477 0.02608675 -0.032220308 -0.09777741 0.06585441 0.2492784 0.07032336
-0.0019166651 -0.051598284 0.09851302 -0.09347087 0.063133776 -0.014878946 0.12643167 -0.05959904
-0.1013796 0.10279465 -0.02396415 -0.08856725 0.09168341 -0.10696237 -0.0775062 0.17166214

conv.convs.2.bias f4 [64]
00000000: 2610 8b3c 1238 0fbd f326 38bd 4238 0f3d
00000010: 1645 693d b40e 07bd 68b3 dc3c f68f ccbc
00000020: eaf3 dcbc 5696 753c 9234 83ba f181 9b3c
00000030: 3a10 34bc 0a8d 443b fa66 17bd 3239 0fbd
00000040: 198f 44bb 5789 753c 6d34 383d e150 833a
00000050: cb22 8b3c 1b22 8b3c ce77 9bbc c138 0f3d
00000060: 6238 0f3d 2523 873a 7a27 38bd e6f7 dcbc
00000070: 2357 403d a467 17bd dd83 483d 7068 173d
00000080: bc5f ed3c 92e6 abbc 4786 48bd fee8 54bc
00000090: 6d73 543c fc67 173d d8a1 82ba 6c67 17bd
000000a0: 85d6 823a 7b91 9b3c b826 383d a466 173d
000000b0: 9ef4 dcbc c897 1f3d e886 48bd 30d3 54bc
000000c0: 9f66 17bd e0b6 50bd 1838 0fbd a83e bc3c
000000d0: 9a38 0f3d 6838 0fbd d1af 443b a5f4 dc3c
000000e0: f7c8 54bc 1c37 bcbc f853 13bc fe45 693d
000000f0: 7aa7 ccbc 4ca9 75bc b24c edbc 9588 44bb
0.016975474 -0.034965582 -0.04495902 0.03496576 0.05695065 -0.032973006 0.026941016 -0.02497099
-0.026971776 0.014989456 -0.0010010174 0.01898286 -0.010990197 0.0029991292 -0.03696344 -0.034966655
-0.002999252 0.014986358 0.044971872 0.0010018611 0.016984364 0.016984036 -0.018978026 0.034966234
0.03496588 0.0010310157 -0.044959523 -0.026973676 0.0469581 -0.036964074 0.04895388 0.036964834
0.028976314 -0.020983968 -0.04895618 -0.012995003 0.012966973 0.0369644 -0.0009966446 -0.036963865
0.0009982145 0.018990269 0.0449588 0.03696312 -0.026972111 0.03896311 -0.04895678 -0.012989804
-0.0369631 -0.050955653 -0.034965605 0.022979096 0.03496609 -0.034965903 0.0030012021 0.026972124
-0.012987367 -0.022975497 -0.008992188 0.056951515 -0.024982203 -0.014993977 -0.028967235 -0.0029988636

conv.convs.2.lin.weight f4 [64, 64]
00000000: 6e0c 74bd 2190 3d3e abf1 18be 716a d83d
00000010: d79e 1b3e bcf9 393d bc62 513e 38c0 823d
00000020: 81ad 1e3e 2d66 633e b791 003e 1354 4c3e
00000030: 80e8 09bd b873 873d a067 ecbd 9c11 61be
00000040: f0d5 803e 3a5e de3d 6001 413e f409 b8bd
00000050: b1fa 163e fb49 543e b764 333e 1891 b83c
00000060: 2faa 63bb 9e61 f23c 2d80 60be 9976 1cbe
00000070: ba8e 083e 6ef3 163e b5f7 2e3e 0a9a c93d
00000080: 5761 20be b7e0 18be b9c0 05be 24bc 29bc
00000090: 3237 1f3e 9790 eebd 46e2 31bd 92b0 0bbc
000000a0: f5dc ce3d 369d c0bd 418b 5d3e 19c2 473e
000000b0: 7d0a 7f3d 3ac1 cd3d b88c 44bd 4e8f 313e
000000c0: 31d9 a3bc b794 bb3d d2c4 2e3e 6b9c d13d
000000d0: eefc 53bc 3139 a93d de25 753e 1819 61bc
000000e0: 7ecf 713e 915c 1dbe f842 0e3e 960f 8f3c
000000f0: 6433 5f3d 7a82 693e 67ad 93bc 2058 a03d
00000100: 57ce 09bd d76c 713e 546e cbbd 5a78 bfbd
00000110: 5ea9 3bbd 0801 d8bd cdde c83d 6a02 8e3c
00000120: 8c50 d1bd 5d4e 1dbe 1dee 1f3e ae37 9d3d
00000130: 867b 1abe d2c9 063e d0d0 e53c c304 2e3e
00000140: 080f 7dbe c8ec a23d 7bd8 243e 18cc ca3c
00000150: 490e cebd 36af c8bd 7401 7dbe 745d d33d
00000160: 0692 69be f62e 2fbd eab5 8d3d 4f9a 50be
00000170: 02ca 273e ffcd 033d 60f9 aa3b a28c 04be
00000180: 137c 233e 9fdc f3bc 6435 0d3e b87f 46be
00000190: 4d1c 53bd b5e8 8c3d 5f37 193e e88e 61be
000001a0: e5c5 553e 945e cfbc 86dc 5d3e ecb2 04be
000001b0: 3e01 17be f7ab 0b3e 1dc8 783e 0e0e 803e
000001c0: 7737 f63d b493 3d3d c79b 743e 04d4 543c
000001d0: 8082 643e 841f 033e 97af 17be 1c55 53bc
000001e0: ec7b 93bd 5341 013d 6086 003b 04cb 213c
000001f0: ea0f 81be 1481 54be f804 02be a316 11bd
00000200: 1413 1cbe 88dc 4a3d 4550 08be f139 fcbd
00000210: eddb 873e 7c64 72be 3190 38be ee4b 46bd
00000220: f825 89bc 8c92 053d fec2 85be 7112 f9bd
00000230: 4232 9ebd fb47 f63d c696 04bd 130b b03d
00000240: 774e 9cbd f96c ae3d 5196 abbd bbfa c4bd
00000250: f2ad 96bc a756 9abd 7930 053e 10b1 7c3e
00000260: 1b09 f1bd 2425 273e e31e 66be ba2d 153e
00000270: 75f7 f1bd 1f3a babd ada2 c0bd a014 703e
00000280: 8809 cf3b 2f20 75be 51eb 30be 33b5 c9bd
00000290: 88c2 1bbe 8e76 0cbe f6b3 35bd cedd 073e
000002a0: 51ae 1d3d 7e54 fcbd 4f05 54be 9739 3bbe
000002b0: 74bf 083e 6d31 e7bc e1b6 14bc eede 0e3e
000002c0: 64a3 ff3d 98de 043e 54a9 03be 5a9b 39bd
000002d0: 84fc 483e 21b1 593e f7b7 0ebe cc68 3abe
000002e0: c5af 823e ce70 7bbd 1b21 6ebe b470 48be
000002f0: 4418 b93d fb1b e2bd d99e cbbd 3320 67be
00000300: 4092 043e ae8c 6fbd 98e7 863d d750 98bc
00000310: 67fc 073e c679 80be 8cd0 35be 6662 353c
00000320: 0f9b 3b3e 8c0c 643e 8b74 92bd 896f d4bd
00000330: 253a e03d 23d4 07be 3506 95bd a967 51be
00000340: b8ed 0c3e 4931 04bb 582f 87bd 0efe 7d3e
00000350: 4085 fbbd c8d5 ea3d 5fe2 c5bc 8d2f 423e
00000360: ac5b 403d 0b14 4b3e e5f3 2dbe 1d1e 8e3e
00000370: 75ec f1bd 587b 1e3e d4c6 673d 307d 4c3e
00000380: dc65 40bd 3db9 50be 735a 07be 11db ff3d
00000390: 3a35 09be ed47 35be 89ae 23be df6d fabc
000003a0: aeb2 40bd 5187 6cbe 0901 1c3e 2c03 2bbe
000003b0: dd2e 3e3d f053 23be 92e5 4cbc 3f77 b8bc
000003c0: 5182 07be f6f7 45be 152b 5fbd b8df 5c3e
000003d0: e99a 9bbd 4ac1 d03d c32e 23bc 4ce2 9e3d
000003e0: 615f 72bd d413 3a3d efa1 8d3c 76fa 54bc
000003f0: 043a a8bc 4f96 523e 28ec c0bd 0c56 3d3d
-0.059582166 0.18512012 -0.14935939 0.10567177 0.15197311 0.04540418 0.2044782 0.06384319
0.15495874 0.22206946 0.12555586 0.19953947 -0.033668995 0.066138685 -0.115432024 -0.21979374
0.2516322 0.10857816 0.18848181 -0.089862734 0.14744069 0.20731346 0.17518888 0.022530124
-0.0034738888 0.029587563 -0.21923895 -0.15279616 0.13335696 0.14741299 0.1708668 0.09843834
-0.15662132 -0.14929472 -0.13061799 -0.010359798 0.15548399 -0.11648672 -0.04342868 -0.008525984
0.10100738 -0.094049856 0.21635152 0.19507636 0.06226586 0.10046621 -0.047985762 0.17339823
-0.020001026 0.091592245 0.17067268 0.102349125 -0.012938721 0.082628615 0.23940226 -0.013738893
0.23614308 -0.15367343 0.13892734 0.017463487 0.05449237 0.22803679 -0.01802702 0.078293085
-0.033644047 0.23576675 -0.09933153 -0.09349127 -0.045815818 -0.10547072 0.09808121 0.017335135
-0.10220441 -0.15361924 0.15618177 0.07676636 -0.15086183 0.13162926 0.028053671 0.16994004
-0.24712765 0.07955319 0.16098206 0.024755523 -0.100613184 -0.09799044 -0.24707586 0.10320559
-0.2280961 -0.042769395 0.06919463 -0.20371364 0.16385654 0.032178875 0.005217716 -0.12944272
0.159653 -0.029768286 0.13789898 -0.19384658 -0.05154066 0.06880323 0.14962529 -0.2202717
0.20876272 -0.025313653 0.21666154 -0.12958878 -0.14746568 0.13639818 0.24295087 0.25010723
0.12022298 0.04628344 0.2388755 0.012990002 0.22315407 0.12804991 -0.14813076 -0.01289871
-0.072013706 0.03155644 0.0019611344 0.009875063 -0.25207454 -0.20752364 -0.12697208 -0.03542198
-0.15241653 0.04952672 -0.1331187 -0.12315739 0.26534978 -0.23671144 -0.18023755 -0.048412256
-0.016741738 0.03261046 -0.2612533 -0.121617205 -0.0772443 0.12025448 -0.03237035 0.08595862
-0.076321535 0.08516879 -0.0837828 -0.096181355 -0.01839349 -0.07536059 0.13006772 0.24676919
-0.11769315 0.16322762 -0.2247272 0.14568225 -0.11814777 -0.09093117 -0.09406028 0.23445368
0.006318275 -0.23938058 -0.17277266 -0.09849014 -0.15210927 -0.137171 -0.044361077 0.13268206
0.03849632 -0.12320803 -0.2070515 -0.18283688 0.13354284 -0.02822181 -0.009076805 0.13952228
0.12482336 0.12975538 -0.12857562 -0.04531417 0.19627577 0.21258976 -0.13937365 -0.1820404
0.25524727 -0.061386876 -0.23254816 -0.19574243 0.090378314 -0.11040493 -0.09942407 -0.22570877
0.12946415 -0.058483772 0.06587142 -0.018593235 0.13279878 -0.25092906 -0.17755336 0.011070823
0.18320869 0.22270411 -0.07151135 -0.10372836 0.1094859 -0.13264517 -0.072765745 -0.204497
0.13762558 -0.0020170978 -0.06600827 0.24803945 -0.12281275 0.11466557 -0.024155794 0.18963452
0.046962425 0.19831865 -0.1698757 0.2775735 -0.11812679 0.1547674 0.0565861 0.1996963
-0.04697214 -0.20383163 -0.13218097 0.124929555 -0.1339921 -0.17703219 -0.15984549 -0.030569969
-0.047045402 -0.23098494 0.1523477 -0.16700429 0.04643141 -0.15949988 -0.012505906 -0.022517798
-0.13233306 -0.19332871 -0.054484446 0.21569717 -0.07597906 0.10193117 -0.009959879 0.077580065
-0.05917299 0.045429066 0.01728913 -0.012999168 -0.020535477 0.2056515 -0.09420043 0.04622464

lin.weight f4 [64, 128]
00000000: 70b3 b3bd c05e ad3c ebdc 7ebd 1688 13bd
00000010: 10c5 52bd e693 2abd 00b6 27bd 45bf 18bd
00000020: 3cac b43d 92f2 61bc 1ce5 143d 3971 4f3c
00000030: 189e 8abd 989c bfbc 25d2 743d aa23 8d3d
00000040: 471c 543d d268 3fbd ccb0 033d 1b5a 323c
00000050: 15e3 91bc 00a1 82bc e0a8 ddbb df0d a7bd
00000060: 8de8 52bd 84c5 b33d 1ac9 f5bb 24d8 1e3d
00000070: 88c9 533d 00f2 e0bc bfe3 083d 5a4b ca3b
00000080: bb16 45bd fb3d 70bc 461e 46bd 7f4a 1abc
00000090: fbd4 2bbc a922 84bd ab30 6abc a6ba 4bbc
000000a0: edec e3bc a8f3 7a3c c51d 903d b648 ccbc
000000b0: 3143 a53d 3284 70bd 3908 32bd aea9 ae3d
000000c0: 08f4 853d 42bc 76bc 0d9b 143c 20ba 8e3d
000000d0: 91e5 09bd ab23 81bd d76c bb3c 45c1 853d
000000e0: 21aa 323d 583f bbbc a113 01bb cea6 583c
000000f0: ad79 333a 4b74 d33c 340a 36bd 5d87 963d
00000100: 0165 5b3d 82f2 b23d ccdf 33bd 9f80 893d
00000110: 33e0 67b9 6329 8a3d 2784 a6bd bda6 083d
00000120: 3ef7 e83b f047 4c3c 43fb a63d a67c 59bd
00000130: 09aa 53bc dc9e 6b3c b789 a33c 6178 88bb
00000140: 6a65 a5bd 559a b43d 3f5c 7cbd 9c04 ab3d
00000150: ab2e 9f3d 4a25 31bd 855a 72bd 03f3 89bd
00000160: f740 9a3d 98ed 383d 71a4 8dbd 7fe8 99bd
00000170: 66a0 a93c 70bd 31bd 5956 8dbd a64b 84bd
00000180: 56c4 99bd dc4a 8f3d 412b 593c 0c9b 1d3d
00000190: cfcd 7dbd 383e 5c3b 2644 a5bd c6c1 0abc
000001a0: d6a4 b2b9 9435 6d3d 00eb 09bd a253 1f3d
000001b0: b014 b83c 2c2c e3bc cfa3 17bc 2858 803b
000001c0: 7bc1 0b3d aa58 61bd c179 2dbc facb 1c3d
000001d0: e4b6 b1bd 25fa 8fbd a937 31bd c6d0 a2bd
000001e0: a1c8 8e3d 402f 8fbd eef3 4ebc 6184 363d
000001f0: 9f49 5ebd 1772 783c 6f78 0cbd eb10 5abd
00000200: 079d 10bd 0c2d a8bd a08a 44bc d2c2 15bd
00000210: 03f3 39bd 44b0 40bd 24fc 37bd 3c98 53bd
00000220: 9845 9abc daa1 913c af1e ae3c 9aa2 37bd
00000230: 70cc 4fbc 10c0 dc3b 6e3b 1abb e730 ca3c
00000240: dcb9 d2bc 170f 3ebd 770a adbd fd13 adbd
00000250: d4a7 783c cd31 a73d 15a5 62bd a62a 283c
00000260: 330d fb3c 5c5f 9f3d dd2d 653d 169f b33c
00000270: f308 0fbc 4e36 ccbc a2f4 4bbd 7cff a0ba
00000280: 4c01 433c 7df9 903d 2ffa a03c 19ad 283d
00000290: 800a 98bd 4ad6 56bd 10fd b4bc 8f6f 3bbd
000002a0: cbfb a5bd f06a d5bc c260 e43c 8cfa 1abd
000002b0: 0694 803d 9884 653c 278c bf3c e209 923c
000002c0: ef02 cb3b c11a b6bc 5d4e 8ebd 4eae d6bc
000002d0: 4821 13bd 99ed 243d c37e 843b 45ea 91bd
000002e0: 53a7 343d 9cf0 363c 3c95 633d 5f22 8c3d
000002f0: cc7f 57bd 34a5 10bd 1c7f a33d f1fb a7bd
00000300: 6213 efbc c61a a6bd d47d a9bd 1883 a9bd
00000310: 989b af3c 3bbd 61bc e1be 60bd a102 223d
00000320: 3bf8 953c cf10 213b 9283 eb3c 6a37 8cbd
00000330: e0d0 a73d 264f 18bd 179f 3b3d a29b e73c
00000340: dd21 a0bd fcf0 36bd d540 35bc df1a a1bd
00000350: 9c50 b1bd b2cb 733d eb6d 923c 6669 793c
00000360: 8c71 963d 3818 46bd c123 cebc e7da 16bc
00000370: 3192 1ebd 516b 2e3b 3ca4 2dbd b252 ae3d
00000380: 94f1 653c 3104 883c d6fa 22ba 0d75 813d
00000390: d41d ecbc 9ddb 433c 7f98 9cbd 316c 6f3b
000003a0: ca68 36bd 02a8 853d 47b0 88bd 9092 303d
000003b0: d4b2 84bd 558a 8e3b 8eec b3bd 7058 6bbd
000003c0: fd29 67bc c8e5 88bc 7f2e 71bd b0ac b13c
000003d0: 6642 09bd aa59 083c 7c9f e1bb 7a6d f7bc
000003e0: 3835 333d 51fb a33d 50c4 85bd cfde 5abd
000003f0: 6bb7 723c 2f89 1bbc b6f5 06bd fcab 9e3d
-0.08774459 0.021163344 -0.062222403 -0.036018454 -0.051457465 -0.041644953 -0.040945053 -0.037291784
0.088219136 -0.013790743 0.03635131 0.012661272 -0.06768435 -0.0233901 0.059770722 0.06891568
0.05178478 -0.046730824 0.03215103 0.010885741 -0.017808476 -0.015945911 -0.0067645162 -0.081569426
-0.05149131 0.087779075 -0.00750078 0.038780347 0.051705867 -0.027459145 0.03342032 0.0061735334
-0.04811738 -0.014663215 -0.048368715 -0.009417175 -0.01048779 -0.064519234 -0.01429383 -0.012434637
-0.027822936 0.015316881 0.07036928 -0.024937015 0.08069456 -0.05871982 -0.043464873 0.085284576
0.06540686 -0.015059533 0.00907017 0.06969094 -0.033666197 -0.06305631 0.022879047 0.06531004
0.04361928 -0.022857353 -0.0019695538 0.013223363 0.0006846439 0.025812289 -0.044443324 0.07350037
0.05356312 0.08737661 -0.0439146 0.06713986 -0.00022113397 0.06746175 -0.08130675 0.03336214
0.0071095517 0.012468323 0.08153393 -0.05309739 -0.0129189575 0.014381137 0.019963128 -0.004164741
-0.08075984 0.08818499 -0.06161141 0.083504885 0.07772573 -0.043248452 -0.059168357 -0.06735804
0.07531922 0.045148462 -0.0691613 -0.07515048 0.020706367 -0.043393552 -0.06901235 -0.06459741
-0.07508151 0.069967 0.013254941 0.038477942 -0.061963852 0.0033606421 -0.08069639 -0.008469051
-0.00034073618 0.057912424 -0.03367138 0.038898118 0.022470802 -0.027731024 -0.009255364 0.003916759
0.034120064 -0.055016197 -0.01058811 0.038280465 -0.08677462 -0.07030133 -0.043265972 -0.079499766
0.06971861 -0.06991434 -0.0126314 0.04455984 -0.05426943 0.01516392 -0.034294542 -0.05323879
-0.035306003 -0.08211717 -0.011995941 -0.03656275 -0.04539777 -0.0470431 -0.044918194 -0.051658854
-0.018832013 0.017777372 0.021254865 -0.044832803 -0.012683019 0.006736763 -0.0023533958 0.024681522
-0.02572339 -0.04640111 -0.08449262 -0.08451078 0.015176732 0.081637956 -0.055333216 0.010264074
0.030645942 0.0778186 0.05595194 0.021926444 -0.008730161 -0.024928238 -0.049793847 -0.0012283172
0.011902165 0.07078836 0.019650547 0.041180704 -0.07423878 -0.052450456 -0.022093326 -0.045760687
-0.08104666 -0.026051968 0.027878169 -0.037836596 0.06278233 0.014008664 0.02338226 0.017826978
0.006195418 -0.022229554 -0.0694854 -0.026206162 -0.03592041 0.040265653 0.0040434315 -0.071247615
0.044104885 0.011165764 0.055562243 0.06842493 -0.05261211 -0.0353138 0.079832286 -0.08202351
-0.029184047 -0.081105754 -0.08275953 -0.08276957 0.021436498 -0.013778026 -0.054869536 0.03955329
0.018306842 0.002457667 0.028749261 -0.06846507 0.081941366 -0.037184857 0.045806017 0.028272454
-0.07818959 -0.044663414 -0.01106282 -0.078664534 -0.08657953 0.05952043 0.017874679 0.015222883
0.07345876 -0.04836294 -0.025163533 -0.009207464 -0.038713638 0.0026614259 -0.042392954 0.08511867
0.0140346475 0.016603561 -0.0006217187 0.06321154 -0.028822817 0.011954215 -0.07646274 0.0036532993
-0.04453353 0.065261856 -0.06674247 0.043108523 -0.06479421 0.0043499866 -0.087853536 -0.057457387
-0.014109132 -0.01671113 -0.058882233 0.02168879 -0.033510588 0.008322159 -0.006885467 -0.03020357
0.043751925 0.08006919 -0.06531584 -0.053435143 0.014814238 -0.009493156 -0.032949172 0.07747647

lin.bias f4 [64]
00000000: de3f 533d 98e1 0cbd 5012 c73c cc28 8abc
00000010: fb7e 263b ee5c 15bc 107d b2bb acac a1bd
00000020: 9e85 293b ba3e 433b 87cc b1bd 8874 50bd
00000030: a862 b43d ceb3 333d 35c4 383d e8ce a03d
00000040: 1efc 0d3a 0ae4 87bc c35d 983d 688f 57bd
00000050: 9820 743d 871b 71bd e9d5 70bd 70b6 af3d
00000060: 567e 8ebd bc19 063d 8b47 abbd 3e42 90bc
00000070: 4f82 50bd 6974 9a3d 2f2c 913c e1ec 9d3d
00000080: 5394 85bc 7b4b 123d 9e07 8a3d 5549 7a3c
00000090: 1686 2a3d 094c 7f3d 5e57 e0bc 50e2 92bd
000000a0: 75ec 233d 7259 4d3d 2ab7 973b 0a30 6e3d
000000b0: 389e 04bd 39a7 b23c b374 08bd bbc8 cabc
000000c0: 8579 773d 7897 a1bc 4a62 043d e522 023d
000000d0: e13a 84bb 750a 9a3d 19e3 a7bb e275 1dbd
000000e0: 637b 913d 2424 cc3c 6c1a 8c3d 6b8e 65bd
000000f0: 8d8b e63c 46cd bbbc adef 89bc 8f1b 8ebc
0.05157458 -0.03439483 0.024300724 -0.016865157 0.0025405276 -0.009116394 -0.0054470375 -0.07894263
0.0025866996 0.0029792027 -0.086815886 -0.050892383 0.0880788 0.043872647 0.045108993 0.07851964
0.00054162915 -0.01658823 0.07439759 -0.052626997 0.059601396 -0.058864143 -0.05879775 0.08579719
-0.069576904 0.032739386 -0.08363255 -0.017609712 -0.050905522 0.07541735 0.017721264 0.07711197
-0.016306078 0.035716515 0.06739734 0.015276273 0.04163178 0.062328372 -0.02738541 -0.07172072
0.040020425 0.05013413 0.004629989 0.058151282 -0.03237745 0.021808254 -0.033314418 -0.024753919
0.060418624 -0.019725546 0.0323203 0.03177156 -0.004035339 0.07521526 -0.0051235077 -0.0384425
0.07103612 0.024919577 0.06840977 -0.056044023 0.028142715 -0.02292503 -0.01683792 -0.017347125

out.weight f4 [4, 64]
00000000: eff0 073e e800 523c 9e17 b8bd 5ce7 ac3d
00000010: 21fc 88bd 86f8 9d3d 822d 7abd 6b5c fc3c
00000020: 7c9a 05be 0489 103d 2b1e 403d d43a b03d
00000030: 1bef fe3b 5085 5cbd b98e f13b 0f65 8e3d
00000040: b17c fa3d 84fd 6d3c 8d64 093d 4156 5e3c
00000050: e91a 6ebd 01de 69bd a99a bebd 50b9 9ebd
00000060: 087f 4dbd 3423 aebd 690f f6bc c4bc 40be
00000070: 8acb 9cbd 581c ea3c 255b 46bd 7bef e23d
00000080: 1375 97bd 3fbd b03d 0728 853d 72d8 ee3d
00000090: ec95 cbbd 1282 8cbd e84e 24bd 5d8a a43c
000000a0: 4d2a 0abc 00c0 0fbd 5703 8e3d 55c5 a0bd
000000b0: ffd9 a9bd e270 623d e883 de3d 7181 c23d
000000c0: e699 9fbb 1f84 433e 2ea7 b03d 5fc0 ca3d
000000d0: 0e36 9cbd b0d7 a23d 9c01 dfbd 00c8 c73d
000000e0: c3b0 9b3c 363e 92bd 2c94 a93d 2264 b9bd
000000f0: ef47 783d 0fac cd3d 26b2 dbbb e005 6a3d
00000100: d208 f7bc 2502 393d 0a1e 003e a5f3 943d
00000110: 9c95 25be 9ba7 a13d ef64 d6bd 2a32 093e
00000120: 580d 003c 2291 1a3a 5774 b8bb 26b7 c1bd
00000130: 9ff8 d33d 7abb 723d 0d37 973d e677 123e
00000140: 2963 2abd de9e 02be c45c 21be e1d7 1b3d
00000150: 5460 2bbe 250a e9bd 5a8a c8bb d7fd 5fbe
00000160: 5a1b 90bd 76d4 363e 20c4 353e 2477 ab3c
00000170: 13c8 2cbe 0067 993d 022e a6bd 1022 61bc
00000180: a473 d4bd d7b4 ef3d a39d 5a3e 6f5c 213c
00000190: 4a9e 1bbe 9f28 47be 4d26 073d 87e3 693d
000001a0: fff3 19be f2d6 21bc d61a 0fbe b431 43be
000001b0: c932 e43d 57ea cabd e804 433e c8af 3e3d
000001c0: ea7c 35bc 6b3f 473e 543e c93d 80a5 833d
000001d0: 8d30 d1bd c768 f33d c84b 8c3a b20a d9bd
000001e0: 89ce 10ba b750 aa3c 7548 bd3c 9bcb 49be
000001f0: bbee 893d 2111 b23c cbf4 663e 31d4 4abd
00000200: 7b6c fd3b 04bb 0c3e e83d 02be c184 1cbd
00000210: 3873 d43d 6849 9dbd eb83 143e 9bc9 013e
00000220: 6d49 ef3d c580 84bd b6de c93c 94b0 693e
00000230: 9de4 b5bd 3eba 9fbd e8de 5cbc 91f7 e53d
00000240: 0709 8b3d 406d 3a3e 1780 313e b9af a2bc
00000250: 7070 323d 0a0b 373e 7425 593e 1076 0f3e
00000260: 5ee3 d9bd 2c7f d8b9 4ef8 dfbd 279f ed3d
00000270: 984e 893d 1f87 b23d 2d5f 313d 4670 093d
00000280: d841 5b3e 9e98 1dbe 8513 3cbe e4c8 23be
00000290: ac83 cb3d 6db6 8b3c 3162 aa3c 52b9 2b3d
000002a0: c6b9 96bc 2104 39be 5b97 133e e7b9 dcbc
000002b0: fb87 193e 0794 313d 32ee cabd c720 db3d
000002c0: c889 d93c f6e3 3abe fdc3 fe3d 12ce c3bd
000002d0: b747 dabc c4f6 aa3d 02c6 1e3c a92e 5abe
000002e0: cfd6 42bd 70c6 623e eedc 773d 1c0a 603e
000002f0: 43d3 0abe 5e6b 30be 796b 5b3d 1911 003e
00000300: ba19 e73c 0c42 5bbe 0d12 923d 1d2b 3e3e
00000310: efea 07bd 23a0 8c3d 8dcd 6b3d 94f7 6e3d
00000320: 85b8 f2bd 29f7 e8bd a1dc 81bd de4b e8bd
00000330: 386d 313e 4913 673e 48ea b6bd 300f 063d
00000340: cde7 55be 14dd 6fbe a7f2 c7bd 5458 d63d
00000350: f25a 49be c99d 32be 8364 10be cdaa 573d
00000360: b5a6 213e 6e3c 60bd dc15 d73d 7d7b 14be
00000370: a2cd fcbd bbe3 c8bd 0e42 b33c 88fc b03d
00000380: db54 1abe e1dc fbbc ecea 1d3e 7a75 ecba
00000390: ca7d 073e 78ff babd e9a1 393d 72de debd
000003a0: 0d98 24be d283 083e 7db4 cabd 704a c83d
000003b0: 750c a7bd 7219 17bb 7010 723d a4b9 46be
000003c0: b780 0bbe db9c 153e 66db 0c3c 325e 353e
000003d0: 065b bc3d b3bd abbd ed85 023e 2775 0f3e
000003e0: 736b 113e 7b01 f2bd b775 15be e4d7 8fbc
000003f0: 01f2 103e 331b 5dbd f5be 01bd ee96 3cbe
0.13275503 0.012817599 -0.089888796 0.08442566 -0.06688715 0.07713418 -0.061078556 0.030805787
-0.13047212 0.03528692 0.04690377 0.086049706 0.0077799684 -0.053838074 0.00737175 0.06952869
0.12230814 0.014525775 0.03354316 0.013570369 -0.058131132 -0.057096485 -0.09306843 -0.07750189
-0.050169975 -0.08502808 -0.030036645 -0.18822008 -0.076560095 0.028577968 -0.048426766 0.110808335
-0.07395377 0.08629846 0.06501775 0.116623774 -0.09940705 -0.068607464 -0.040114313 0.020085508
-0.008432937 -0.035095215 0.06934231 -0.07850138 -0.082935326 0.055283435 0.10865003 0.09497345
-0.004870641 0.19093369 0.08625637 0.09899973 -0.076274976 0.079512954 -0.10888979 0.09754944
0.019005185 -0.07140772 0.08280215 -0.09052302 0.060615476 0.10042583 -0.0067045866 0.05713451
-0.030155573 0.04516806 0.12511459 0.07273034 -0.16170353 0.07893296 -0.1046847 0.13398042
0.007815681 0.000589626 -0.005629103 -0.09458761 0.10350155 0.059260823 0.07383547 0.1430355
-0.041598473 -0.12755916 -0.15758044 0.038047675 -0.16735965 -0.11378888 -0.0061200084 -0.21874176
-0.07036467 0.17854485 0.17750597 0.020930834 -0.16873197 0.07490349 -0.08114244 -0.013741031
-0.10373619 0.11704414 0.21349196 0.009848698 -0.15197101 -0.1944909 0.03299551 0.057101753
-0.15034483 -0.009877907 -0.13975081 -0.19061929 0.11142499 -0.09907978 0.1904484 0.046554357
-0.011077145 0.19457786 0.09826341 0.06428051 -0.102143385 0.11885219 0.0010703737 -0.10597743
-0.000552394 0.020790441 0.02310584 -0.19706576 0.06734987 0.021736683 0.22554319 -0.049518768
0.007733879 0.13743216 -0.12718928 -0.03821254 0.10373539 -0.07680017 0.14503448 0.12674563
0.11683927 -0.06469873 0.02464233 0.22821265 -0.08881495 -0.07799195 -0.013480879 0.1122886
0.06788831 0.18205738 0.17334019 -0.019859182 0.04356426 0.17875305 0.21205693 0.14009881
-0.1063907 -0.0004129348 -0.10936032 0.116026215 0.06704444 0.087171786 0.043303657 0.033554338
0.21411836 -0.1539025 -0.18366821 -0.15994602 0.09937224 0.01705476 0.020798774 0.041924782
-0.01839913 -0.18067981 0.14413206 -0.026944114 0.14993279 0.04335406 -0.099087134 0.10699611
0.026554957 -0.18251023 0.124397255 -0.09560789 -0.026645524 0.08347848 0.009690763 -0.21306862
-0.04756814 0.2214601 0.06051343 0.21878856 -0.13557152 -0.17228457 0.05356929 0.12506522
0.02821051 -0.21411914 0.07132349 0.18571134 -0.033183035 0.06866481 0.057569075 0.058341578
-0.118516006 -0.11375267 -0.0634091 -0.113425955 0.1732682 0.2256595 -0.08931404 0.032729328
-0.20889206 -0.23424178 -0.09763079 0.10466066 -0.19663599 -0.17443003 -0.14100842 0.052653123
0.1578625 -0.05474513 0.10502216 -0.14500232 -0.12343909 -0.09809061 0.021882083 0.086419165
-0.15071432 -0.030744972 0.15421647 -0.0018040382 0.13231578 -0.09130758 0.045320425 -0.10882272
-0.16073628 0.13331535 -0.09897707 0.09779823 -0.08156673 -0.0023055938 0.059097707 -0.19406754
-0.1362332 0.14610617 0.008597231 0.17711714 0.09197049 -0.08385792 0.12746401 0.14009534
0.14201145 -0.118166886 -0.14595686 -0.017559 0.14154817 -0.053981017 -0.03167625 -0.1841695

out.bias f4 [4]
00000000: 45c9 b6bc 02b3 823d a6a6 2c3d e23a 813a
-0.02231277 0.06381799 0.042151116 0.0009859467
