baseline_explainers/gnninterpreter/ckpts/imdb_ckpt.pt (torch, 71951 bytes, 10 tensors)

conv.convs.0.bias f4 [64]
000000 30 f2 82 3c a6 18 92 bc 77 0a b4 3c a0 3b d3 3c
       0.015984625 -0.017834019 0.021977646 0.025785267
000010 80 cd 27 bc d8 f3 02 bb 2a 94 2e bb 10 67 21 3c
       -0.010241866 -0.0019981768 -0.0026638606 0.009851232
000020 a8 7e c4 bb c2 79 91 bc 00 04 91 35 df dc d4 3c
       -0.005996544 -0.017758254 1.0804506e-06 0.025984226
000030 bc 7a 44 3c ce 9e 02 bb b0 fb 02 3c ff 39 c5 bb
       0.011992153 -0.001993108 0.007994577 -0.0060188766
000040 74 ad 4c 3d 69 e2 43 bc 34 21 83 bb 6e 40 42 3c
       0.049970105 -0.011955836 -0.004001761 0.011856182
000050 00 8c 3c b6 c4 77 c4 bb 00 78 b1 b5 00 f4 b2 35
       -2.8095674e-06 -0.0059957225 -1.3222452e-06 1.3333047e-06
000060 3d 47 65 3c fb 41 e5 3c 5a f0 02 3b a1 a1 a3 bc
       0.013994035 0.027985564 0.0019979686 -0.019974532
000070 79 24 68 bc f9 52 96 bc fe 61 c3 bb 00 55 e5 3c
       -0.014168852 -0.018350111 -0.0059626093 0.027994633
000080 df 80 f5 bc cc fd 82 3b 4a 22 b4 bc 16 9a f5 3c
       -0.029968677 0.00399754 -0.021989007 0.0299807
000090 00 68 ca b5 00 f6 10 36 53 fc 02 bc bc b5 23 3c
       -1.5080441e-06 2.1600863e-06 -0.007994729 0.009992059
0000a0 2e 39 65 bc 4a ee 63 3c f9 83 44 3d 5d f7 02 3d
       -0.0139906835 0.013911793 0.04797742 0.031974185
0000b0 66 1d c4 3b 32 7f 44 3c a8 b3 d3 bc 41 7d c4 3b
       0.00598495 0.011993216 -0.025842503 0.0059963767
0000c0 c8 14 03 3c f3 cb 64 bc aa 6f 07 3b 22 fe 82 bb
       0.00800056 -0.013964641 0.0020665922 -0.00399758
0000d0 77 2f 8b 3d bb c3 44 bc 44 6b 65 bc 18 08 83 bb
       0.067961626 -0.012009556 -0.014002625 -0.0039987676
0000e0 98 2c 0b 3d 16 f8 02 3c 85 b2 23 bc 70 7a 44 bc
       0.033978075 0.007993719 -0.009991293 -0.011992082
0000f0 00 83 a0 b6 a2 8c 1b bd 02 ed 02 bc 65 ed 02 3c
       -4.783622e-06 -0.037975915 -0.007991077 0.00799117

conv.convs.0.lin.weight f4 [64, 3]
000000 a4 b8 88 be 55 4c 39 3d 98 29 6d 3d 64 48 11 3e
       -0.2670337 0.04523881 0.057900995 0.14187771
000010 cf f8 6a 3e 40 ec 57 3e 82 51 89 3e de d9 21 be
       0.22946475 0.21086216 0.26819998 -0.15805766
000020 13 4a 5a be f6 38 d8 bc 56 d7 96 bd f2 88 0f 3c
       -0.2131732 -0.026394349 -0.07365291 0.008760678
000030 86 c5 a7 3b 05 97 44 be c9 db 8e be 33 42 df bd
       0.005119982 -0.19198234 -0.27902058 -0.109012984
000040 cc 3b 14 3d a1 2a 2b 3e a9 3d 87 be 76 11 8a be
       0.03618984 0.1671548 -0.2641423 -0.26966447
000050 96 fb 27 bd 8f 1c db bd 73 3e 17 be 1a ab 92 be
       -0.041011415 -0.106988065 -0.14769916 -0.28646165
000060 2a 88 fa 3d 66 df 87 bd 1b 6f 6d 3e 12 f0 5c be
       0.122330025 -0.06634407 0.23186915 -0.21575955
000070 72 6c 99 be dc 58 83 bc c0 c6 a1 3d 24 72 30 3e
       -0.2996555 -0.016033582 0.07899237 0.17231041
000080 33 63 29 bd 75 14 8a 3e ad e9 4b be 52 bb 66 be
       -0.04135437 0.26968732 -0.19913359 -0.22532395
000090 42 07 fd bd b4 9b f0 bd 1c 01 f9 3d 5b 2d 79 3e
       -0.123549 -0.11748448 0.12158415 0.24333708
0000a0 33 bc 8c 3e ab d0 17 be 07 61 a2 bd f3 f8 2d bd
       0.27487335 -0.14825694 -0.07928663 -0.042473745
0000b0 ac 09 d0 3d 40 06 ac bd 7b 97 0a be fd bf e0 3c
       0.10158095 -0.083996296 -0.13534348 0.027435297
0000c0 2c b9 05 be e9 f5 9e 3e 87 38 88 be 53 a5 8e be
       -0.13058919 0.3104699 -0.26605627 -0.27860507
0000d0 9e ed 66 bb 18 06 60 be 51 08 e6 bd 1e 33 6c 3e
       -0.0035236846 -0.21877325 -0.11232055 0.23066375
0000e0 1c 6e 98 bb fb 98 d6 bc 29 25 8c be 96 d4 9a bd
       -0.004651798 -0.026195994 -0.273721 -0.07560079
0000f0 59 34 e9 bd 5d 4a 85 3e b3 88 b7 3d c4 f5 f0 bc
       -0.11386938 0.26033297 0.0896162 -0.029414065
000100 a5 8a 76 3e 16 7a 39 3e 1f 01 6e bd 6f 67 e1 bd
       0.24076326 0.18112978 -0.058106538 -0.110060565
000110 4d 34 97 3e 5b 1e 18 be 19 65 2f 3d b1 fd 55 3e
       0.2953209 -0.1485533 0.042821024 0.20897557
000120 30 5c 22 3e 8c 02 1c be fa af 9b 3c 6c e1 ff 3c
       0.15855479 -0.15235347 0.01900481 0.03123542
000130 22 73 8b 3e 3e 5d fe bd c9 5c 6a be 7c 09 5e be
       0.27236277 -0.12420128 -0.22886957 -0.21683306
000140 df 5e 7c 3e 9b 51 2d 3e dc a3 87 3d a6 ef 49 be
       0.24645565 0.16925661 0.066230506 -0.19720325
000150 f4 83 8b be ae a6 33 ba 2a fb 03 be 33 91 91 be
       -0.2724911 -0.00068531453 -0.1288878 -0.2843109
000160 73 86 62 be 14 60 de bd 14 68 3f bd 55 9a 6d be
       -0.22121601 -0.10858169 -0.046730116 -0.23203404
000170 2f 0d 09 be 9e 01 92 bd 16 f5 9a 3e 80 8e 0b be
       -0.13383935 -0.07129215 0.3026511 -0.13628578
000180 e8 29 b8 bd cb 63 66 3e 98 96 5a be cc 40 d7 bc
       -0.08992368 0.22499005 -0.2134651 -0.026276015
000190 e0 74 12 be d6 1c ea 3d fe 94 43 3e 43 52 13 3d
       -0.14302397 0.11431281 0.19099805 0.035967123
0001a0 a1 66 29 be 58 0a 08 3e 23 4d fb bd 8d 90 5b be
       -0.16543056 0.13285196 -0.12270572 -0.2144186
0001b0 83 43 90 3e b9 34 5f 3e 89 cc e4 bd a7 ec 25 3e
       0.28176507 0.21797456 -0.111718245 0.16203557
0001c0 a0 67 d1 3b 3e 69 c7 3d 20 d0 82 bc ff 74 64 3e
       0.006390527 0.0973687 -0.015968382 0.22310255
0001d0 0e 0b 5b 3e ae 08 5d bc 24 2b 3e 3d d2 36 98 3e
       0.21390936 -0.013490839 0.04642786 0.29729325
0001e0 52 57 25 3e 4d 6c 82 be 4c 9b 94 bd 8a cc c5 bd
       0.16146591 -0.25473252 -0.07256183 -0.09658153
0001f0 91 59 d8 bc 60 e4 76 3c 2d 91 58 bd 4f c4 68 3e
       -0.026409896 0.015069097 -0.052872825 0.22731136
000200 ce 0a 91 be ae c3 6d 3e 88 6c d9 3d 96 af 60 3e
       -0.28328556 0.23219177 0.10616404 0.2194198
000210 54 e6 8a 3d 7c 16 81 3e 94 e9 9c be e3 c8 2b 3e
       0.06782213 0.25212467 -0.30646956 0.16775851
000220 89 95 a3 3c bf 0e 57 3e 6f b5 7f 3e f3 8a 84 3e
       0.019968765 0.21001719 0.24971555 0.2588726
000230 92 8b 0a 3e fc d6 90 3e 0c eb 40 3d e0 82 4d 3e
       0.13529804 0.2828902 0.04709916 0.20069456
000240 34 46 8a 3d 09 9c 5f be 68 db 65 bd 52 7d 16 be
       0.067516714 -0.21836866 -0.056117445 -0.14696243
000250 a6 da 74 3d 1d 52 bd bd 9f 11 25 be b3 60 32 be
       0.059778832 -0.092441775 -0.16120003 -0.174197
000260 4c d3 30 be cc c2 83 3e 2a 76 d4 bc ee 76 09 3e
       -0.17268103 0.25734556 -0.025935251 0.13424274
000270 23 11 9d bd 6a e5 18 3e 78 ae 97 be be ce 71 3c
       -0.07669284 0.14931265 -0.29625297 0.014758764
000280 af 40 5f be 38 c1 73 3e 2e b1 20 be 37 5b ad 3e
       -0.21802019 0.23804176 -0.15692589 0.33858654
000290 0b 15 b7 3d d2 21 11 3e d1 ca 94 be cf ec 92 3e
       0.089395605 0.14173058 -0.29060987 0.28696296
0002a0 c7 54 f7 bd 30 ab 29 3e 17 b7 57 bd d9 5a ab 3d
       -0.12076717 0.16569209 -0.052664842 0.08366937
0002b0 b9 c1 77 3e 81 53 31 bd 74 ac 7c be d2 df 34 be
       0.24194993 -0.043292526 -0.2467516 -0.17663506
0002c0 6c 38 4b 3e 1d ae 5d 3d 1b bc 55 be a1 ab 25 3e
       0.19845742 0.054121125 -0.20872538 0.16178752
0002d0 a4 fe 22 3e 46 38 96 3e 58 21 84 3d 50 bf 15 3e
       0.1591745 0.29339808 0.06451672 0.14623761
0002e0 a6 21 73 be 71 ce 40 be 4d a4 b5 3d 48 8b 94 bd
       -0.23743305 -0.18828751 0.088692285 -0.07253128
0002f0 cb 24 99 bd bd ce 71 bd 02 80 f6 bd 4e d2 7d 3e
       -0.07477721 -0.05903505 -0.12036134 0.24787256

conv.convs.1.bias f4 [64]
000000 bb b2 23 bc b4 dc 20 3c d8 cf bc bb 75 da d4 3c
       -0.009991343 0.009818245 -0.0057620816 0.025983075
000010 c0 39 65 3c e0 b8 23 3c 13 10 d5 bc 1c fc 82 bc
       0.013990819 0.009992808 -0.026008641 -0.015989356
000020 2e fa 02 3c 86 29 b4 3c ac 3b e5 3c e3 53 88 3b
       0.007994218 0.021992456 0.027982555 0.0041603907
000030 6d 7c f5 bc b2 37 65 3c 0b 9d f5 3c 2a f5 e4 bc
       -0.029966557 0.01399033 0.02998211 -0.027948935
000040 af a3 84 bb 86 88 03 bb 70 80 c4 3c 4f ff 02 3c
       -0.004047833 -0.0020070388 0.023987025 0.007995441
000050 52 9b f5 bc 72 b9 0b bd 9c 77 c4 3b 76 77 13 bd
       -0.029981289 -0.0341124 0.005995704 -0.0360026
000060 0a 39 65 3c db e3 02 bc 5c 77 44 3c b7 1c b4 3c
       0.01399065 -0.007988895 0.011991348 0.021986349
000070 8b a5 63 bd 86 1a b0 bc 36 14 e7 bc 8c 64 a3 bc
       -0.055577796 -0.021497022 -0.02820788 -0.019945405
000080 fa 2f 65 bc 33 db d4 3c 71 fe 02 3d f9 fc b3 bc
       -0.013988489 0.025983429 0.031980935 -0.021971213
000090 78 fb 02 3c d5 22 b0 bc ff bc 23 bc 59 e1 d4 3c
       0.007994525 -0.021500984 -0.009993791 0.02598636
0000a0 b2 3b e5 3c 17 ea 22 3c 37 7c 44 3c e9 3b f4 3c
       0.027982567 0.009943507 0.011992506 0.029813724
0000b0 19 a0 b3 bc c3 01 03 3c 00 9f 65 3c 81 71 a3 3c
       -0.021926926 0.0079960255 0.014014959 0.019951584
0000c0 c8 d7 1b 3c c8 63 23 bd ac fe 02 3d 62 4a c4 3b
       0.0095118955 -0.03989008 0.031981155 0.0059903124
0000d0 f9 9a f5 3c ec 99 f5 3c 0a b7 f4 bc ea d5 23 3d
       0.029981123 0.029980622 -0.029872436 0.039998926
0000e0 65 19 b4 3c c4 39 65 3c cb 39 65 3c 52 38 37 bc
       0.021984765 0.013990823 0.01399083 -0.011182861
0000f0 94 37 65 3c 7a 20 03 bb 60 ec 02 3c 54 1d b4 3c
       0.013990302 -0.0020008371 0.0079909265 0.021986641

conv.convs.1.lin.weight f4 [64, 64]
000000 c9 42 c7 bc 73 27 42 3e 9e 9e fa bc 96 38 0b be
       -0.024323838 0.18960361 -0.030593213 -0.13595805
000010 f1 5b eb bd be e6 35 3e c7 c4 39 be 4b 8c b3 bd
       -0.11492146 0.17763802 -0.18141471 -0.08766993
000020 45 07 cd 3c 94 46 9d bd 13 03 d7 3c f6 94 43 be
       0.02502788 -0.07679477 0.026246583 -0.19099793
000030 0a 4a e1 bc 8c 57 b7 3d ce 98 4c 3e 4a ec ae bd
       -0.027501125 0.08952245 0.19980165 -0.08541162
000040 28 f4 f7 3d 70 4c d1 3c 2e 78 68 3e 23 0a 79 bd
       0.12107116 0.025549144 0.22702095 -0.060800683
000050 0a 59 33 be c3 4f 80 bd 47 24 dc 3d 27 2d ba bc
       -0.17514434 -0.06265213 0.10749107 -0.022726608
000060 3f ae 34 be 62 b0 17 3e 56 3d dc bd da ca 17 3d
       -0.17644595 0.14813378 -0.107538864 0.03705869
000070 13 8c 07 bd e9 1a f9 3d b9 81 8d bd cb 56 0f 3e
       -0.03309257 0.12163336 -0.06909508 0.13997953
000080 57 8b 5d 3e 3d 9c 93 3d 5e f6 49 be 97 3e 21 3e
       0.21635185 0.072075345 -0.19722888 0.15746532
000090 02 bd b4 3d f7 51 ac 3d 37 e8 58 3e d3 4c 8a bd
       0.08825113 0.08414071 0.21182333 -0.06752934
0000a0 1f af f4 bd 5e 05 11 3d a0 4e da 3d 6d 1b e9 bc
       -0.11947464 0.03540551 0.10659528 -0.02845546
0000b0 22 7a f6 3b d6 0a 01 be 0f 88 a3 3d 75 db 1f 3e
       0.0075218836 -0.1260179 0.079849355 0.1561106
0000c0 e5 a5 86 bb 7d 6a e9 3d 17 3c a9 bd f0 de 83 bc
       -0.0041091316 0.11397264 -0.08263414 -0.016097516
0000d0 a7 0a 2b 3e 10 d3 52 bd bf d3 64 be b0 5b 05 be
       0.16703282 -0.051470816 -0.223464 -0.13023257
0000e0 3a 16 b0 3c dc 0a 21 bd 85 2f ab 3b ed ad 53 3c
       0.021494973 -0.039316997 0.0052241706 0.012919885
0000f0 b9 da 9a 3d 23 98 9f bc 65 4f 4d be d9 f7 7f 3d
       0.07561249 -0.019481724 -0.20049818 0.062492225
000100 8a c9 82 3c e0 b5 50 be 57 e9 59 be 56 aa 3d 3e
       0.015965242 -0.2038188 -0.21280418 0.18522009
000110 10 f4 11 be 35 ac 1a 3e ef 3e 2b be 97 bc b9 bd
       -0.14253259 0.15104754 -0.16723226 -0.09069174
000120 7e 13 c3 bd 14 4a cc 3d 69 81 4b 3e de 33 14 bd
       -0.09525202 0.09975067 0.19873585 -0.036182277
000130 2b 62 f7 3d 61 36 a7 bd 87 ae 0f 3e 8b 22 24 be
       0.12079271 -0.08164669 0.1403142 -0.16028802
000140 f7 6a 30 3e 3f 45 dd 3d e8 6d 05 3e b2 b8 73 bd
       0.17228304 0.10804223 0.13030207 -0.05950231
000150 0c 5d 35 3e 88 c9 5f 39 e6 5b 16 3e ae 0c 15 bc
       0.17711276 0.00021342013 0.14683494 -0.009097261
000160 90 29 e6 3c bb d3 64 3e ed 1b 5e be 21 17 df bd
       0.02809599 0.22346394 -0.2169034 -0.10893083
000170 e9 34 09 bc cc 75 fe bd 2f 55 23 bc 4c ee be bc
       -0.008374431 -0.12424812 -0.00996904 -0.023306988
000180 09 1d 01 3e d0 c9 35 be d0 c9 11 be 97 25 03 bb
       0.12608732 -0.17752767 -0.14237142 -0.002001142
000190 77 e9 0f be cb 6d ba 3d 79 62 eb bd 03 74 05 be
       -0.14053904 0.091029726 -0.114933915 -0.13032536
0001a0 0c 25 40 be 7a a7 1c bd 24 5c f1 3d 87 b1 1b 3e
       -0.18764132 -0.038245656 0.117851526 0.1520444
0001b0 2c e2 44 bc d2 78 33 be 55 90 05 be 1c e3 39 3e
       -0.012016814 -0.17526558 -0.1304334 0.18153042
0001c0 35 3a 8e bd 93 42 ea 3d 5a ad 1f be 5c d5 6a be
       -0.06944696 0.11438479 -0.15593472 -0.22932953
0001d0 54 6e 10 be dc d6 a3 3c a6 a3 11 be 5f 01 1c 3e
       -0.14104587 0.019999914 -0.14222583 0.15234898
0001e0 cd 3f c2 3b 44 77 62 3e 42 c3 37 be d0 bc 62 3c
       0.005928016 0.22115809 -0.17945579 0.013838962
0001f0 09 95 28 be c8 bc c5 bd 00 03 3c be 29 f9 9d bd
       -0.16463102 -0.09655148 -0.1836052 -0.07713539
000200 02 ec 56 3e 53 cb 2d 3e db af 70 be f3 2d 88 3c
       0.20988467 0.16972093 -0.23504584 0.016623473
000210 df a7 e0 bb 20 2e 02 3e 63 94 05 3e f9 52 a8 3d
       -0.0068559493 0.12712908 0.13044886 0.08218951
000220 57 a5 26 3e 58 97 9e 3d f1 d1 dd 3c bd 98 cb bc
       0.1627401 0.0774371 0.027077647 -0.024853105
000230 69 e7 bf 3d ad c2 d5 3d 7c e9 7d bc ff 41 05 be
       0.0937031 0.10437522 -0.015497562 -0.13013457
000240 77 02 02 be 1a 24 eb bd 32 9e 30 3e c4 d9 9e bd
       -0.12696253 -0.11481495 0.17247847 -0.07756379
000250 db 14 fe bd a9 fc 32 bd 92 dc 8c 3d 55 9c ef bd
       -0.124063216 -0.043697987 0.06878008 -0.1169974
000260 ac 8f 41 bd 2a df a1 bd 43 07 7a 3d 36 cf a0 3d
       -0.047256157 -0.07903893 0.06104208 0.07852022
000270 5c d8 0b 3e 8a e3 d1 bd c4 c0 0b 3e 22 92 36 bd
       0.13656753 -0.10248478 0.13647753 -0.044572957
000280 72 29 1b 3c db 84 87 3d ea 43 09 3e f8 ab 66 be
       0.009470331 0.06617137 0.13404813 -0.22526538
000290 39 fd f3 bd 74 0a 60 bc 59 d5 99 3a 0a bf f8 bd
       -0.11913533 -0.013674367 0.0011736556 -0.12145813
0002a0 10 ce 7c bd 9e a4 47 be e8 bc d4 3c d6 2c 54 be
       -0.061719954 -0.1949639 0.025968984 -0.20720229
0002b0 17 53 53 3e fe 5b d5 3d fb 51 d7 3d 6c 30 82 3d
       0.20637165 0.10417937 0.105136834 0.06356892
0002c0 d0 6d a7 3d ad c7 1c 3e a3 36 b7 3d fc 24 1c bd
       0.08175242 0.15310545 0.08945968 -0.03812121
0002d0 28 a5 37 bd 09 01 3e 3e 99 26 69 bc 92 be 28 3c
       -0.04483524 0.18555082 -0.014230394 0.010299342
0002e0 13 1a 4c 3e 59 2f 2b be 2c 5f ed 3d 3f c7 eb 3d
       0.19931822 -0.1671728 0.11590418 0.115126126
0002f0 04 ff a3 bd 45 d0 e7 bd da 7b 62 3d d0 98 0d be
       -0.08007625 -0.11319021 0.055293895 -0.13827825
000300 20 31 43 3e 9d 14 5a 3e 90 56 74 be 8e 76 55 be
       0.19061708 0.21296926 -0.23861146 -0.20846006
000310 eb e9 38 3e 29 c5 92 3d f0 f0 bc 3d f7 65 fc bd
       0.18057983 0.071665116 0.09225643 -0.12324136
000320 48 4e 0d bd 73 13 82 3c a3 c1 ad bc 12 ef cd bd
       -0.034498483 0.015878415 -0.021210497 -0.10055365
000330 1d cd f1 3d 93 66 2d bd b4 4f 37 bd 13 2c ab 3c
       0.118067004 -0.04233415 -0.044753745 0.02089504
000340 61 a3 46 3d b0 48 6a bd 8b f4 2d be 36 81 2c 3e
       0.048495654 -0.057198226 -0.16987817 0.16846165
000350 bb 3c 1a 3e af ab e5 bd b1 95 d2 3d ae f2 4f 3e
       0.1506223 -0.11214387 0.102824576 0.20307419
000360 3a 4d 53 be 11 16 c1 3b b2 c8 78 3e b8 c6 16 3c
       -0.20634928 0.005892523 0.24295309 0.009202652
000370 3e 3d 00 3c b2 e4 87 3d df 94 d0 bd b3 34 c8 bd
       0.007827101 0.06635417 -0.10184645 -0.097756766
000380 05 32 0d be 6d f3 44 3e df d2 f4 bc bd a0 14 be
       -0.13788612 0.19233485 -0.029885707 -0.14514442
000390 94 ec 8c bd 73 58 17 3e 15 68 30 be 58 bc bb 3b
       -0.06881061 0.14779834 -0.17227204 0.0057292394
0003a0 82 bf 79 bd 09 85 63 bd a2 0d 2d 3e 6e 91 07 3e
       -0.06097365 -0.055546794 0.16899732 0.13239071
0003b0 d1 f7 4b 3e c1 ae 2e be 47 b5 17 3e 1d 63 01 3d
       0.19918753 -0.17058851 0.14815246 0.031588662
0003c0 da 3f 53 be 18 db 28 bd 31 34 db 3d 79 ec e3 3d
       -0.20629826 -0.04122457 0.10703314 0.11129088
0003d0 32 9e 8b 3b a7 90 01 3d 46 0c 5c 3e b6 42 98 bd
       0.0042608017 0.03163209 0.21489057 -0.07434599
0003e0 57 ce 38 be a4 2a a8 bd a7 5a 14 3e c0 7d 21 3e
       -0.18047462 -0.08211258 0.14487706 0.15770626
0003f0 d4 ba ae 3d dd fb 89 3d db 5e 8c 3d 84 5e 3e 3e
       0.085317284 0.06737492 0.0685403 0.18590742

conv.convs.2.bias f4 [64]
000000 13 87 44 bc 44 9a 1b 3d 8a 06 03 3c 16 c7 23 bc
       -0.011995095 0.037988916 0.0079971645 -0.009996196
000010 89 ff 82 3c 70 e9 23 bc 9d 3d 0b bd 9f 5a 93 bc
       0.01599099 -0.010004386 -0.033994306 -0.017987547
000020 88 06 03 3c 22 b9 f5 3c 5f 18 b4 bc 37 5c 93 bc
       0.007997163 0.029995505 -0.021984277 -0.017988307
000030 ae 91 c4 bc 56 bb 23 3c 58 49 65 bc c8 5b 93 3c
       -0.023995247 0.009993395 -0.013994537 0.0179881
000040 40 c7 23 bc 02 08 03 3d 01 5a 44 bc d7 00 83 bc
       -0.009996235 0.03199006 -0.011984349 -0.015991611
000050 c5 5b 93 3c 63 82 c4 3c cb 50 44 bc c0 bc 23 3c
       0.017988095 0.023987954 -0.011982153 0.009993732
000060 b5 4c 23 bc 96 05 03 3c e7 1a b4 bc 0c 78 c4 3c
       -0.009967019 0.007996937 -0.021985484 0.023983024
000070 50 01 03 3d 9e bd 23 3c 70 41 65 3c 34 88 44 bc
       0.031983674 0.009993939 0.013992652 -0.011995364
000080 20 87 44 3c d6 0a 03 3d 89 97 44 bc 9c 82 c4 bb
       0.011995107 0.031992756 -0.011999019 -0.005997015
000090 1f 3f 65 3c 6c 1a b4 3c 25 8a 44 3c d3 5d 93 bc
       0.0139921 0.021985255 0.011995827 -0.017989075
0000a0 a3 77 65 bc 74 ba 23 3c ec e7 63 bc 74 1b b4 3c
       -0.014005574 0.009993184 -0.013910275 0.021985747
0000b0 b6 c6 23 3c a9 c7 23 bc dd 1b b4 bc f2 ba 23 bc
       0.009996107 -0.009996333 -0.021985942 -0.009993302
0000c0 ce b7 23 3c 82 1a 03 bb 26 bb a3 bc 98 28 02 3b
       0.009992553 -0.0020004814 -0.0199867 0.0019860622
0000d0 c3 0c 03 bd 8a 79 44 3c c1 7f d4 bc 3e 1d b4 bc
       -0.031994592 0.011991868 -0.025939824 -0.0219866
0000e0 1b 07 03 3c 93 f7 d4 bc f1 c4 a3 bc 7a 87 44 3c
       0.0079973 -0.025996959 -0.01999137 0.011995191
0000f0 6e 39 c4 bb 53 7d 44 bc 17 47 00 bb c1 ae f5 3c
       -0.0059882915 -0.01199277 -0.0019573623 0.029990556

conv.convs.2.lin.weight f4 [64, 64]
000000 f2 11 28 3e c8 b0 38 3d 09 16 44 bd 28 66 2e bd
       0.16413096 0.045090467 -0.047872577 -0.042577893
000010 37 d0 da 3d 34 1e 98 bb 25 78 15 be 0b c1 82 be
       0.10684245 -0.0046422724 -0.14596613 -0.25537905
000020 73 dc e1 3b c8 ca 25 bd fd ca 29 3e be 46 38 be
       0.0068927347 -0.04047659 0.1658134 -0.17995736
000030 67 6c 2c be 18 95 56 be ea 66 6c 3e 1a d0 54 be
       -0.16838227 -0.20955312 0.23086134 -0.2078251
000040 d1 29 1b be 20 33 b1 bd 1f 94 a3 bd a2 b0 29 3e
       -0.1515267 -0.086523294 -0.07987236 0.16571286
000050 29 25 4d be 1d 4d 4f be 93 c5 10 be fa b4 a2 bd
       -0.20033707 -0.2024426 -0.14137869 -0.07944675
000060 89 d5 1b 3e ea 4c 61 3d 59 0a 02 3d 11 a2 f4 bd
       0.15218176 0.05500499 0.03174815 -0.11944974
000070 c4 f1 ad 3d 62 e7 2c be ea 78 81 3d 4d 0b 4c be
       0.08493379 -0.1688514 0.06321891 -0.19926186
000080 9a 3e 61 3e 88 bf 61 3e 94 7d 1c 3e 09 29 7a 3d
       0.21996537 0.2204572 0.15282279 0.06107429
000090 06 a5 32 3e b5 14 b9 3c 6b 5f f5 3d 90 39 5a 3d
       0.17445764 0.022592882 0.1198109 0.053277552
0000a0 1a 01 09 be b3 30 d2 3d db 7f c0 3d ab 33 82 bd
       -0.13379326 0.10263195 0.093993865 -0.06357511
0000b0 77 f5 8b bd 0e ad 3a 3e 5b 9c 51 3e 9f 07 87 be
       -0.06833928 0.18230078 0.20469801 -0.26373002
0000c0 5e 03 fb 3d 1e 9c 3b 3b 61 0f 1a bd 40 43 28 bd
       0.122565016 0.0028626989 -0.037612323 -0.04107976
0000d0 de 18 41 3d 1c 41 88 bd 08 b6 32 bd b5 6c 16 be
       0.047142856 -0.06653044 -0.04363063 -0.14689906
0000e0 3b fc 0c be 23 be 89 3c d3 5c 94 3d 33 49 20 3e
       -0.13768093 0.016814297 0.07244267 0.15652923
0000f0 28 df 68 bd 59 6f 3a 3e 65 cd 48 be f9 a7 9a bd
       -0.056853443 0.18206538 -0.19609602 -0.075515695
000100 9c 16 34 bd 27 b4 5e be 9b 08 8d bd 13 76 8b 3d
       -0.043966874 -0.2174841 -0.06886407 0.0680963
000110 24 f4 af bd 56 3d 9b bc 6f 2d ee bd 68 1a 38 3e
       -0.08591488 -0.018950146 -0.116297595 0.17978823
000120 76 d4 1e be 72 ba 84 3c 4a c0 3a 3e 68 f5 0b 3e
       -0.15510735 0.016202185 0.18237415 0.13667834
000130 c5 db dd 3d 34 57 a7 3c 25 d0 aa bd 17 c5 28 be
       0.10832933 0.020427324 -0.08340482 -0.16481434
000140 d8 63 42 be 1c 15 ea 3c 4e 1b 3f be a9 fa 72 3e
       -0.189834 0.028574519 -0.1866276 0.23728432
000150 e7 3e f9 bd af 24 cb 3c e7 55 5f bc 95 96 16 bc
       -0.12170201 0.024797766 -0.013631321 -0.009191175
000160 b0 02 7b 3d 65 19 af bb bb 65 46 3d 7a 4d 46 be
       0.06128186 -0.0053436034 0.04843686 -0.19365492
000170 01 c9 a8 bb ed 6d 29 3e b2 44 b6 3c 4c a1 1e be
       -0.0051509147 0.1654584 0.022249553 -0.15491217
000180 4a 7f 40 bd 8a be c0 bc e5 58 aa 3d 7a bf 01 bc
       -0.046996392 -0.023528356 0.083177365 -0.007919187
000190 94 1c 58 bd cd d3 d2 bd f8 a9 88 bc 8e d5 65 3e
       -0.05276163 -0.10294304 -0.01668261 0.22444746
0001a0 f0 9b cd bd d8 47 9f bd 6f 27 22 be 12 91 05 3d
       -0.10039508 -0.07777375 -0.15835355 0.032609053
0001b0 36 53 1b be 11 5f d1 3c 12 1f 01 3d 4b e7 b9 bd
       -0.15168461 0.025558027 0.03152377 -0.09077319
0001c0 9e 29 c6 bd 66 5b ec bc 37 f3 95 bd f2 c9 65 3e
       -0.096759066 -0.028852176 -0.0732178 0.22440317
0001d0 3c 8a 31 be 94 07 dd bd 5f ec 3c 3d 22 51 4f be
       -0.17337888 -0.10792461 0.04612386 -0.20245793
0001e0 e8 ac 82 3e eb 03 e6 3d 0b 57 7e bd c1 13 98 bd
       0.25522542 0.11231216 -0.06209473 -0.07425643
0001f0 71 68 57 bc 2d 80 e3 bd 7e 02 0c 3e ed 39 2c bd
       -0.013147459 -0.11108432 0.13672826 -0.04204743
000200 d7 e6 9c bd 8f 19 2a 3e f6 4c 86 be d3 aa 99 3d
       -0.07661217 0.16611312 -0.26230592 0.07503285
000210 b8 99 89 3d b8 b3 35 3d 27 b1 66 3e 73 71 77 3d
       0.06718773 0.044360846 0.22528516 0.060410928
000220 0e 20 49 3e c6 72 35 3e bd a2 b1 3d fc ee 77 3e
       0.19641134 0.17719564 0.08673618 0.24212259
000230 df 2c 98 bc 86 c1 78 3d 26 a6 07 be 6b 86 1c be
       -0.018576084 0.060731433 -0.13246974 -0.15285651
000240 37 81 17 3e 5c 09 69 3e a8 99 50 3e 57 1e 43 be
       0.14795385 0.22757477 0.20371115 -0.19054542
000250 d2 04 ca 3d 49 fc 60 3e 16 8c c9 3d 43 23 82 3d
       0.09864201 0.21971239 0.098411724 0.06354382
000260 02 9f 93 bd dd f0 93 3d 32 36 7c be 6a e6 64 be
       -0.07208063 0.072236754 -0.24630049 -0.22353521
000270 7f 22 6b 3e f5 97 26 3e 9a 0f 2a 3e c4 29 18 3b
       0.22962378 0.16268905 0.16607514 0.0023218254
000280 4d a0 29 be 74 a8 02 be 2c 1c 3e be 04 4f 6c 3c
       -0.16565056 -0.12759572 -0.18565434 0.014423136
000290 82 df 09 3e d4 53 75 bd a5 66 c8 bc 1b 23 84 3c
       0.13464168 -0.059894398 -0.024463007 0.01613002
0002a0 16 5a b8 3d a5 f8 ab bd e1 df 3d 3e 36 ce 58 3e
       0.090015575 -0.083970346 0.18542434 0.21172413
0002b0 02 c8 00 3e b8 a1 06 3e 55 fe 36 bd da 30 7c 3e
       0.12576297 0.13147628 -0.044676144 0.2462801
0002c0 cb 87 65 3a ba 10 f0 3d d6 52 17 3e a2 cb db 3d
       0.00087558915 0.1172194 0.14777693 0.10732199
0002d0 72 b7 c6 39 db bc 10 bc ed ee 48 3e af f7 fb bc
       0.0003790218 -0.008834089 0.19622393 -0.030757753
0002e0 ae 73 31 3e 9d 06 45 be ca 4d 3a 3e b7 7d cf 3c
       0.17329285 -0.19240804 0.18193737 0.0253285
0002f0 09 60 c7 bc 92 b2 68 3e 92 3d 03 bd 1d f5 cc 3d
       -0.024337785 0.22724369 -0.03204114 0.10007689
000300 58 57 a9 bd cc 00 6f 3e ec a4 2b 3a 9e bd dc bc
       -0.082686126 0.23340148 0.00065477076 -0.026945885
000310 34 9d a7 3b a0 de 40 be f8 1d d2 3c cd e6 d2 3b
       0.0051151756 -0.18834925 0.025649056 0.006436205
000320 f3 79 0e be f3 40 ce bd 7d 98 e3 3d ac 76 7d bd
       -0.13913707 -0.10070982 0.11113069 -0.061880752
000330 11 88 45 be 16 70 34 3e b4 af e7 3b 03 90 7b 3d
       -0.19290186 0.17620882 0.007070506 0.061416637
000340 3c 97 22 be 42 49 ad 3d 80 4d 05 3e 6b 85 02 3e
       -0.15878004 0.084612384 0.13017845 0.12746207
000350 64 96 22 bd d4 09 a5 bd 41 1a 81 be 1c 20 2d 3e
       -0.039694205 -0.08058515 -0.25215343 0.1690678
000360 49 5d 33 be 2a 58 36 3a 15 e1 7e 3d 4f fa 80 bd
       -0.17516054 0.00069558865 0.062226374 -0.062977426
000370 45 e8 22 3e 41 66 48 bc e0 a5 c5 ba f4 b9 b3 bd
       0.15908916 -0.0122314105 -0.0015079342 -0.08775702
000380 b8 8e 01 3e a8 7c 18 bd 41 5d 3d 3e 50 39 37 be
       0.12652099 -0.037228256 0.18492605 -0.17892957
000390 6c 8f fa bc 47 bb 73 3d 49 47 ca 3d 48 07 7b be
       -0.030585967 0.059504773 0.09876878 -0.24514496
0003a0 15 0e 34 3e 09 2a 99 bd f9 54 42 3e 6c b9 28 be
       0.17583497 -0.07478721 0.18977727 -0.16476983
0003b0 e3 f7 5e be d3 02 82 3d ad cf 54 3e 8f c7 0c 3e
       -0.21774249 0.06348195 0.20782347 0.13748
0003c0 c2 20 a7 3d c1 f6 e8 3c 94 50 63 3e 23 ed 65 3c
       0.08160545 0.028437974 0.22198707 0.014033589
0003d0 d4 82 59 3e eb 6d 6c 3e 6a 77 16 be 39 e3 61 3c
       0.21241313 0.23088805 -0.1469399 0.013787084
0003e0 9d 17 81 bd 44 77 c1 3d c2 0f ae bd 56 47 08 bd
       -0.06303332 0.09446576 -0.08499099 -0.033271156
0003f0 d4 dc 72 be 08 dd 5a be 36 a4 c4 bd 41 83 28 bd
       -0.23717052 -0.21373379 -0.09601633 -0.0411408

lin.weight f4 [64, 128]
000000 b9 e2 2d bd 48 ef dc bc c3 03 27 bd 2c 81 80 3b
       -0.042452548 -0.026969567 -0.04077507 0.0039216485
000010 0b ce d5 bc 07 ef 7e bd 1e eb 04 3d b1 71 93 bc
       -0.026099226 -0.062239673 0.032450788 -0.017998548
000020 11 5d b2 3d 5d a3 a4 3b 2e 71 0f bd 99 1b 96 bd
       0.08709157 0.0050243572 -0.035020046 -0.073294826
000030 45 0e c7 3c 6c 1b 24 bd 5e ee 8e bd 56 90 f0 bc
       0.024298796 -0.040065214 -0.06979059 -0.0293657
000040 ce 59 19 3d bf 88 7d 3d f3 b8 f5 3c 3e b4 6c bd
       0.03743916 0.06189799 0.029995417 -0.05778908
000050 13 90 fc bb 56 8e b1 3d 20 32 55 bc 10 5f 78 3d
       -0.0077076047 0.086697266 -0.013012439 0.060637534
000060 36 90 21 bd 55 04 5d bd 64 3e a4 3d 18 fd a2 3d
       -0.03944417 -0.05395921 0.080197126 0.0795843
000070 1b 04 83 3d 3c 2d a4 bc e2 d3 38 3d d0 42 92 3d
       0.063972674 -0.0200411 0.045123942 0.0714165
000080 c0 62 55 bd 99 b0 b5 bc 78 16 4b 3c 79 64 31 3c
       -0.05209613 -0.022178935 0.012395494 0.010827177
000090 e1 8f a7 bd d6 2d 81 3d c1 c0 82 3d 35 29 14 ba
       -0.081817396 0.06307571 0.06384421 -0.0005651892
0000a0 75 49 a3 3c 41 90 7c bd c1 70 47 3d 02 85 f7 3c
       0.019932488 -0.06166101 0.048691515 0.03021479
0000b0 00 dc fc 3c 00 63 43 bd 48 01 db 3c f1 d3 ae 3d
       0.030866623 -0.047701836 0.02673401 0.08536518
0000c0 80 cc 65 bc ca fa a0 3d 95 30 81 bd e1 4d 9a 3c
       -0.014025807 0.07860334 -0.063080944 0.018835964
0000d0 ac e9 40 bd 92 62 97 bd 9f 83 88 bd 28 76 1f bb
       -0.047097847 -0.07391848 -0.0666573 -0.0024331901
0000e0 2b 51 10 3d 17 5f 38 bd 28 51 9c 3d 75 ec 8f 3d
       0.035233658 -0.04501256 0.07632667 0.070275225
0000f0 97 4e af bd 21 04 fd bc 7e 2c 80 3c c3 51 93 3c
       -0.08559912 -0.030885758 0.015646216 0.017983323
000100 6c 99 f4 bc df 65 bd bc e6 d9 8d 3d 5e df 89 3c
       -0.029858314 -0.023119865 0.069263265 0.016830143
000110 3a 70 75 bd 0d c8 66 3d bb fa 6f bd e2 64 83 bd
       -0.05992148 0.056343127 -0.058588725 -0.06415726
000120 d2 6d 96 3d d6 f1 77 bd 38 c8 a7 3d 44 ea 3d bd
       0.07345165 -0.060533367 0.081924856 -0.04636599
000130 75 44 5b 3d b2 ee 30 bd ae 76 53 ba 3e e2 50 39
       0.053532083 -0.043196388 -0.0008066696 0.00019920708
000140 e5 0c a8 3d e1 2f 75 3c d4 f2 0c 3d 34 b8 9b bd
       0.082055844 0.0149650285 0.034411266 -0.07603493
000150 53 b3 93 bd d7 59 19 bd 8b 2f e9 3b 12 18 d5 bc
       -0.07211938 -0.037439194 0.0071162633 -0.026012454
000160 8c 60 19 bd a4 74 7e 3d d8 ed 95 bb 7e e3 85 3d
       -0.03744559 0.062122956 -0.0045754723 0.06537531
000170 f0 63 67 bd c6 cc 1e bd 9c 3e 51 3c a0 53 82 bd
       -0.056491792 -0.038769506 0.012771275 -0.063636065
000180 ab 8f 82 3d ff ba b0 3d 09 6c 1d 3d 87 45 40 bd
       0.06375059 0.08629417 0.03843311 -0.046941306
000190 fa 1b bd bc 7f 52 b8 bc d0 64 81 bc ca 03 05 bc
       -0.02308463 -0.022500275 -0.015795141 -0.008118579
0001a0 4b 8b 54 3c e7 eb 9e 3d 3d 34 bd 3c a5 30 70 3d
       0.012972663 0.077598386 0.023096198 0.05864014
0001b0 a5 dd b3 bb 92 b8 90 3d f4 29 30 bd b9 2b ad bd
       -0.0054890686 0.07066454 -0.04300876 -0.08455605
0001c0 20 f3 91 bc 92 07 99 3d 6b 10 5b 3c 1d 65 ec bc
       -0.017816126 0.07472147 0.013370614 -0.028856808
0001d0 b3 87 61 bd e5 31 57 3c 27 39 a1 3d bd 02 98 bc
       -0.055061053 0.013134454 0.07872229 -0.018555993
0001e0 ea a0 da 3b 5d 96 88 3d cb 9e 81 bd fc 15 83 bc
       0.0066720145 0.066693045 -0.063291155 -0.016001694
0001f0 06 c7 36 bc 6b 25 af bc 7c a5 8a 3d c5 d0 57 3d
       -0.011155849 -0.021380147 0.06769845 0.052689333
000200 70 b3 b3 bd c0 5e ad 3c eb dc 7e bd 16 88 13 bd
       -0.08774459 0.021163344 -0.062222403 -0.036018454
000210 10 c5 52 bd e6 93 2a bd 00 b6 27 bd 45 bf 18 bd
       -0.051457465 -0.041644953 -0.040945053 -0.037291784
000220 3c ac b4 3d 92 f2 61 bc 1c e5 14 3d 39 71 4f 3c
       0.088219136 -0.013790743 0.03635131 0.012661272
000230 18 9e 8a bd 98 9c bf bc 25 d2 74 3d aa 23 8d 3d
       -0.06768435 -0.0233901 0.059770722 0.06891568
000240 47 1c 54 3d d2 68 3f bd cc b0 03 3d 1b 5a 32 3c
       0.05178478 -0.046730824 0.03215103 0.010885741
000250 15 e3 91 bc 00 a1 82 bc e0 a8 dd bb df 0d a7 bd
       -0.017808476 -0.015945911 -0.0067645162 -0.081569426
000260 8d e8 52 bd 84 c5 b3 3d 1a c9 f5 bb 24 d8 1e 3d
       -0.05149131 0.087779075 -0.00750078 0.038780347
000270 88 c9 53 3d 00 f2 e0 bc bf e3 08 3d 5a 4b ca 3b
       0.051705867 -0.027459145 0.03342032 0.0061735334
000280 bb 16 45 bd fb 3d 70 bc 46 1e 46 bd 7f 4a 1a bc
       -0.04811738 -0.014663215 -0.048368715 -0.009417175
000290 fb d4 2b bc a9 22 84 bd ab 30 6a bc a6 ba 4b bc
       -0.01048779 -0.064519234 -0.01429383 -0.012434637
0002a0 ed ec e3 bc a8 f3 7a 3c c5 1d 90 3d b6 48 cc bc
       -0.027822936 0.015316881 0.07036928 -0.024937015
0002b0 31 43 a5 3d 32 84 70 bd 39 08 32 bd ae a9 ae 3d
       0.08069456 -0.05871982 -0.043464873 0.085284576
0002c0 08 f4 85 3d 42 bc 76 bc 0d 9b 14 3c 20 ba 8e 3d
       0.06540686 -0.015059533 0.00907017 0.06969094
0002d0 91 e5 09 bd ab 23 81 bd d7 6c bb 3c 45 c1 85 3d
       -0.033666197 -0.06305631 0.022879047 0.06531004
0002e0 21 aa 32 3d 58 3f bb bc a1 13 01 bb ce a6 58 3c
       0.04361928 -0.022857353 -0.0019695538 0.013223363
0002f0 ad 79 33 3a 4b 74 d3 3c 34 0a 36 bd 5d 87 96 3d
       0.0006846439 0.025812289 -0.044443324 0.07350037
000300 01 65 5b 3d 82 f2 b2 3d cc df 33 bd 9f 80 89 3d
       0.05356312 0.08737661 -0.0439146 0.06713986
000310 33 e0 67 b9 63 29 8a 3d 27 84 a6 bd bd a6 08 3d
       -0.00022113397 0.06746175 -0.08130675 0.03336214
000320 3e f7 e8 3b f0 47 4c 3c 43 fb a6 3d a6 7c 59 bd
       0.0071095517 0.012468323 0.08153393 -0.05309739
000330 09 aa 53 bc dc 9e 6b 3c b7 89 a3 3c 61 78 88 bb
       -0.0129189575 0.014381137 0.019963128 -0.004164741
000340 6a 65 a5 bd 55 9a b4 3d 3f 5c 7c bd 9c 04 ab 3d
       -0.08075984 0.08818499 -0.06161141 0.083504885
000350 ab 2e 9f 3d 4a 25 31 bd 85 5a 72 bd 03 f3 89 bd
       0.07772573 -0.043248452 -0.059168357 -0.06735804
000360 f7 40 9a 3d 98 ed 38 3d 71 a4 8d bd 7f e8 99 bd
       0.07531922 0.045148462 -0.0691613 -0.07515048
000370 66 a0 a9 3c 70 bd 31 bd 59 56 8d bd a6 4b 84 bd
       0.020706367 -0.043393552 -0.06901235 -0.06459741
000380 56 c4 99 bd dc 4a 8f 3d 41 2b 59 3c 0c 9b 1d 3d
       -0.07508151 0.069967 0.013254941 0.038477942
000390 cf cd 7d bd 38 3e 5c 3b 26 44 a5 bd c6 c1 0a bc
       -0.061963852 0.0033606421 -0.08069639 -0.008469051
0003a0 d6 a4 b2 b9 94 35 6d 3d 00 eb 09 bd a2 53 1f 3d
       -0.00034073618 0.057912424 -0.03367138 0.038898118
0003b0 b0 14 b8 3c 2c 2c e3 bc cf a3 17 bc 28 58 80 3b
       0.022470802 -0.027731024 -0.009255364 0.003916759
0003c0 7b c1 0b 3d aa 58 61 bd c1 79 2d bc fa cb 1c 3d
       0.034120064 -0.055016197 -0.01058811 0.038280465
0003d0 e4 b6 b1 bd 25 fa 8f bd a9 37 31 bd c6 d0 a2 bd
       -0.08677462 -0.07030133 -0.043265972 -0.079499766
0003e0 a1 c8 8e 3d 40 2f 8f bd ee f3 4e bc 61 84 36 3d
       0.06971861 -0.06991434 -0.0126314 0.04455984
0003f0 9f 49 5e bd 17 72 78 3c 6f 78 0c bd eb 10 5a bd
       -0.05426943 0.01516392 -0.034294542 -0.05323879

lin.bias f4 [64]
000000 dd 07 87 3c 51 bd 91 bd f6 5d 82 3c 57 1f a3 bc
       0.016483242 -0.07116187 0.015913945 -0.019912405
000010 c7 0c 8e 3c 65 1a 4a 3d 90 0e df 3c 24 c2 83 3c
       0.017340077 0.049341578 0.027228624 0.016083784
000020 21 a5 af bd e1 16 55 3d 15 7d 84 3b 23 47 96 3d
       -0.08576418 0.052023772 0.0040432313 0.07337787
000030 df b0 b8 3c 38 04 d7 bc c1 54 61 3d 68 e9 82 3d
       0.022545276 -0.026247129 0.05501247 0.06392175
000040 1b ce 89 bd 80 6e 9a bd f4 fd 2a 3d 43 3d 48 bd
       -0.067287646 -0.075406075 0.041746095 -0.04888655
000050 c3 7b 42 3d 1b c1 df 3c 6f f4 8e bd b9 7a 3c 3d
       0.04748131 0.02731376 -0.06980216 0.046015475
000060 37 07 33 3d b9 94 6a 3c db d2 12 bd a9 aa 1d bd
       0.043708052 0.014317685 -0.03584562 -0.038492832
000070 45 9a 1a bd 98 d3 f1 bc 58 9a 95 bd 28 07 a9 3c
       -0.03774478 -0.029519841 -0.07304829 0.020633295
000080 00 4a 5b 3c 1a 07 86 3d 62 11 8c bd f2 5c 45 bc
       0.013384342 0.06544323 -0.06839253 -0.012046086
000090 f6 cd 9a bd be cc 39 bd f8 d2 05 3c 0e 8e 56 3d
       -0.07558815 -0.045361273 0.008167975 0.052381568
0000a0 bb fa a1 bd fc 18 99 3c 6f 6a 8c 3c 5f e0 b1 bc
       -0.07909151 0.018688671 0.017140595 -0.021713434
0000b0 7d cd 6a bd 9b 64 92 3d cd 22 aa 3d 23 f0 82 3d
       -0.057324875 0.07148095 0.08307419 0.06393459
0000c0 6d 9a 76 bd 8c c7 05 3d 7b cd 5f 3d f5 27 8e ba
       -0.060205866 0.032661006 0.05463932 -0.0010845648
0000d0 6f 07 9a bc 94 24 85 3c b3 bc 7a bd 96 c4 e1 3c
       -0.018802373 0.016252793 -0.061215114 0.02755956
0000e0 31 f0 6c bc 79 3d 07 bd 61 58 ad 3d 76 96 41 3d
       -0.014461563 -0.03301761 0.084641226 0.04726263
0000f0 11 73 90 3d 63 a5 96 3d 0d e1 43 3c 5f ad 18 3d
       0.07053197 0.07355764 0.011955512 0.037274715

out.weight f4 [3, 64]
000000 48 ce d6 bd dd 52 1c 3d 5d f7 d0 3d 2f 13 07 be
       -0.10488564 0.038164962 0.10203431 -0.13190912
000010 94 4a 23 3d 05 e1 e8 bc 1e ce 90 bd 68 3f 38 bd
       0.039866045 -0.02842761 -0.07070564 -0.044982344
000020 70 bd 83 3d 10 53 ae 3d 6a f2 c7 bd 5c b5 95 3c
       0.06432617 0.08511937 -0.09763034 0.018274955
000030 39 0d 3e be 2a 80 e2 bd 75 b7 28 be 72 d8 25 3e
       -0.18559732 -0.110596016 -0.16476233 0.16195849
000040 18 77 02 be 5b 79 ae 3d ad 5d 67 3c 13 2c 9c bd
       -0.12740743 0.085192405 0.014121455 -0.07625594
000050 53 18 d5 3c e0 11 31 3e e7 e8 17 be bc e0 9e bd
       0.026012575 0.17291975 -0.14834939 -0.077577084
000060 b0 a8 7c bc 68 e9 0d 3e a8 c6 f7 bd 7e 77 e4 bb
       -0.015421078 0.13858569 -0.120984375 -0.0069722524
000070 dc b8 06 3e 15 12 85 3d eb 96 1d bd 4e 04 86 bd
       0.13156456 0.064975895 -0.038474005 -0.0654379
000080 fb d6 0b 3e 4a 1b 18 3e d6 8a 67 bd 95 56 00 3e
       0.13656227 0.1485416 -0.05652889 0.12533028
000090 41 20 37 bd 44 27 23 3d d8 24 01 3e 2b 3a da bd
       -0.044708494 0.03983237 0.12611711 -0.10655626
0000a0 e0 3d d8 bd fb 4a 0e be e4 78 ff 3a 51 02 98 3d
       -0.10558677 -0.1389579 0.0019490984 0.07422317
0000b0 f0 a3 c7 3d be 08 f5 bd 2c 89 e6 bb 95 08 b3 3d
       0.097480655 -0.11964558 -0.007035395 0.08741871
0000c0 60 84 fb bc 7c df a5 bc 58 fe b3 3c 42 6f 2a 3e
       -0.03070277 -0.020248167 0.021971866 0.16644004
0000d0 f4 7d da bd 88 38 98 3d 8f 23 30 be 64 7e 49 bd
       -0.10668555 0.074326575 -0.17201065 -0.0491928
0000e0 3e f9 14 3e 24 52 da bd 63 69 17 be e7 e3 cd 3d
       0.14548203 -0.10660198 -0.14786296 0.100532345
0000f0 d2 9a 39 3d 55 89 fd 3c a9 c9 a9 bc 4a 5e ee 3d
       0.045313664 0.030949274 -0.020726042 0.11639078
000100 30 42 95 3d 14 03 70 bd 03 57 56 3d 17 e2 b2 bc
       0.07288015 -0.058596686 0.052329075 -0.021836324
000110 d6 60 90 bb d8 d9 37 bd 42 ab a2 39 8d 08 fd bd
       -0.004406075 -0.044885486 0.00031026645 -0.123551466
000120 40 f8 9e 3d 40 84 bd bb 7b 18 12 be 2a aa a3 bd
       0.07762194 -0.0057835877 -0.14267151 -0.079914406
000130 a2 96 30 3e b7 c5 cc 3d 3f 10 2b 3d c3 ff 2e 3e
       0.17244962 0.099986486 0.04176354 0.17089753
000140 ce 83 0f 3c 3d f3 08 bd 4e 63 ae 3d 7d 79 05 be
       0.008759452 -0.033435095 0.085150346 -0.13034625
000150 bb 6e d5 3d ad 2f a2 bd 00 b4 95 bd be 93 0e 3e
       0.10421511 -0.0791925 -0.07309723 0.13923547
000160 9f 96 fe bd 8e 7e d5 3d 5d 0d f2 bd 05 c7 37 bd
       -0.124310724 0.10424529 -0.11818955 -0.044867534
000170 c4 b3 a3 bd aa 9e bd 3d 77 ab 8b 3c 38 35 0a 3e
       -0.07993272 0.092587784 0.017049534 0.13496864
000180 f8 61 ac bc eb 74 c0 bc df 90 0e 3e 7e 8f 56 bd
       -0.021042809 -0.02349325 0.13922451 -0.05238294
000190 38 be 0e 3d 40 c8 97 3d 6f 56 16 bd 91 4b c3 bd
       0.034849375 0.074112415 -0.036703523 -0.095358975
0001a0 52 a9 ee 3d 90 03 08 3e 74 0b 80 3d 4f d9 1d 3e
       0.11653389 0.13282609 0.062521845 0.15414928
0001b0 d7 07 b6 3c 62 f4 72 3c a3 e7 17 bd a6 c8 50 bd
       0.022220535 0.014828773 -0.03708614 -0.050972603
0001c0 f5 1f 8e 3d 65 04 6d bd 18 12 fc 3b 65 2d e7 3d
       0.06939689 -0.05786552 0.0076925866 0.11287955
0001d0 78 96 8c 3b 20 df e1 3d b8 f3 45 3a 97 06 1d bd
       0.004290398 0.11028886 0.00075512705 -0.038336363
0001e0 59 37 bd 3d b9 1a 08 3d c1 98 de 3d a0 26 62 bd
       0.09239072 0.03322861 0.10868979 -0.055212617
0001f0 f6 ec f3 3c 8b 8a cd bd 3c 7d 4d 3d b5 1a a8 bc
       0.029776078 -0.100361906 0.05016826 -0.020520547
000200 db 97 21 3e a7 b6 05 bc 72 49 91 bd 34 61 bf 3d
       0.15780585 -0.0081612235 -0.07094087 0.09344712
000210 bf fe b3 bd d9 ec c4 3d 32 80 2c bd f2 67 5c 3d
       -0.08788823 0.096154876 -0.042114444 0.053810067
000220 c2 bb 42 bd 0b 0b 0c 3d e8 ec 33 3d 1c 69 df 3d
       -0.04754234 0.03419022 0.043927103 0.1090872
000230 e6 bd 30 3c 4d 0b e3 bd 48 01 57 3d 4c 53 af bc
       0.010787463 -0.1108614 0.052491456 -0.021402024
000240 61 bc 10 3e fa 1a a0 3c 9c be 9c 3d 2f 0e a9 3d
       0.14134361 0.019544113 0.07653543 0.082546584
000250 b4 6d b2 bd f2 d2 a4 bc 59 84 8b bd 88 94 c1 bd
       -0.087123305 -0.020120118 -0.06812353 -0.09452158
000260 55 93 18 bd 62 c3 f1 bd 9d d7 9a 3c ad 23 1b be
       -0.03724988 -0.118048444 0.01890164 -0.15150328
000270 b3 69 1d 3b cb c2 11 3d 24 19 8a bd bb c0 27 3e
       0.00240193 0.03558616 -0.067430764 0.16382115
000280 63 5b 91 bd 96 e9 89 3d d7 bb c8 3d ff ab 00 3e
       -0.07097509 0.06734006 0.098014526 0.12565611
000290 50 42 b9 bd 59 47 ab bd 92 d6 38 bd 84 6e 8d 3d
       -0.09045851 -0.08363218 -0.045126505 0.06905845
0002a0 0a e9 bf bc a7 be c8 bd 83 d5 20 3b d8 b7 33 be
       -0.023426551 -0.09801989 0.0024541325 -0.175506
0002b0 2e fa 00 be 1c 74 a4 3d 00 4f 1b 3e 2f f3 d8 3d
       -0.12595436 0.080299586 0.15166855 0.105932586
0002c0 1a 22 63 bc 0b 02 a8 3d da 21 25 3e b9 ae 13 3d
       -0.013863111 0.08203515 0.16126195 0.0360553
0002d0 ba 08 4a bd f7 93 94 3d 5c 4b 3c bd 0f 3c 78 3d
       -0.04932473 0.072547846 -0.045970306 0.06060415
0002e0 79 d1 64 bc d5 f0 e8 bc c8 c7 82 3d 8b ae c7 bd
       -0.013965958 -0.02843515 0.063857615 -0.09750088
0002f0 e2 18 6c 3d fd 9a c7 3d e4 55 ab bd a9 41 6e 3d
       0.057640918 0.097463585 -0.08365992 0.058168087

out.bias f4 [3]
000000 9f d7 bd bc ce 6a 45 3d c1 d0 e9 3d
       -0.023174105 0.04819756 0.1141677
