baseline_explainers/gnninterpreter/ckpts/mutag_ckpt.pt (torch, 72683 bytes, 10 tensors)

conv.convs.0.bias f4 [64]
0.0088778 -0.06549484 -0.048029233 0.030759335 -0.056244157 0.018214617 -0.022839362 -0.050364155
-0.18416731 0.18054739 0.15470165 -0.050266247 0.016926112 -0.0071320944 0.028014066 -0.029401675
-0.06583605 0.10045451 -0.07126025 0.08574854 -0.056063995 -0.029023085 0.13358411 0.009861207
0.020749222 0.3780717 0.060541447 0.039973654 0.07744298 -0.14761868 -0.1919637 0.08657722
-0.0422196 0.16084826 -0.03195451 0.10842952 -0.056150973 -0.11452717 -0.035587016 -0.15151711
0.024813391 -0.0133042745 -0.10713634 -0.111919306 -0.020571316 0.1554518 0.004224966 -0.040863752
-0.009422816 -0.008897855 -0.10640973 0.02767252 0.03567004 -0.0871391 0.06777635 0.024195904
0.052202716 0.015875116 0.095258914 0.040582504 0.2830913 -0.008045133 -0.12512152 0.22293212
00000000: 3174 113c 2922 86bd 4dba 44bd 00fb fb3c
00000010: 4660 66bd d236 953c 9d19 bbbc a54a 4ebd
00000020: 5b96 3cbe 6ae1 383e 1c6a 1e3e fbe3 4dbd
00000030: a1a8 8a3c 58b4 e9bb c17d e53c c8db f0bc
00000040: 0dd5 86bd 18bb cd3d e5f0 91bd ee9c af3d
00000050: 5ca3 65bd d2c1 edbc 46ca 083e e690 213c
00000060: 46fa a93c 9d92 c13e 4ffa 773d 6abb 233d
00000070: 6d9a 9e3d 5a29 17be 2292 44be 664f b13d
00000080: 76ee 2cbd 68b5 243e bbe2 02bd 4c10 de3d
00000090: 90fe 65bd 398d eabd b1c3 11bd 4d27 1bbe
000000a0: 7445 cb3c 2cfa 59bc 4c6a dbbd f335 e5bd
000000b0: 2d85 a8bc c22e 1f3e 9571 8a3b c060 27bd
000000c0: 2862 1abc 4fc8 11bc 58ed d9bd 7bb1 e23c
000000d0: bf1a 123d fc75 b2bd 54ce 8a3d 7d36 c63c
000000e0: 84d2 553d 880c 823c 1b17 c33d d739 263d
000000f0: 58f1 903e bccf 03bc db1f 00be 5148 643e

conv.convs.0.lin.weight f4 [64, 7]
0.008493886 -0.81843776 0.28579047 0.17195499 0.67920834 -0.13688242 0.5263846 0.0668326
0.75351673 -0.07038716 0.29069299 -1.1191814 -1.1007022 -0.27296478 0.038942788 -0.87037987
0.35956892 0.032673556 1.0643458 0.35763612 0.9550425 -0.03514887 -0.3436944 0.26122656
-0.495444 -1.1503319 -0.43079922 -0.6813697 0.23227398 0.38193583 0.09359831 0.18756232
1.5186183 -0.43448225 0.91063297 -0.046266504 -0.4938852 0.20706505 0.20382524 -0.9532874
-0.58892816 -0.24622121 -0.049664002 0.22012486 0.14560707 -0.06814905 -1.0841815 0.38218942
-0.21055609 -0.27727458 -0.05686489 -0.10996484 -0.7296452 -0.72632706 -0.50240475 -0.8430574
0.17201 -0.25704876 0.2713395 -0.024175001 -0.008393564 -0.47520202 0.005960005 -0.3382913
0.17352834 0.13311134 -0.42913878 -0.22738424 -0.660583 -0.7802849 -0.3209277 0.13688684
0.026211003 -0.95339584 -1.1845983 -0.9527829 -0.814837 -0.04546417 0.39905295 -0.48036438
-0.20925908 1.0315039 0.483407 0.91047984 0.1532987 -0.2979214 0.005342526 0.2929431
1.5177495 0.2729684 0.77742684 -0.019796446 0.4817021 -0.3463462 0.53280306 -0.076502435
-0.3203856 0.45945695 -0.033260837 -0.7729782 0.23007777 -0.3797961 -0.8727396 -0.08729158
-0.3841165 -0.0138150165 -0.19080707 -0.28803244 0.31081882 0.4198571 1.0791945 0.1508323
-0.114266045 0.2621641 0.05671048 0.0005386943 -0.91368306 -0.3479159 0.13236256 -0.12643737
0.057236042 0.10607097 -0.14861538 -0.13232452 -0.60044295 -0.17522062 0.068367094 0.666436
-0.33231306 0.36011523 -0.6108734 -0.2646823 0.6091736 -0.20070767 0.072778895 -0.007813305
-1.2140495 -0.4921502 -0.4972786 -0.7152725 0.0061332616 0.22998106 -0.3388272 0.16653301
0.6414447 0.316535 0.74640054 0.11381846 -0.3322913 -0.16349787 0.26110268 -0.27751935
0.25052235 -0.08346081 0.11119174 0.080468684 0.22700073 0.89360857 2.076698 0.29438126
1.254708 -0.13853689 -0.38965258 0.24069273 -0.64744115 -0.5990673 -0.17998715 -0.63879657
-0.020851426 0.55532914 -0.7537444 0.719122 0.554669 0.7033835 0.89385307 -0.0023040124
0.67244554 0.21035123 -0.7463997 -0.38490522 -0.36176956 0.107250735 0.01615942 -0.3040316
-0.17440036 -0.2928523 -0.9065549 0.6674001 -0.06707917 0.15989089 -0.6659715 -0.51540816
-0.3201768 -0.58934754 0.97142076 -0.9580311 -0.23697847 0.13278887 -0.2817777 -0.34228867
-1.2279973 0.15268135 -0.30080605 0.13799362 -0.51044035 0.29889295 -0.47239655 -0.5471524
-0.12461418 -0.63299733 -0.11847973 -0.409169 -0.15590037 0.5624449 0.5652748 -0.029130109
0.6381008 -0.13971649 0.14864187 0.060068645 0.24155973 0.05860339 0.14344096 0.60635763
0.040942714 0.30147833 -0.06290818 0.034081563 0.5355656 -0.27277553 0.10249848 -0.32303047
0.1986092 0.10599889 -0.3962044 -0.82687324 -0.49197233 -0.57081276 0.057004496 0.23388031
-0.0050896145 -0.46802974 -0.15311354 0.0012433691 0.7090975 0.32621902 -0.9623241 -1.1894609
-0.27062234 0.59615475 -0.40847853 -0.017672075 -0.25219908 -0.039684206 -0.07646126 -0.775274
00000000: f129 0b3c 2385 51bf 2153 923e f814 303e
00000010: 99e0 2d3f e82a 0cbe 24c1 063f 88df 883d
00000020: 79e6 403f 2527 90bd b6d5 943e 5641 8fbf
00000030: cfe3 8cbf 0ac2 8bbe 7982 1f3d 37d1 5ebf
00000040: 6b19 b83e b5d4 053d 7c3c 883f 151c b73e
00000050: aa7d 743f 43f8 0fbd b6f8 afbe 7dbf 853e
00000060: d6aa fdbe 133e 93bf b791 dcbe 3f6e 2ebf
00000070: 3bd9 6d3e 188d c33e 79b0 bf3d 5610 403e
00000080: 1662 c23f 7574 debe 3e1f 693f f281 3dbd
00000090: 85de fcbe dc08 543e 90b7 503e a50a 74bf
000000a0: ffc3 16bf 6a21 7cbe 7b6c 4bbd 6968 613e
000000b0: 051a 153e bb91 8bbd 76c6 8abf 55ae c33e
000000c0: 049c 57be eff6 8dbe 29eb 68bd 3f35 e1bd
000000d0: 07ca 3abf 92f0 39bf 999d 00bf 9cd2 57bf
000000e0: 6423 303e e59b 83be 03ed 8a3e a70a c6bc
000000f0: 2985 09bc ae4d f3be 254c c33b 8434 adbe
00000100: 6ab1 313e 574e 083e 14b8 dbbe 6ad7 68be
00000110: f81b 29bf c0c0 47bf a350 a4be 102c 0c3e
00000120: 75b8 d63c c011 74bf eba0 97bf 95e9 73bf
00000130: 2899 50bf a338 3abd ab50 cc3e 52f2 f5be
00000140: 0348 56be 5208 843f 1f81 f73e 3515 693f
00000150: 56fa 1c3e 2789 98be 5b10 af3b a3fc 953e
00000160: 9e45 c23f 84c2 8b3e 7205 473f 282c a2bc
00000170: a8a1 f63e 4a54 b1be c865 083f 4fad 9cbd
00000180: 9509 a4be f13d eb3e 843c 08bd e6e1 45bf
00000190: 8299 6b3e a274 c2be dd6b 5fbf eec5 b2bd
000001a0: ebaa c4be 6158 62bc ee62 43be fd78 93be
000001b0: a523 9f3e 83f7 d63e 0c23 8a3f c873 1a3e
000001c0: 5104 eabd 5f3a 863e 4049 683d 2a37 0d3a
000001d0: 22e7 69bf 0822 b2be 0d8a 073e cc78 01be
000001e0: 5770 6a3d bd3b d93d a12e 18be 1480 07be
000001f0: a1b6 19bf 096d 33be 0c04 8c3d 8d9b 2a3f
00000200: f024 aabe 0661 b83e 3362 1cbf 7084 87be
00000210: cdf2 1b3f 5086 4dbe 1a0d 953d 6003 00bc
00000220: f965 9bbf 1cfb fbbe 4d9b febe 191c 37bf
00000230: 87f9 c83b 2880 6b3e c27a adbe a187 2a3e
00000240: b835 243f e010 a23e 1b14 3f3f a719 e93d
00000250: 1622 aabe fc6b 27be 40af 853e 0417 8ebe
00000260: 7744 803e 80ed aabd 7fb8 e33d c4cc a43d
00000270: e172 683e 88c3 643f 9fe8 0440 24b9 963e
00000280: 469a a03f 9ddc 0dbe 8b80 c7be 2878 763e
00000290: b4be 25bf 795c 19bf 8d4e 38be 2c88 23bf
000002a0: 9cd0 aabc 0d2a 0e3f 65f5 40bf 6118 383f
000002b0: cafe 0d3f f110 343f 8ed3 643f eafe 16bb
000002c0: 6425 2c3f 5066 573e 0d14 3fbf 4c12 c5be
000002d0: dc39 b9be 46a6 db3d c360 843c 08aa 9bbe
000002e0: 0296 32be bdf0 95be fb13 68bf bcda 2a3f
000002f0: ce60 89bd 70ba 233e 1c7d 2abf caf1 03bf
00000300: 37ee a3be 7bdf 16bf 08af 783f 8741 75bf
00000310: 7caa 72be cef9 073e 2b45 90be 7640 afbe
00000320: 042f 9dbf 8058 1c3e 4003 9abe 334e 0d3e
00000330: 38ac 02bf 7f08 993e f6dd f1be 2e12 0cbf
00000340: b835 ffbd 1d0c 22bf 80a5 f2bd 997e d1be
00000350: 59a4 1fbe 64fc 0f3f d9b5 103f 44a2 eebc
00000360: 935a 233f d711 0fbe 9335 183e 8a0a 763d
00000370: 6f5b 773e 1c0a 703d 30e2 123e 413a 1b3f
00000380: 8cb3 273d 5e5b 9a3e 01d6 80bd 1c99 0b3d
00000390: d41a 093f 3ca9 8bbe b9ea d13d 4064 a5be
000003a0: 3660 4b3e f215 d93d 4edb cabe f7ad 53bf
000003b0: cce3 fbbe c920 12bf 8c7d 693d 527e 6f3e
000003c0: c8c6 a6bb 98a1 efbe ccc9 1cbe 8bf8 a23a
000003d0: 6a87 353f 2e06 a73e df5a 76bf 4140 98bf
000003e0: 038f 8abe 999d 183f 1924 d1be 07c5 90bc
000003f0: 3d20 81be e88b 22bd b997 9cbd 5b78 46bf

conv.convs.1.bias f4 [64]
0.00075554114 -0.017344167 0.017404918 0.038504552 -0.04783841 0.036046304 0.0052530738 0.0052642757
0.02723399 0.028438963 -0.081371464 -0.08404195 0.009949391 -0.27603856 -0.035054848 0.0790594
0.05923801 -0.11815774 0.07363534 0.066398695 -0.008099861 -0.022869429 -0.2082975 0.023627486
-0.09794012 -0.035025764 -0.07624535 -0.10887426 -0.0029604242 0.08457647 0.013870242 0.02910844
-0.06877256 0.056305908 0.15154462 0.0010761069 -0.19042166 0.010346876 0.056990165 0.06157902
0.052132946 0.08249862 0.04938804 0.032085266 -0.013321135 -0.038609672 -0.24496983 0.12533382
-0.014700742 0.006101308 0.016671471 -0.081327535 0.08239056 0.08936109 -0.039920375 -0.20916842
0.14041992 -0.038990803 0.006255755 0.009728061 -0.01938688 -0.0625505 0.102103315 -0.08272238
00000000: 820f 463a 5b15 8ebc c294 8e3c f3b6 1d3d
00000010: 35f2 43bd 4aa5 133d fa21 ac3b f27f ac3b
00000020: d119 df3c d4f8 e83c 15a6 a6bd 301e acbd
00000030: c502 233c ed54 8dbe ac95 0fbd e5e9 a13d
00000040: 8ea3 723d affc f1bd 20ce 963d 0afc 873d
00000050: 48b5 04bc ab58 bbbc f14b 55be 6e8e c13c
00000060: d494 c8bd 2d77 0fbd 8626 9cbd 78f9 debd
00000070: ad03 42bb 6e36 ad3d 0340 633c d374 ee3c
00000080: a1d8 8cbd 06a1 663d 832e 1b3e 280c 8d3a
00000090: e5fd 42be f285 293c 856e 693d 483a 7c3d
000000a0: 5b89 553d 09f5 a83d 1d4b 4a3d d76b 033d
000000b0: e440 5abc 2d25 1ebd 5fd9 7abe 8257 003e
000000c0: 62db 70bc 7bed c73b 9c92 883c 0d8f a6bd
000000d0: 62bc a83d f202 b73d 8c83 23bd 3f30 56be
000000e0: 3dca 0f3e d2b4 1fbd 14fd cc3b 7262 1f3c
000000f0: 3cd1 9ebc 7a1a 80bd 8b1b d13d 5a6a a9bd

conv.convs.1.lin.weight f4 [64, 64]
0.3696482 0.033848256 0.4958811 0.15097733 -0.055581167 0.23651615 0.0012314224 0.091053836
0.53367114 0.03805001 0.17847483 0.3514706 0.19063278 0.21068753 0.5175823 0.13563286
-0.14240794 -0.3648329 0.45508796 0.0041339234 0.0006511869 -0.23785838 -0.24058627 0.2787284
0.094272904 0.045865264 -0.11016889 -0.008068372 -0.3450086 0.4036818 0.056719705 -0.36708125
0.14488569 0.15119636 0.018037701 -0.115833186 0.30033702 0.2602528 0.31090856 -0.22230622
0.008002977 0.66457915 -0.024119228 0.41988915 0.21942092 -0.049642347 0.15004389 -0.06790165
-0.22143729 0.48940057 -0.022532681 0.440823 0.034112636 0.3503774 0.569463 0.22451459
0.15106617 -0.24053152 -0.1684268 0.32796904 -0.12243361 0.06348645 0.18737318 0.047795445
0.23260729 0.09912827 0.592997 -0.027919693 0.1662228 -0.0036173523 -0.34390828 -0.36884043
0.19920722 -0.7880452 -0.50938535 0.036727928 0.12325806 0.36915714 0.05610025 -0.5249697
-0.13599154 -0.25016233 0.31656468 -0.57797 0.015459238 -0.13191141 0.26579583 -0.507186
-0.04836102 0.11420023 -0.2983341 -0.30304953 -0.3398108 0.014006117 0.22037019 -0.2821929
-0.048134446 -0.6550905 0.24769391 -0.03796082 -0.2915475 0.06564675 0.4301311 0.036688376
-0.31765428 0.40200397 0.057034735 0.050589696 -0.30683395 -0.64610523 -0.20730883 -0.31231347
-0.2218455 0.28669167 0.23753563 0.26136336 0.13453788 -0.22346838 0.08815759 -0.14878708
-0.29786456 -0.21372998 -0.18800144 0.25348637 0.14242998 -0.68826586 0.1432081 -0.57889366
0.60665715 0.08804222 0.38691235 0.71280617 -0.16684087 0.36082804 -0.35899273 0.7302278
0.48060653 0.34709483 0.20424622 -0.28540623 -0.11918055 0.46915263 1.0138199 -0.13378292
-0.009297656 -0.123089984 0.48096305 0.71505976 -0.3832169 -0.22325139 -0.14110658 0.70135796
-0.2343547 -0.63020885 0.0032493374 0.082832694 -0.52288795 0.56322193 0.16979355 -0.27317974
0.20509644 0.2836446 -0.16486764 -0.21759279 0.63977355 0.0022021513 0.53512836 0.049612783
0.09707944 0.44945312 -0.14064436 0.29758927 0.111202896 0.28987855 0.025427315 0.11349061
-0.18412282 0.47300515 0.15066555 0.11303153 -0.02087873 0.3914809 0.5031578 -0.33013475
0.005335639 0.0041313986 0.07254099 0.5507006 -0.18586609 0.31615502 0.17091325 0.19553258
0.34750044 0.06659192 0.43076026 -0.0040727104 0.043740068 -0.08276576 -0.08328878 -0.24463668
0.074058786 -0.55624604 -0.6196716 0.038616788 -0.09133665 0.2585206 0.23078345 -0.2461977
-0.0049143783 0.11715642 0.24419236 -0.47603875 -0.27187642 -0.2687796 0.2726095 -0.2501365
0.30074117 0.08174549 -0.48538953 -0.40499517 -0.44242388 0.13105409 -0.06505919 -0.1987328
0.1567891 -0.41502273 -0.055826165 0.059578698 -0.20249464 0.068582915 0.46670234 0.07980752
-0.32496923 0.24834809 -0.27043155 0.23430145 -0.30934864 -0.48663118 -0.21274763 -0.07589605
-0.14829867 0.40537024 0.2502626 0.31701574 0.16743523 -0.30035156 0.054445304 -0.498418
-0.5030211 -0.2579113 -0.15466419 0.16475323 -0.16640452 -0.32362235 0.22279395 -0.45169204
00000000: 8742 bd3e 78a4 0a3d 21e4 fd3e cd99 1a3e
00000010: 14a9 63bd 4a31 723e ae67 a13a 6f7a ba3d
00000020: ac9e 083f 54da 1b3d 1bc2 363e f4f3 b33e
00000030: 3d35 433e 79be 573e 4680 043f 57e3 0a3e
00000040: 63d3 11be 61cb babe 4a01 e93e dd75 873b
00000050: 6ab4 2a3a 2691 73be 3f5c 76be 7db5 8e3e
00000060: 2712 c13d 37dd 3b3d 3aa0 e1bd 3431 04bc
00000070: f8a4 b0be 62af ce3e ec52 683d 13f2 bbbe
00000080: ea5c 143e 38d3 1a3e cdc3 933c f339 edbd
00000090: c6c5 993e db3f 853e 682f 9f3e 3ea4 63be
000000a0: eb1e 033c dc21 2a3f b095 c5bc b6fb d63e
000000b0: e1af 603e c655 4bbd 1ba5 193e 0510 8bbd
000000c0: 75c0 62be b692 fa3e 7596 b8bc 8db3 e13e
000000d0: b1b9 0b3d ab64 b33e 54c8 113f 27e7 653e
000000e0: 17b1 1a3e e54d 76be 1378 2cbe 8feb a73e
000000f0: 79be fabd 2f05 823d c1de 3f3e 28c5 433d
00000100: 9b30 6e3e c303 cb3d a7ce 173f d7b7 e4bc
00000110: 4f36 2a3e 1a11 6dbb bf14 b0be a7d8 bcbe
00000120: fafc 4b3e 55bd 49bf 1467 02bf 0670 163d
00000130: b96e fc3d 2a02 bd3e 60c9 653d 6a64 06bf
00000140: 5e41 0bbe 4715 80be c414 a23e d8f5 13bf
00000150: be48 7d3c c913 07be 6416 883e f1d6 01bf
00000160: 3416 46bd cfe1 e93d 3fbf 98be 4f29 9bbe
00000170: aefb adbe ea79 653c b9a8 613e 967b 90be
00000180: a028 45bd 03b4 27bf 79a3 7d3e ce7c 1bbd
00000190: b745 95be ce71 863d 253a dc3e 8d46 163d
000001a0: 95a3 a2be 77d3 cd3e 419d 693d 2437 4f3d
000001b0: 5719 9dbe 2767 25bf c448 54be 8de7 9fbe
000001c0: 772b 63be 40c9 923e 8a3c 733e 6bd1 853e
000001d0: 4cc4 093e e5d4 64be f78b b43d a45b 18be
000001e0: b481 98be 08dc 5abe 7383 40be f7c8 813e
000001f0: 2ad9 113e 3132 30bf 25a5 123e 6032 14bf
00000200: e24d 1b3f 7b4f b43d 6019 c63e 777a 363f
00000210: 55d8 2abe 74be b83e e5cd b7be 36f0 3a3f
00000220: 0f12 f63e 6ab6 b13e ec25 513e c420 92be
00000230: ef14 f4bd c634 f03e dac4 813f 64fe 08be
00000240: 3255 18bc 9a16 fcbd ca40 f63e 280e 373f
00000250: 0135 c4be 039c 64be 3e7e 10be 328c 333f
00000260: aefa 6fbe 5e55 21bf d6f2 543b 30a4 a93d
00000270: fcdb 05bf 502f 103f 5cde 2d3e 37de 8bbe
00000280: cd04 523e dd39 913e 10d3 28be a5d0 5ebe
00000290: 33c8 233f f851 103b 2cfe 083f c636 4b3d
000002a0: 96d1 c63d b81e e63e 1305 10be 9f5d 983e
000002b0: 58be e33d f66a 943e f24c d03c c46d e83d
000002c0: b18a 3cbe bb2d f23e 1248 1a3e 137d e73d
000002d0: df09 abbc 2f70 c83e f3ce 003f 6c07 a9be
000002e0: 96d6 ae3b af60 873b 5f90 943d b7fa 0c3f
000002f0: ae53 3ebe 12df a13e e203 2f3e b139 483e
00000300: 94eb b13e 5861 883d 9c8c dc3e 5f74 85bb
00000310: c928 333d 1881 a9bd 4f93 aabd 0a82 7abe
00000320: 22ac 973d 2466 0ebf cca2 1ebf a32c 1e3d
00000330: b60e bbbd d05c 843e 7f52 6c3e 401b 7cbe
00000340: cb08 a1bb b5ef ef3d 900d 7a3e 5abb f3be
00000350: 6333 8bbe 7b9d 89be 7993 8b3e e411 80be
00000360: bffa 993e 2e6a a73d fa84 f8be 875b cfbe
00000370: 6285 e2be 0b33 063e c13d 85bd 9c80 4bbe
00000380: 528d 203e dc7d d4be faa9 64bd cb08 743d
00000390: c15a 4fbe 3375 8c3d 9cf3 ee3e 2072 a33d
000003a0: 5e62 a6be f64e 7e3e 0176 8abe b8ec 6f3e
000003b0: f262 9ebe b927 f9be 84da 59be 636f 9bbd
000003c0: 9bdb 17be b08c cf3e 6b22 803e e34f a23e
000003d0: 2474 2b3e aec7 99be 0a02 5f3d a530 ffbe
000003e0: fec5 00bf f30c 84be 4a60 1ebe 12b5 283e
000003f0: f265 2abe d4b1 a5be 1924 643e 2e44 e7be

conv.convs.2.bias f4 [64]
-0.09367444 -0.09204353 0.11858858 0.088676885 0.03212023 0.043110058 0.11103858 -0.033488046
0.40666005 -0.07247762 0.10809798 0.07394961 0.042270105 0.091228 -0.060147762 -0.015109514
0.06357547 0.04665643 -0.0037292594 0.1111973 0.04492346 -0.09252915 0.08504374 -0.0076545225
-0.053264137 0.0022459282 0.1425995 -0.11015691 0.123990126 -0.0925902 -0.08936531 -0.07154432
0.054805033 0.013173819 -0.0780269 -0.10309518 0.12646261 0.11730124 0.055697203 -0.037763294
-0.06616643 -0.14172848 0.0687503 -0.09920186 -0.022844192 0.10156214 -0.047045555 -0.012233919
0.029236967 0.04725223 -0.047704816 -0.014631263 0.03089955 0.08852159 0.09106384 -0.026616342
-0.042120572 -0.030543072 -0.014492166 0.038142778 0.019065607 -0.047064308 -0.036296055 0.072083585
00000000: 63d8 bfbd 5181 bcbd 92de f23d 3a9c b53d
00000010: 8190 033d 2c94 303d 3268 e33d c32a 09bd
00000020: bf35 d03e 256f 94bd 7962 dd3d e572 973d
00000030: 6b23 2d3d bfd5 ba3d 805d 76bd e58d 77bc
00000040: db33 823d d01a 3f3d 9766 74bb 69bb e33d
00000050: a901 383d ec7f bdbd 6a2b ae3d cad2 fabb
00000060: 7f2b 5abd 6c30 133b 9a05 123e f299 e1bd
00000070: 89ee fd3d ee9f bdbd 2905 b7bd d485 92bd
00000080: 3e7b 603d 00d7 573c 91cc 9fbd 9123 d3bd
00000090: 6a7f 013e a23b f03d c022 643d afad 1abd
000000a0: 4482 87bd 4521 11be f5cc 8c3d 582a cbbd
000000b0: be23 bbbc d0ff cf3d d7b2 40bd c770 48bc
000000c0: 5d82 ef3c 8e8b 413d 2066 43bd f7b7 6fbc
000000d0: 0e21 fd3c cf4a b53d ae7f ba3d 840a dabc
000000e0: 9f86 2cbd 7735 fabc 8d70 6dbc 9a3b 1c3d
000000f0: 7a2f 9c3c 81c6 40bd 2cab 14bd 8fa0 933d

conv.convs.2.lin.weight f4 [64, 64]
-0.018501852 0.1741059 -0.31318715 0.18295121 -0.20327957 0.18112639 0.21249306 0.17268205
0.19129731 -0.09578401 -0.07747293 -0.117684506 -0.0049951565 7.7544246e-05 0.1646933 0.30530286
-0.020352308 -0.022275325 -0.19692363 0.10756682 -0.107369706 -0.17131625 0.015957596 -0.06713226
0.11243385 -0.021840699 -0.035918217 0.23808712 0.19302793 0.13772595 -0.020458732 0.0167804
0.18029542 -0.2654383 0.022303222 -0.18667528 0.015611502 0.10292203 -0.25761387 0.014135726
0.25911847 0.12666298 -0.06141894 0.23529615 -0.03723161 -0.053535186 0.18765682 -0.025514668
0.18905859 0.10207505 -0.47981417 0.07572319 -0.00063057645 0.24068989 -0.0722369 0.25043285
0.29919025 -0.00015587348 0.102714784 0.08050308 0.0027115887 -0.16010778 0.11613765 -0.17159767
0.074523754 -0.3350091 0.10592652 -0.41481423 0.06852196 0.15987682 -0.24711992 -0.16449344
-0.10516517 0.07862428 0.28023672 0.27516603 0.05288815 -0.19600584 -0.2148345 0.062152945
0.08587974 -0.13269858 0.08809702 -0.36505473 0.4057161 -0.12500873 -0.22668383 0.41003093
-0.052209526 -0.08264499 -0.008769146 0.02522185 0.11349057 -0.21756345 -0.13844259 0.09659042
0.11632563 0.39184022 -0.045205325 0.07935721 0.023465486 -0.2179142 -0.2661505 -0.2563757
-0.06367889 0.07370835 0.029121505 -0.12406706 0.2574325 -0.11155656 -0.20193493 -0.20672448
-0.035556633 0.013531922 0.25378075 -0.061737213 0.08697495 -0.07405065 -0.06281103 -0.3079343
-0.17906196 0.0026209252 0.02782156 -0.21757494 0.14338888 0.14600414 -0.1540585 0.24354604
-0.45709503 -0.19001977 -0.0368117 -0.103676304 -0.8936546 0.11201707 -0.01110231 0.023183793
0.3164008 0.049268715 -0.9475849 -0.7934377 0.27961722 0.0829225 -0.13839081 -0.58210003
0.10953941 0.55211383 0.22961424 -0.47707054 -0.69500345 -0.21958853 0.2515103 -0.62927145
-0.0036418363 -0.30329534 -0.13389827 0.18060271 0.048372414 0.27662066 0.15025617 0.12273367
-0.06460072 -0.2274211 -0.060505327 0.012315434 0.09527145 -0.259699 0.33353746 0.17726175
-0.052202497 -0.008075118 0.17004922 0.038440287 -0.21320674 0.4772687 -0.06690898 -0.0831828
0.2981776 0.24389432 -0.72875625 -0.36812007 -0.47095665 -0.05282779 -0.21688667 -0.17001641
-0.29481772 0.22958037 -0.6720815 -0.0359646 -0.74594504 -0.8270343 0.10241639 -0.15595718
0.105293654 -0.1617921 0.2217101 -0.28583634 -0.31869176 -0.10742155 -0.25710487 -0.10447908
-0.019823914 -0.09216472 -0.24284996 0.09029151 0.042535093 -0.071537085 -0.36435732 -0.017597405
0.14095366 0.012347871 0.019236743 -0.04432493 0.17740586 -0.0010488492 -0.21518669 0.04908965
0.24578887 0.20618017 0.21667078 -0.123180434 0.05073174 0.11399898 0.2736391 0.06076405
-0.021811964 0.14111432 -0.23490177 0.17455067 -0.009946109 -0.12064753 0.036000267 0.060718875
-0.114202686 -0.0006913869 -0.107198924 -0.27974308 0.21037634 0.14560752 0.15187517 -0.1788952
-0.07060666 1.9919826e-05 0.4105397 -0.038279805 -0.32923177 -0.23277569 -0.09042224 -0.15027851
-0.02423227 -0.13224073 -0.14626314 -0.078690626 0.26458248 0.12871005 -0.048203867 0.12716061
00000000: 3291 97bc d148 323e 115a a0be 9057 3b3e
00000010: 8528 50be 3279 393e c897 593e 90d3 303e
00000020: 71e3 433e 682a c4bd 21aa 9ebd 9304 f1bd
00000030: 69ae a3bb 409f a238 5ca5 283e a850 9c3e
00000040: e2b9 a6bc be7a b6bc 59a6 49be fe4b dc3d
00000050: a6e4 dbbd 876d 2fbe 81b9 823c a37c 89bd
00000060: b843 e63d 44eb b2bc fb1e 13bd 1ccd 733e
00000070: 1da9 453e 0808 0d3e 1299 a7bc 0d77 893c
00000080: 5d9f 383e 87e7 87be 3fb5 b63c ce27 3fbe
00000090: 63c7 7f3c c9c8 d23d f7e5 83be 8899 673c
000000a0: 2dab 843e f1b3 013e 6d92 7bbd 79f1 703e
000000b0: 2c80 18bd b647 5bbd 1c29 403e 2304 d1bc
000000c0: 9398 413e b90c d13d 34aa f5be c314 9b3d
000000d0: 454d 25ba 6977 763e f1f0 93bd bc38 803e
000000e0: 772f 993e f871 23b9 215c d23d ccde a43d
000000f0: e9b4 313b 4bf3 23be 94d9 ed3d 4db7 2fbe
00000100: e99f 983d 5086 abbe 01f0 d83d 8862 d4be
00000110: 3e55 8c3d c0b6 233e 010d 7dbe f870 28be
00000120: d660 d7bd c405 a13d 307b 8f3e 90e2 8c3e
00000130: 3fa1 583d c1b5 48be 93fd 5bbe 1694 7e3d
00000140: b8e1 af3d 23e2 07be 366c b43d 74e8 babe
00000150: 05ba cf3e 4a02 00be ce1f 68be 93ef d13e
00000160: a8d9 55bd c741 a9bd 77ac 0fbc 0e9e ce3c
00000170: be6d e83d f4c8 5ebe e5c3 0dbe 33d1 c53d
00000180: 223c ee3d 489f c83e 3829 39bd 0886 a23d
00000190: b13a c03c e624 5fbe e144 88be ad43 83be
000001a0: 146a 82bd 67f4 963d 3990 ee3c df16 febd
000001b0: 31ce 833e c477 e4bd 08c8 4ebe 95af 53be
000001c0: d5a3 11bd ffb4 5d3c 8def 813e 29e0 7cbd
000001d0: ec1f b23d dea7 97bd 12a3 80bd 91a9 9dbe
000001e0: 055c 37be d4c3 2b3b 0aea e33c f7cb 5ebe
000001f0: 89d4 123e 1c82 153e 83c1 1dbe 2264 793e
00000200: 5c08 eabe 8b94 42be ddc7 16bd 3e54 d4bd
00000210: 8cc6 64bf 3569 e53d 77e6 35bc f0eb bd3c
00000220: 49ff a13e fecd 493d ed94 72bf bc1e 4bbf
00000230: fd29 8f3e 46d3 a93d 52b6 0dbe 8204 15bf
00000240: 3356 e03d 5557 0d3f ff1f 6b3e 9742 f4be
00000250: bfeb 31bf d1db 60be f5c5 803e ef17 21bf
00000260: e0ab 6ebb 8749 9bbe a11c 09be ebef 383e
00000270: 2722 463d 39a1 8d3e c1dc 193e ca5b fb3d
00000280: 624d 84bd 14e1 68be 6fd4 77bd adc6 493c
00000290: ae1d c33d 44f7 84be 6cc5 aa3e 1b84 353e
000002a0: 49d2 55bd 804d 04bc 6221 2e3e 9073 1d3d
000002b0: de52 5abe 905c f43e 9307 89bd be5b aabd
000002c0: bcaa 983e 6fbf 793e c58f 3abf 3c7a bcbe
000002d0: 3b21 f1be f461 58bd 8a17 5ebe c818 2ebe
000002e0: 59f2 96be 1e17 6b3e 880d 2cbf 9e4f 13bd
000002f0: 41f6 3ebf 85b8 53bf afbf d13d 3db3 1fbe
00000300: 33a4 d73d d4ac 25be f907 633e 2459 92be
00000310: 912b a3be d4ff dbbd 40a3 83be 21f9 d5bd
00000320: c365 a2bc dbc0 bcbd a9ad 78be c1ea b83d
00000330: 4739 2e3d 0982 92bd 0b8d babe 6f28 90bc
00000340: 2856 103e ba4e 4a3c 6096 9d3c 0f8e 35bd
00000350: e2a9 353e 8a79 89ba e659 5cbe 3b12 493d
00000360: 14b0 7b3e e520 533e f2de 5d3e 0646 fcbd
00000370: 16cc 4f3d 4c78 e93d 6d1a 8c3e b9e3 783d
00000380: 01af b2bc 4680 103e 178a 70be 69bd 323e
00000390: 01f5 22bc 0d16 f7bd 0475 133d 5bb4 783d
000003a0: 19e3 e9bd 303e 35ba 1c8b dbbd 7c3a 8fbe
000003b0: e56c 573e 231a 153e 2a85 1b3e 4e30 37be
000003c0: 399a 90bd 8019 a737 4232 d23e 49cb 1cbd
000003d0: 1191 a8be c05c 6ebe 4c2f b9bd 9ce2 19be
000003e0: c182 c6bc 1d6a 07be 01c6 15be 8d28 a1bd
000003f0: 5b77 873e 91cc 033e 6b71 45bd 6436 023e

lin.weight f4 [64, 128]
0.123812005 -0.09608091 -0.09392603 -0.12722445 0.1835271 -0.060281534 -0.0028900867 -0.16228014
-0.004506406 -0.030783927 -0.015390571 0.0008087448 0.05103449 -0.009679796 0.32676595 0.040515773
0.0061658025 0.06692108 -0.050941657 -0.010990394 0.15666384 0.05219312 0.098368764 -0.03778577
0.14189678 0.15673266 0.022766335 0.08451452 -0.013577332 0.14510697 -0.024723906 -0.031874776
0.14371282 -0.020232074 -0.032252353 0.15245917 0.13513973 0.092376225 0.20215824 0.11612954
-0.119865194 -0.15911785 0.17613839 -0.10831559 0.12117321 0.0134255905 -0.21690348 -0.023276761
0.007180475 -0.00057090714 0.03748853 -0.23775485 -0.1067133 0.018528609 -0.04910529 0.16637623
-0.05372531 -0.008969956 -0.042165644 -0.080249 -0.010870438 -0.005192885 0.14554982 0.10768247
0.22555932 -0.27718708 -0.09832489 -0.15177847 0.2303092 -0.058153767 -0.03716545 -0.11118732
0.06389993 -0.020131335 0.012426995 -0.037806135 0.02210904 -0.070192605 0.21085845 0.1477789
-0.12788002 0.12870422 -0.10323836 -0.14653149 0.16258265 -0.041315887 0.1980692 -0.19310693
0.079175755 0.13525972 0.031845216 0.16558534 0.032325123 0.12604688 -0.038853586 0.021923611
0.041438438 -0.15737759 0.102246664 0.13115637 -0.0042522945 0.15233618 0.08157709 0.01696311
-0.07434886 -0.1840916 0.23505597 -0.06227709 0.2927825 0.08251329 -0.001209695 0.12091647
-0.114398114 -0.046232812 0.17528969 -0.25802743 -0.016421905 0.21194123 0.17643826 0.2946221
0.18227251 0.09410181 0.1842854 -0.20130734 -0.15234543 -0.22737528 0.07385603 0.1303316
-0.21185432 0.27979407 -0.16759162 0.085241176 0.052874744 -0.07952344 -0.1538419 0.0380974
0.12293596 0.47156677 -0.027164156 -0.17691185 -0.14374931 -0.6558819 -0.32530737 -0.001497753
0.32646 0.1911594 -0.46343163 -0.09361293 0.06089923 -0.05821409 -0.0075685508 0.15299767
0.12923537 -0.181488 -0.04902371 0.0030499354 -0.41315967 -0.07868402 -0.19394809 0.47161645
-0.1510341 -0.08095695 0.09546916 0.13031378 -0.15291695 -0.34878966 -0.116039924 0.14816423
0.2943301 -0.053892724 -0.04224788 -0.0129783675 -0.2165983 -0.14125675 -0.022222359 0.037758667
-0.18369389 0.3480194 0.3983141 -0.21412598 -0.3776004 0.4426643 0.018379359 -0.22935434
0.16617501 0.21508342 0.13950682 -0.001928826 -0.12532482 0.17289793 0.018966606 -0.23388629
-0.14169206 0.2546366 -0.17796628 0.24412383 0.040909387 -0.045314863 -0.07365273 0.035866838
-0.032163285 0.36284125 0.06796114 -0.1830727 -0.18663564 -0.5363062 -0.10174205 -0.08912736
0.054230604 0.17468263 -0.48923257 -0.22062911 0.07549679 -0.058283124 -0.03783495 0.15072893
0.17112729 -0.14139801 -0.18439354 0.08911414 -0.2549531 -0.04267469 -0.13780561 0.3820724
-0.06838061 -0.17485714 0.07854834 0.082242586 -0.113502346 -0.380548 -0.097512566 0.18137741
0.3352358 -0.022439094 0.024322504 0.020545488 -0.16995263 -0.12911908 -0.06721302 0.050050538
-0.13531531 0.2446017 0.36449793 -0.21364525 -0.45812723 0.29976624 0.027865082 -0.22954725
0.021926912 0.20802513 0.052633774 0.04753239 0.021474436 0.011545764 0.07123325 -0.2970899
00000000: 2691 fd3d 11c6 c4bd 4a5c c0bd 2047 02be
00000010: 87ee 3b3e c5e9 76bd 9c67 3dbb c42c 26be
00000020: 79aa 93bb 932e fcbc bc28 7cbc f201 543a
00000030: 8b09 513d 0298 1ebc de4d a73e def3 253d
00000040: 800a ca3b eb0d 893d 33a8 50bd 0e11 34bc
00000050: 7c6c 203e 74c8 553d 9075 c93d 40c5 1abd
00000060: 644d 113e 877e 203e 7780 ba3c f315 ad3d
00000070: 7573 5ebc ec96 143e ca89 cabc 208f 02bd
00000080: 7429 133e bcbd a5bc 0b1b 04bd 421e 1c3e
00000090: 1262 0a3e bf2f bd3d 9202 4f3e 53d5 ed3d
000000a0: e27b f5bd caef 22be 9f5d 343e 90d4 ddbd
000000b0: a929 f83d 02f7 5b3c f21b 5ebe e8ae bebc
000000c0: 314a eb3b eea8 15ba 938d 193d 0276 73be
000000d0: 818c dabd 4fc9 973c a122 49bd 885e 2a3e
000000e0: 120f 5cbd b9f6 12bc e2b5 2cbd 9659 a4bd
000000f0: ec19 32bc 1429 aabb 030b 153e a088 dc3d
00000100: 06f9 663e 77eb 8dbe 8f5e c9bd d16b 1bbe
00000110: 2dd6 6b3e a532 6ebd cd3a 18bd 2db6 e3bd
00000120: f7dd 823d 78ea a4bc 989a 4b3c 9bda 1abd
00000130: 041e b53c 24c1 8fbd 47eb 573e 5a53 173e
00000140: fbf2 02be 0acb 033e a26e d3bd 5a0c 16be
00000150: 117c 263e d93a 29bd a7d2 4a3e d3bd 45be
00000160: e626 a23d 8681 0a3e 2170 023d 348f 293e
00000170: 5967 043d 6f12 013e f024 1fbd 2599 b33c
00000180: 5abb 293d 9727 21be b366 d13d db4d 063e
00000190: d556 8bbb 04fe 1b3e e411 a73d 38f6 8a3c
000001a0: 3744 98bd 8282 3cbe 83b2 703e 4316 7fbd
000001b0: 96e7 953e bafc a83d a18e 9eba 0ea3 f73d
000001c0: 8f49 eabd 9e5e 3dbd 247f 333e 2c1c 84be
000001d0: 3b87 86bc 1f07 593e 3bac 343e b5d8 963e
000001e0: a5a5 3a3e 73b8 c03d 50b5 3c3e 8323 4ebe
000001f0: 7100 1cbe 11d5 68be d541 973d a675 053e
00000200: 57f0 58be 2b41 8f3e 239d 2bbe ed92 ae3d
00000210: 3093 583d 2fdd a2bd bb88 1dbe 050c 1c3d
00000220: d9c5 fb3d 3371 f13e 5d87 debc 6128 35be
00000230: 0533 13be e0e7 27bf b08e a6be 4050 c4ba
00000240: c425 a73e 4abf 433e e946 edbe 23b8 bfbd
00000250: 7971 793d e671 6ebd 9b01 f8bb 6cab 1c3e
00000260: 4756 043e fed7 39be 16cd 48bd 6de1 473b
00000270: aa89 d3be 1625 a1bd 549a 46be b677 f13e
00000280: afa8 1abe c2cc a5bd 5685 c33d fa70 053e
00000290: 4396 1cbe 8f94 b2be 57a6 edbd 5db8 173e
000002a0: 6fb2 963e 9ebe 5cbd 1d0c 2dbd 38a3 54bc
000002b0: f2cb 5dbe 9ca5 10be aa0b b6bc d5a8 1a3d
000002c0: 401a 3cbe 992f b23e d3ef cb3e d743 5bbe
000002d0: d754 c1be e5a4 e23e 4f90 963c dddb 6abe
000002e0: c829 2a3e d43e 5c3e e0da 0e3e a9d0 fcba
000002f0: 2655 00be 280c 313e db5f 9b3c e37f 6fbe
00000300: b917 11be ba5f 823e cb3c 36be 99fb 793e
00000310: 9a90 273d 149c 39bd 3ed7 96bd 1be9 123d
00000320: a6bd 03bd 54c6 b93e 362f 8b3d 6977 3bbe
00000330: 6a1d 3fbe 5d4b 09bf 235e d0bd 6888 b6bd
00000340: e920 5e3d 01e0 323e b17c fabe 99ec 61be
00000350: 109e 9a3d 49ba 6ebd d2f8 1abd af58 1a3e
00000360: fe3b 2f3e a4ca 10be a9d1 3cbe 7981 b63d
00000370: 3689 82be a8cb 2ebd ea1c 0dbe fe9e c33e
00000380: 220b 8cbd c00d 33be f4dd a03d cd6e a83d
00000390: eb73 e8bd 30d7 c2be abb4 c7bd 00bb 393e
000003a0: 07a4 ab3e 31d2 b7bc fd3f c73c 034f a83c
000003b0: 1008 2ebe cb37 04be fba6 89bd cb01 4d3d
000003c0: 1990 0abe de78 7a3e 799f ba3e d2c5 5abe
000003d0: a78f eabe f67a 993e 5045 e43c 6f0e 6bbe
000003e0: 11a0 b33c 8a04 553e 8396 573d 53b1 423d
000003f0: 28eb af3c 722a 3d3c bde2 913d 2b1c 98be

lin.bias f4 [64]
0.12870912 1.0713154 0.5764638 -0.6954181 0.20707405 -0.049147114 -0.51398134 0.16731983
0.5680396 0.8224367 -0.55284894 -0.40800637 0.07675413 0.3089804 0.6359491 0.45547596
0.7302261 -0.19196041 0.30104643 -0.08976329 -0.4162101 0.544073 -0.53099 0.40594065
0.21270879 0.8462243 -0.46038672 -0.039090153 0.4925829 -0.0300034 -0.13604018 0.57864803
-0.28595573 -0.19905275 -0.34807155 -0.14034335 0.119984835 0.3682866 0.55903476 -0.41310552
-0.46237713 -0.101171024 -0.53130203 0.35311112 0.51414335 -0.013129047 -0.45477104 0.43771785
-0.3254601 0.41576532 0.5239143 -0.6874142 0.51307327 0.1389708 0.5385015 -0.4481041
0.25802553 0.24280539 0.5152694 0.4729184 0.56314695 -0.10502156 -0.4097598 -0.03449304
00000000: 53cc 033e dd20 893f 2293 133f ec06 32bf
00000010: 380b 543e 7c4e 49bd 4894 03bf e455 2b3e
00000020: 0b6b 113f 368b 523f 8287 0dbf 36e6 d0be
00000030: 4531 9d3d ae32 9e3e 8fcd 223f 2534 e93e
00000040: 19f0 3a3f 4591 44be c222 9a3e d1d5 b7bd
00000050: 7d19 d5be 5e48 0b3f f6ee 07bf 74d7 cf3e
00000060: 55d0 593e 28a2 583f cfb7 ebbe ff1c 20bd
00000070: d333 fc3e b1c9 f5bc 1e4e 0bbe 4722 143f
00000080: ca68 92be 7cd4 4bbe 6f36 b2be 2bb6 0fbe
00000090: 9cba f53d 1090 bc3e e71c 0f3f 9182 d3be
000000a0: b2bc ecbe c132 cfbd 6903 08bf fbca b43e
000000b0: e69e 033f 371b 57bc c0d7 e8be 8e1c e03e
000000c0: b5a2 a6be 31df d43e 3f1f 063f 61fa 2fbf
000000d0: c558 033f 5d4e 0e3e 3cdb 093f e76d e5be
000000e0: ec1b 843e faa1 783e b2e8 033f 5c22 f23e
000000f0: 662a 103f 8b15 d7bd 09cc d1be 9348 0dbd

out.weight f4 [2, 64]
0.13255613 1.6869334 0.16856225 -0.19902077 0.29682294 -0.49254775 -0.18682411 0.18565866
0.148082 1.3312064 -0.2960578 -0.23364845 0.12923756 0.35786855 0.10487805 -0.76470196
1.4577887 -0.21251342 0.5613853 -0.23733795 -0.21425264 0.0070155044 -0.20967805 0.4831972
0.45675364 1.5008681 -0.19335681 -0.5990373 0.019659158 -0.05122719 -0.565329 0.17938511
-0.1695564 -0.44052324 0.28071764 -0.5671837 0.20109762 0.42776757 0.63892794 -0.092106014
0.39405692 0.07622853 -0.11333663 0.5894292 0.13541521 -0.035606902 0.31309697 0.14188685
-0.2699446 0.26214722 0.082663685 -0.20145579 0.038038623 0.6235836 -0.02237138 -0.25257728
0.67716545 -0.62423825 0.48239654 0.87670517 0.1826456 -0.4842922 -0.24819393 0.16894238
-0.04380907 -1.7810673 -0.104653545 0.27904493 -0.29816025 0.37345272 0.08057354 -0.044025574
-0.2631443 -1.28404 0.41960582 0.18441674 -0.08471732 -0.44463372 -0.24874371 0.87703526
-1.5060098 0.20556423 -0.7084243 0.2879737 0.21854353 -0.10229564 0.16544348 -0.5022104
-0.31268895 -1.6600504 0.11244136 0.6103508 -0.0914487 -0.11994123 0.51591325 -0.059545994
0.20419979 0.30178517 -0.30385786 0.45218566 -0.054484084 -0.35849077 -0.5494283 0.18409069
-0.31200287 -0.07325136 0.19122171 -0.5739402 0.008348635 0.021171382 -0.28389907 -0.101354435
0.25289616 -0.31063336 -0.035545968 0.16087689 -0.09322438 -0.6323341 -0.089285485 0.30149376
-0.7951825 0.48813328 -0.5763062 -0.8272194 -0.06634529 0.29229507 0.29905158 -0.19798999
00000000: cbbc 073e 6fed d73f 959b 2c3e 1acc 4bbe
00000010: 2df9 973e 382f fcbe d24e 3fbe 4e1d 3e3e
00000020: cfa2 173e f964 aa3f e394 97be 8a41 6fbe
00000030: da56 043e 8c3a b73e 4eca d63d 82c3 43bf
00000040: d298 ba3f 1e9d 59be f2b6 0f3f b808 73be
00000050: 0b65 5bbe 51e2 e53b d8b5 56be a065 f73e
00000060: 9ddb e93e 721c c03f 54ff 45be 825a 19bf
00000070: 3e0c a13c 9ad3 51bd 67b9 10bf bbb0 373e
00000080: 31a0 2dbe 438c e1be 39ba 8f3e f332 11bf
00000090: 89ec 4d3e 5a04 db3e c890 233f 14a2 bcbd
000000a0: d4c1 c93e b41d 9c3d 091d e8bd d5e4 163f
000000b0: 49aa 0a3e 8bd8 11bd 3f4e a03e c94a 113e
000000c0: 2e36 8abe 2938 863e 944b a93d 6d4a 4ebe
000000d0: 63ce 1b3d 2da3 1f3f 2f44 b7bc cf51 81be
000000e0: b75a 2d3f 14ce 1fbf aefc f63e c06f 603f
000000f0: 7307 3b3e 26f5 f7be 8d26 7ebe 3bff 2c3e
00000100: 2471 33bd 03fa e3bf 9954 d6bd fade 8e3e
00000110: 76a8 98be 3235 bf3e bd03 a53d 2954 34bd
00000120: daba 86be 6c5b a4bf 93d6 d63e bed7 3c3e
00000130: 4680 adbd 08a7 e3be acb6 7ebe 6285 603f
00000140: eec4 c0bf 6e7f 523e 4c5b 35bf 4a71 933e
00000150: e0c9 5f3e 6080 d1bd 046a 293e dc90 00bf
00000160: c418 a0be 887c d4bf a847 e63d f33f 1c3f
00000170: 7549 bbbd bfa3 f5bd e412 043f 80e6 73bd
00000180: c019 513e 9683 9a3e 4293 9bbe e184 e73e
00000190: b42a 5fbd 1a8c b7be 55a7 0cbf 4582 3c3e
000001a0: d7be 9fbe cf04 96bd a0cf 433e bfed 12bf
000001b0: b7c8 083c 9b6f ad3c 385b 91be ea92 cfbd
000001c0: 9b7b 813e 560b 9fbe a698 11bd e9bc 243e
000001d0: 6cec bebd a6e0 21bf 4fdb b6bd 645d 9a3e
000001e0: 1591 4bbf 9bec f93e ce88 13bf a7c4 53bf
000001f0: 0ae0 87bd b3a7 953e 4a1d 993e e3bd 4abe

out.bias f4 [2]
0.45169714 -0.42817986
00000000: d944 e73e 643a dbbe
