baseline_explainers/gnninterpreter/ckpts/treecycle_ckpt.pt (torch, 71523 bytes, 10 tensors)

conv.convs.0.bias f4 [64]
0	0x3cbe0697	0.023196502
1	0xbd584a38	-0.052805156
2	0x3d2f9402	0.04286576
3	0xbba34008	-0.0049819984
4	0x3ba34452	0.0049825097
5	0xbc340abf	-0.01098889
6	0x3cbbc2ba	0.022920001
7	0x3ced0b47	0.028936042
8	0x3d3fe644	0.046850458
9	0x3cab7589	0.020930069
10	0xbd26d2f4	-0.040728524
11	0x3c74dcdc	0.014945235
12	0x3b4403f2	0.0029909578
13	0x3a82f8d7	0.0009992373
14	0x3be3bac4	0.0069497544
15	0xbc5480a2	-0.012970122
16	0xbc1303a2	-0.008973034
17	0xbd3fc42a	-0.046817936
18	0xbc33997d	-0.010961887
19	0x3c5443d6	0.0129556265
20	0xbcaaca58	-0.020848438
21	0x3cbbc84b	0.022922656
22	0x3b42803a	0.002967848
23	0xbb4c480e	-0.0031170878
24	0x3da15b60	0.078787565
25	0x3d3feb32	0.04685516
26	0x3c74ed0d	0.014949095
27	0xbe0b9500	-0.13631058
28	0xbc341df1	-0.010993467
29	0x3c33981e	0.0109615605
30	0xbc152cc6	-0.009104913
31	0xbcbb40d7	-0.022858066
32	0x3d2f9392	0.042865343
33	0xbd587b86	-0.052852176
34	0xbc8acc68	-0.016943172
35	0xbc3398bf	-0.0109617105
36	0x3beb8b2d	0.007188222
37	0xbc9b933e	-0.018991109
38	0xbc8e7b15	-0.017392674
39	0xbc73e946	-0.01488716
40	0x3d2f907a	0.042862393
41	0xbced459a	-0.028963853
42	0x3c1307aa	0.008973995
43	0xbd0bc625	-0.034124512
44	0x3c9b7821	0.01897818
45	0xba820ead	-0.0009922587
46	0xbda93b10	-0.082632184
47	0x3cab8b70	0.020940512
48	0x3cfd17d5	0.030895153
49	0xbd3fa49d	-0.046787847
50	0x3c890b35	0.016728977
51	0x3dc21f2c	0.09478602
52	0x3d3fe580	0.046849728
53	0xbe498356	-0.19679007
54	0xbba38ade	-0.0049909195
55	0x3a82e482	0.0009986314
56	0xbcfd1bf9	-0.030897127
57	0x3d9bf195	0.076144375
58	0xbcdae833	-0.02672205
59	0x3be4985f	0.006976172
60	0x3c9b2a7d	0.018941158
61	0xbc342508	-0.010995157
62	0xbcfd2aca	-0.030904192
63	0x3c8ad075	0.016945103

conv.convs.0.lin.weight f4 [64, 2]
0	0xbe322fb1	-0.17401005
1	0x3e2946e8	0.16530955
2	0xbea10130	-0.31446218
3	0xbe25377e	-0.1613445
4	0x3e01cd4e	0.12675974
5	0x3e8e7140	0.27820778
6	0x3e431fa2	0.19055036
7	0x3dfc6e28	0.12325698
8	0xbe60754d	-0.21919747
9	0x3dcd2860	0.100174665
10	0xbdf64a24	-0.1202586
11	0x3c985a72	0.018597815
12	0xbce17b3b	-0.027524581
13	0x3e9bb72d	0.3041319
14	0x3e5e2ad6	0.21696028
15	0x3d0d320f	0.034471568
16	0xbe8ffadc	-0.28121078
17	0x3e7e5713	0.24837904
18	0x3e5e4983	0.2170773
19	0x3de38865	0.111099996
20	0xbe9da5fb	-0.30790696
21	0xbe558a47	-0.2085353
22	0x3e2304b1	0.15919758
23	0xbe94edcc	-0.29087675
24	0x3e046009	0.1292726
25	0x3d09e3f5	0.033664662
26	0x3e902ec5	0.28160682
27	0x3dc46ba4	0.09590843
28	0x3e1957a5	0.1497484
29	0x3ddd410f	0.108034246
30	0xbe1a643c	-0.15077299
31	0xbe3045f4	-0.17214185
32	0xbe98b440	-0.2982502
33	0xbd12b845	-0.035820264
34	0xbbd1409f	-0.0063858773
35	0xbdc04b02	-0.093893066
36	0x3d9bb2b7	0.076024465
37	0x3e5ae23c	0.21375364
38	0x3d08e1b1	0.03341836
39	0xbde0cafe	-0.10976218
40	0xbea006ba	-0.31255132
41	0xbe3da41d	-0.18519635
42	0x3de03a3d	0.10948608
43	0xbe879ecf	-0.2648835
44	0xbe944a29	-0.2896283
45	0xbb0d4e9e	-0.0021561752
46	0xbb55fc94	-0.003265177
47	0xbe69f663	-0.22847895
48	0x3d65446c	0.055973455
49	0x3dd600ed	0.10449395
50	0xbe6664f1	-0.22499444
51	0xbc400e7e	-0.011722205
52	0x3e24fa09	0.16111006
53	0x3e7f1225	0.24909265
54	0xbea336fc	-0.31877887
55	0xbe7cf00a	-0.24700943
56	0xbe3779a0	-0.1791749
57	0xbe25cbe1	-0.16191055
58	0xbe4a88cb	-0.19778745
59	0x3e734012	0.2375491
60	0xbca4d58d	-0.02012136
61	0xbe7d503b	-0.24737637
62	0xbe5934e5	-0.21211584
63	0xbe60b350	-0.21943402
64	0xbe8f0b82	-0.27938467
65	0x3d97f694	0.07420078
66	0x3a9b19f5	0.0011833297
67	0x3e3c0b2b	0.18363635
68	0x3e772d1e	0.24138305
69	0x3e4dbf51	0.20092513
70	0x3e83559e	0.25651258
71	0xbe4415f5	-0.19149001
72	0xbe6089a2	-0.21927503
73	0xbceb715d	-0.02874058
74	0xbd8c07af	-0.06837403
75	0xbccd2007	-0.025039686
76	0x39b32a54	0.00034173077
77	0xbe4a959b	-0.19783632
78	0xbe85c0ea	-0.26123744
79	0xbdfadf64	-0.1224964
80	0x3d8a0c66	0.06740646
81	0x3e28d342	0.16486838
82	0xbe98da04	-0.29853833
83	0xbe879fdd	-0.26489154
84	0xbc4865f0	-0.012231335
85	0xbdec6f48	-0.11544663
86	0xbe055336	-0.13020024
87	0xbe901467	-0.28140566
88	0x3e00ffda	0.125976
89	0xbd3ad611	-0.045614306
90	0x3e7be372	0.24598482
91	0xbe2e1e1a	-0.1700367
92	0xbe9884ee	-0.29788917
93	0xbc6d0c32	-0.01446824
94	0x3da88f8c	0.082305044
95	0x3e3e9510	0.1861155
96	0xbd8c3062	-0.06845166
97	0x3e84e539	0.25956133
98	0xbe3943ab	-0.1809222
99	0xbddfde08	-0.10931021
100	0xbe0e8f42	-0.13921836
101	0xbdeb2109	-0.1148091
102	0x3dd31dab	0.10308393
103	0x3e1b538b	0.15168588
104	0x3e962362	0.2932387
105	0xbe051e55	-0.12999852
106	0xbe369ef6	-0.17834076
107	0xbe04b9d1	-0.12961508
108	0x3dc2cc32	0.095116034
109	0xbdf458e8	-0.1193102
110	0xbde4deb2	-0.11175288
111	0x3d6a2f34	0.057173923
112	0xbe4f3ce8	-0.20238078
113	0x3e7ebff1	0.24877907
114	0xbe85717c	-0.26063144
115	0xbe24adc5	-0.16081913
116	0xbcce364b	-0.025172373
117	0xbe47f8ba	-0.19528475
118	0xbe03053e	-0.12794968
119	0x3e38d689	0.18050589
120	0x3c49c6cb	0.012315462
121	0xbcbdca28	-0.023167685
122	0xbe9367dd	-0.2879018
123	0xbddb4b22	-0.1070769
124	0xbddbb657	-0.10728138
125	0x3e802d76	0.25034684
126	0x3e022bea	0.12712064
127	0xbcfa0c0e	-0.030523326

conv.convs.1.bias f4 [64]
0	0x3c547020	0.012966186
1	0x3c9b1e56	0.018935364
2	0xbc5575c6	-0.013028568
3	0x3c55cb2a	0.013048926
4	0xbc74ea1f	-0.014948397
5	0x3a6284a6	0.0008640982
6	0x3c544577	0.012956015
7	0x3bb4530c	0.005503064
8	0x3c5444fe	0.012955902
9	0xbc3397e6	-0.010961508
10	0x3b43cf1b	0.0029878083
11	0xbc74eb33	-0.014948654
12	0x3b26790c	0.002540174
13	0xbba33b5c	-0.0049814414
14	0xbc5440b9	-0.012954884
15	0xbc74fc87	-0.014952785
16	0xbbeb4232	-0.007179522
17	0xbc555570	-0.013020858
18	0xbc544692	-0.012956278
19	0x3c5442e8	0.012955405
20	0x3c57b09f	0.013164668
21	0x3c56c2a0	0.013107926
22	0xbb43deca	-0.0029887431
23	0xbc8b7225	-0.017022202
24	0xbc56f211	-0.013119237
25	0xbb442002	-0.0029926305
26	0xbbe44300	-0.006965995
27	0xbc5533cd	-0.013012839
28	0xbc8acefa	-0.016944397
29	0x3c74e86b	0.014947991
30	0x3cd07843	0.02544797
31	0x3caf02e9	0.021363692
32	0x3c544439	0.012955719
33	0x3cab5f5e	0.020919498
34	0x3c544e74	0.012958158
35	0xbc756955	-0.014978726
36	0xbb43f7c3	-0.0029902316
37	0x3c544668	0.012956239
38	0xbbe6f7b3	-0.007048571
39	0x3c580394	0.013184447
40	0xbc12f5d4	-0.008969743
41	0xbc544d18	-0.012957834
42	0x3c544542	0.0129559655
43	0xbba33cd4	-0.0049816165
44	0x3c544669	0.01295624
45	0x3c35f94c	0.0111068
46	0xbbe48a7d	-0.006974517
47	0xbc12f068	-0.00896845
48	0x3ba33b84	0.00498146
49	0xbba306f8	-0.004975196
50	0x3c54455f	0.0129559925
51	0x3c544417	0.012955687
52	0xbc5665a2	-0.013085755
53	0x3cb9bb99	0.022672461
54	0x3c5447bd	0.012956557
55	0x3c5446d8	0.012956344
56	0xba848822	-0.0010111372
57	0x3b4443b0	0.0029947571
58	0xbc3398c4	-0.010961715
59	0x3c5447af	0.012956544
60	0x3c544403	0.012955668
61	0xbc1300c0	-0.008972347
62	0x3c5444e4	0.012955878
63	0x3c544388	0.012955554

conv.convs.1.lin.weight f4 [64, 64]
0	0x3e1de8b1	0.15420796
1	0xbcd8355a	-0.026392628
2	0xbdb7ee31	-0.08980978
3	0xbe3312cc	-0.17487639
4	0x3e18d579	0.14925183
5	0xbd9d62fa	-0.07684894
6	0xbcacd3f8	-0.021097168
7	0x3c462c1a	0.012095476
8	0xbd8272e1	-0.06369568
9	0x3e1b78b5	0.15182765
10	0xbda011e7	-0.078159146
11	0x3dbd51ee	0.092441425
12	0x3d36af66	0.044600867
13	0x3d8e1586	0.06937699
14	0x3e5db8c8	0.2165252
15	0xbe077bf0	-0.13230872
16	0xbdfa9120	-0.12234712
17	0x3de64cf4	0.112451464
18	0xbc754e44	-0.014972273
19	0x3e3e87ed	0.18606539
20	0xbd20552e	-0.039143734
21	0x3d945663	0.072430395
22	0xbd3b2668	-0.045690924
23	0x3d3d900b	0.04627995
24	0xbe325f03	-0.17419057
25	0xbe77bc55	-0.24192937
26	0x3dc6e4df	0.097116224
27	0xbe2954e4	-0.1653629
28	0xbd9f186f	-0.07768332
29	0x3cd7ddc1	0.026350858
30	0xbe019539	-0.1265458
31	0x3e26b5ae	0.16280243
32	0xbdc3a2ba	-0.09552522
33	0xbe1d6c9a	-0.1537346
34	0x3e0e59ad	0.13901396
35	0x3c6e9814	0.014562625
36	0xbdd9899f	-0.10621952
37	0xbe5ad949	-0.2137195
38	0x3c3561f9	0.011070722
39	0x3e3c8755	0.18411
40	0xbe2d5111	-0.16925456
41	0x3e224643	0.15847115
42	0xbdc3872e	-0.09547268
43	0x3cf3a006	0.029739391
44	0xbe11da41	-0.14243414
45	0x3dee0477	0.11621945
46	0x3e311f2d	0.17297049
47	0xbd9202d7	-0.07129448
48	0xbdf57195	-0.11984555
49	0x3e398399	0.18116607
50	0x3ce165b7	0.027514322
51	0xbde4da77	-0.11174481
52	0x3c3b4ae8	0.011431433
53	0x3bd6643a	0.0065427097
54	0xbe3b9315	-0.18317826
55	0xbe1308f4	-0.14358884
56	0xbd8e210c	-0.06939897
57	0xbe647a42	-0.22312263
58	0xbe311790	-0.17294145
59	0x3e69ce4d	0.22832604
60	0x3e55f77e	0.20895192
61	0xbd97ddba	-0.07415338
62	0xbdcac268	-0.09900361
63	0xbdc71dff	-0.09722518
64	0xbd3c7e1d	-0.04601871
65	0xbe2ca4cf	-0.16859744
66	0xbd953444	-0.072853595
67	0x3db52de9	0.08846647
68	0xbef74913	-0.4829794
69	0xbe03620a	-0.12830368
70	0xbe52f0c5	-0.20599659
71	0xbc089260	-0.00833568
72	0x3d2d2d38	0.042279452
73	0x3e10811f	0.14111756
74	0xbdfc0192	-0.12304987
75	0xba977a69	-0.0011556867
76	0x3ba3b28e	0.0049956506
77	0x3c995cb9	0.018720971
78	0x3d1e2699	0.03861103
79	0xbddd2b0b	-0.107992254
80	0x3cd367e7	0.02580638
81	0x3d995c3a	0.07488294
82	0xbe3c935c	-0.18415588
83	0x3ec1b9dd	0.37837115
84	0x3e15ac62	0.1461654
85	0x3e5e8091	0.21728732
86	0xbe5dd444	-0.21663004
87	0xbe2b97c5	-0.16757114
88	0xbe28ddd2	-0.16490868
89	0xbee7d021	-0.45275977
90	0x3deca13d	0.11554191
91	0xbdb53d26	-0.08849554
92	0xbd237b5e	-0.039912574
93	0x3dc1ed06	0.09469037
94	0xbdfac223	-0.1224406
95	0xbe4552fd	-0.19269939
96	0xbe13a47d	-0.14418216
97	0x3dda001d	0.10644553
98	0x3de00e25	0.10940198
99	0x3bf546f0	0.007485263
100	0xbd36b804	-0.044609085
101	0xbe37a202	-0.17932895
102	0x3e4356e7	0.1907612
103	0x3d5328e6	0.051552676
104	0x3ddcaa5a	0.107746795
105	0x3e3f4ae4	0.18680912
106	0xbe3e0453	-0.18556337
107	0xbdf28399	-0.118415065
108	0x3e44ee70	0.19231582
109	0xbcb2cb74	-0.02182553
110	0x3decd043	0.1156316
111	0x3e004d9c	0.12529606
112	0xbdecebc0	-0.11568403
113	0x3e00199a	0.12509766
114	0xbe0c5122	-0.13702825
115	0xbe402a65	-0.18766172
116	0x3e2a6454	0.16639835
117	0xbe3f3407	-0.1867219
118	0x3e0f6fbb	0.14007466
119	0xbe805392	-0.2506376
120	0xbd07a0f5	-0.033112485
121	0x3db18d2b	0.08669504
122	0xbd960d3c	-0.07326743
123	0x3e655d6a	0.22398916
124	0x3dc63483	0.096779846
125	0xbe04c565	-0.12965925
126	0x3d3b31b4	0.045701697
127	0x3d1bea38	0.038065165
128	0xbdc23e58	-0.094845474
129	0x3e546eec	0.20745438
130	0x3c2acc96	0.010424754
131	0xbe31137f	-0.17292593
132	0x3e5d3c9d	0.21605153
133	0x3e35bea4	0.17748505
134	0xbe5b6ff5	-0.21429427
135	0xbdd406a2	-0.103528276
136	0x3c936ace	0.017995264
137	0xbde0c474	-0.109749705
138	0x3d7e2ffd	0.062057484
139	0xbe80b04e	-0.2513451
140	0xbd656b3e	-0.056010477
141	0x3dde12ab	0.108434044
142	0x3e34b1c4	0.17645937
143	0xbdd1c766	-0.1024311
144	0x3dbb8302	0.09155847
145	0x3cec18ec	0.028820477
146	0x3e52c014	0.20581084
147	0xbec63b6d	-0.38717213
148	0xbe1e67f7	-0.15469347
149	0xbe84ae2e	-0.2591414
150	0x3dd6299b	0.10457154
151	0xbcdf49f7	-0.027256949
152	0xbe2cefc4	-0.16888338
153	0x3ee9fb89	0.4569972
154	0xbe0b0c36	-0.13578877
155	0x3d9f91b1	0.0779146
156	0xbd157d4b	-0.03649644
157	0x3dc0c81d	0.094131686
158	0xbd9dfdcd	-0.07714424
159	0x3de30db7	0.110866
160	0x3eb8fe5b	0.36131558
161	0x3d4b3ee3	0.04962052
162	0xbe2ba91b	-0.16763727
163	0x3e555a33	0.2083519
164	0x3dfadb2c	0.12248835
165	0x3dce4356	0.10071437
166	0x3e601197	0.2188171
167	0xbd8be388	-0.068305075
168	0xbd878114	-0.066164166
169	0x3c1a971c	0.009435441
170	0x3da4f142	0.08053829
171	0xbc5e18de	-0.0135557335
172	0xbb98c10a	-0.004661684
173	0xbe057525	-0.13032968
174	0x3dcf7279	0.10129256
175	0x3e1c7f64	0.1528297
176	0x3d47e9a4	0.0488068
177	0x3debb17c	0.11508462
178	0xbdbc8f96	-0.09207074
179	0xbc9b2694	-0.018939294
180	0x3dd7ba61	0.10533596
181	0xbd5121ec	-0.05105774
182	0xbe651b26	-0.22373638
183	0x3e09cc2c	0.13456792
184	0x3da71958	0.08159131
185	0x3dc5100e	0.09622203
186	0xbc747f52	-0.014922934
187	0xbc1a0dc0	-0.009402692
188	0x3d1ea9a4	0.038736
189	0x3d7bdc3b	0.061489325
190	0xbe1803cc	-0.14845198
191	0x3d2177e2	0.03942097
192	0x3bd14c30	0.006387256
193	0xbe53b998	-0.20676267
194	0xbe43ee1a	-0.19133797
195	0x3e611c25	0.21983393
196	0xbef3a405	-0.47586074
197	0x3e1b535f	0.15168522
198	0xbe20bf97	-0.15698086
199	0xbdaaa0fe	-0.08331488
200	0xbd80926b	-0.06277927
201	0x3de1d744	0.11027387
202	0x3e23f77f	0.16012381
203	0x3dc6ab58	0.0970065
204	0x3e1dde49	0.15416826
205	0xbdd46e16	-0.1037256
206	0x3e28e332	0.16492918
207	0xbe28f10f	-0.16498207
208	0x3e077230	0.13227153
209	0x3db69e00	0.08916855
210	0x3ddb008f	0.10693466
211	0x3e817dea	0.25291377
212	0x3e20f45d	0.15718217
213	0x3e493a12	0.19651058
214	0x3e23c5cb	0.15993421
215	0xbaf70ee6	-0.0018849045
216	0x3d9e7cf9	0.077386804
217	0xbdbc78f8	-0.092027605
218	0xbe3f1e70	-0.18663955
219	0xbe0001c5	-0.12500675
220	0xbcb1a016	-0.02168278
221	0xbdedbb37	-0.11607974
222	0xbc588ba1	-0.013216884
223	0xbd7f8629	-0.062383804
224	0xbdb44b35	-0.08803407
225	0xbe13fb26	-0.14451274
226	0xbe0ab3c2	-0.13545135
227	0x3c6e41b6	0.014542034
228	0xbe2a16d2	-0.16610268
229	0x3dca8c2a	0.098900154
230	0xbdf7132e	-0.12064205
231	0xbdf5eaa3	-0.12007644
232	0xbe18a2c8	-0.14905846
233	0xbd3a18f0	-0.04543394
234	0x3d9267bf	0.07148694
235	0x3e24aa9a	0.16080704
236	0xbd3cd930	-0.046105564
237	0xbe167098	-0.14691389
238	0xbe0b784b	-0.13620107
239	0x3e565496	0.20930704
240	0xbd1a3f6b	-0.037658136
241	0x3dcd2ba2	0.10018088
242	0xbe22ffb0	-0.1591785
243	0xbe4b2da2	-0.19841626
244	0xbe16f462	-0.14741662
245	0x3cd6db2b	0.026227554
246	0xbe0e8c4d	-0.13920708
247	0xbdb6d221	-0.08926798
248	0xbdc21263	-0.09476163
249	0x3dbe7dad	0.093013145
250	0xbe25adf9	-0.16179647
251	0x3d57adb7	0.0526559
252	0xbdf3b6a1	-0.11900068
253	0xbda0aa10	-0.07844937
254	0xbe1ec633	-0.15505295
255	0xbd31126d	-0.043230463

conv.convs.2.bias f4 [64]
0	0xbc3399da	-0.010961974
1	0x3c3398f0	0.010961756
2	0xbc339b53	-0.010962325
3	0x3c3399d8	0.010961972
4	0xbc339a0c	-0.010962021
5	0xbc339945	-0.010961835
6	0xba82dc2f	-0.0009983833
7	0x3c339cb6	0.010962656
8	0x3c339997	0.010961912
9	0xbc339953	-0.010961848
10	0xbc339a55	-0.010962089
11	0xbc339b76	-0.010962358
12	0xbc3399cd	-0.010961962
13	0xbc339d6b	-0.010962824
14	0xbc339953	-0.010961848
15	0xbc33990d	-0.010961783
16	0x3c33a607	0.010964877
17	0x3c339951	0.010961846
18	0x3c339ab4	0.010962177
19	0x3c33a21f	0.010963946
20	0xbc33994c	-0.010961842
21	0xbc339c2a	-0.010962525
22	0x3c339953	0.010961848
23	0xbc339c40	-0.010962546
24	0x3c33b03c	0.0109673105
25	0x3c12fa53	0.008970815
26	0xbc339e65	-0.010963057
27	0x3c339a67	0.010962105
28	0x3c33995f	0.0109618595
29	0x3c339a2a	0.010962049
30	0x3a8dfad4	0.0010832199
31	0xbc3399d3	-0.0109619675
32	0xbc3399e8	-0.010961987
33	0xbc12fce6	-0.0089714285
34	0x3c339a36	0.01096206
35	0xbc33be76	-0.010970702
36	0x3c339910	0.010961786
37	0xbc339c32	-0.010962533
38	0x3c339b21	0.010962279
39	0xbc339b82	-0.010962369
40	0x3c3399d9	0.010961973
41	0xbc339a0e	-0.0109620225
42	0x3c339dbf	0.010962903
43	0xbc339a83	-0.010962131
44	0x3c339d77	0.0109628355
45	0xbc339a53	-0.010962087
46	0xbc339907	-0.0109617775
47	0xbc33c0a4	-0.010971222
48	0xbc33aad5	-0.0109660225
49	0xbc3399e3	-0.010961982
50	0xbc339b22	-0.0109622795
51	0x3c339a30	0.010962054
52	0x3c339a78	0.010962121
53	0xbc339e1a	-0.010962987
54	0x3c12f943	0.008970561
55	0x3c339c00	0.010962486
56	0x3c339996	0.010961911
57	0x3c339a77	0.01096212
58	0xbc33993b	-0.010961826
59	0xbc33a0bc	-0.010963615
60	0xbc339a09	-0.010962018
61	0xbc339953	-0.010961848
62	0xbc33998a	-0.0109618995
63	0x3c339cde	0.010962693

conv.convs.2.lin.weight f4 [64, 64]
0	0xbe2bfaf9	-0.16794957
1	0x3e20a64c	0.15688437
2	0xbe4c2482	-0.19935802
3	0xbd863f97	-0.065550976
4	0x3e6db635	0.23214038
5	0xbe0809f7	-0.13285051
6	0xbe26f677	-0.16304956
7	0x3c7afe78	0.015319459
8	0x3d0592c9	0.03261069
9	0x3d975eed	0.073911525
10	0x3d5cda97	0.0539194
11	0xbd5b267e	-0.053503506
12	0xbddcf076	-0.10788052
13	0x3d9079be	0.070544705
14	0x3e6436bb	0.22286503
15	0x3ef62e4d	0.480822
16	0xbd9e57f4	-0.077316195
17	0x3e48376d	0.19552393
18	0x3e1885ae	0.14894745
19	0xbe251b55	-0.16123708
20	0xbe1221a7	-0.1427065
21	0x3dce673e	0.10078286
22	0xbd6b3d49	-0.057431493
23	0xbd987212	-0.07443632
24	0x3ace43eb	0.0015736794
25	0x3e6118bc	0.21982092
26	0x3e3db1df	0.18524884
27	0x3e46dd80	0.19420433
28	0x3ce1eceb	0.027578792
29	0xbd55daec	-0.052210733
30	0xbe439765	-0.19100721
31	0x3e904d5d	0.28184023
32	0xbde46924	-0.111528665
33	0xbc740aff	-0.0148952
34	0xbd1156fb	-0.03548334
35	0x3ed0585d	0.40692416
36	0xbe869a63	-0.26289663
37	0x3db47242	0.088108554
38	0x3e6d45d8	0.23171175
39	0x3e123601	0.14278413
40	0xbcd3f18b	-0.025872013
41	0xbe5865ca	-0.2113258
42	0x3e4ea880	0.20181465
43	0x3d8d1f32	0.06890716
44	0xbddd5abb	-0.10808321
45	0x3c10c6d4	0.008836467
46	0xbc336e09	-0.010951527
47	0x3de5c7c1	0.11219741
48	0xbe8f58bc	-0.27997386
49	0x3ec696c6	0.38786906
50	0xbb8d899c	-0.004319383
51	0xbe65caf8	-0.22440708
52	0x3e09cec1	0.13457777
53	0xbe85a70a	-0.26104003
54	0xbddbe84f	-0.10737669
55	0x3dc80aa4	0.097676545
56	0xbe7f8f3a	-0.2495698
57	0x3c2ce43a	0.01055246
58	0xbbc11066	-0.0058918474
59	0x3d09e7de	0.03366839
60	0x3d15291d	0.03641616
61	0x3e9b9007	0.30383322
62	0x3de0bd65	0.10973624
63	0xbe0b8f9b	-0.13629
64	0x3e450e28	0.19243681
65	0x3e57c1fb	0.21070091
66	0xbe291f4a	-0.16515842
67	0x3e45af53	0.19305162
68	0xbdeebd50	-0.11657202
69	0x3e4dc0af	0.20093034
70	0x3c06f02e	0.008235974
71	0x3e1da1d9	0.15393771
72	0xbd16ebaf	-0.03684586
73	0xbe18c53e	-0.14918992
74	0xbe186466	-0.14882049
75	0xbe46b9fc	-0.19406885
76	0x3e428d0c	0.18999118
77	0xbe1bf69b	-0.15230791
78	0xbe5bb2ec	-0.21454972
79	0xbe941290	-0.28920412
80	0x3c848939	0.016178714
81	0xbcda5bd0	-0.026655108
82	0xbcf8eb9e	-0.030385789
83	0x3e103572	0.14082888
84	0x3e4410c3	0.19147019
85	0x3e498c27	0.1968237
86	0x3da41216	0.08011262
87	0xbdfe90bf	-0.12429952
88	0xbe163141	-0.14667226
89	0xbe0f7cb9	-0.14012422
90	0x3d192acc	0.03739433
91	0xbceacb66	-0.028661441
92	0x3e1e93b0	0.15486026
93	0x3e644c44	0.22294718
94	0x3e1b12d1	0.15143897
95	0xbe89dddb	-0.26927075
96	0x3dd518c2	0.10405113
97	0x3cc46282	0.023972753
98	0x3dbe57a8	0.09294063
99	0xbed3f9be	-0.41401476
100	0x3d86f462	0.06589581
101	0xbe4407e9	-0.19143642
102	0xbe6c3f1a	-0.23070946
103	0xbe3ffef4	-0.187496
104	0xbe472c17	-0.19450413
105	0xbe03c4b7	-0.1286801
106	0xbe41dda0	-0.189322
107	0xbe5fe1e9	-0.21863522
108	0xbd9a5200	-0.075351715
109	0x3defb1f8	0.11703867
110	0x3e0b2d62	0.13591531
111	0xbcabc22d	-0.020966614
112	0x3e914c10	0.28378344
113	0xbe345afe	-0.17612836
114	0x3dbfced6	0.09365623
115	0x3e3e407c	0.18579286
116	0x3e212b7e	0.15739247
117	0x3e502cfb	0.20329659
118	0x3d0c8dab	0.034314793
119	0x3d690eb2	0.05689878
120	0x3e7fc78b	0.24978463
121	0x3e3854ce	0.180011
122	0xbe2894e8	-0.16463053
123	0x3e4310b6	0.19049343
124	0x3b9cdbc6	0.004786941
125	0xbe425947	-0.18979369
126	0xbe025252	-0.12726715
127	0xbd4e451a	-0.05035887
128	0x3db2538e	0.08707343
129	0x3c614cb3	0.013751197
130	0xbdb15ee9	-0.08660681
131	0xbd82a020	-0.06378198
132	0x3e0c5f30	0.13708186
133	0xbdcd7ac4	-0.10033181
134	0xbe0414b9	-0.1289853
135	0xbe453232	-0.19257429
136	0x3c217d58	0.009856544
137	0xbd85aebd	-0.06527469
138	0x3dd1eb1e	0.10249923
139	0xbdba115f	-0.090853445
140	0xbe855d94	-0.26047957
141	0xbde5daa1	-0.11223341
142	0x3e83aabe	0.25716203
143	0x3e171714	0.14754897
144	0xbe3a1402	-0.18171695
145	0xbd330905	-0.043709774
146	0xbe09ace0	-0.13444853
147	0x3dfecca8	0.12441379
148	0xbe36fc9c	-0.178698
149	0xbe347952	-0.17624405
150	0xbde9a856	-0.11409061
151	0xbda02c1c	-0.07820913
152	0x3df8a053	0.121399544
153	0x3df5ce8c	0.12002286
154	0x3d05fe90	0.032713473
155	0xbe0bbb38	-0.13645637
156	0x3e1eefc6	0.15521154
157	0xbe514ac0	-0.20438671
158	0x3dc5db82	0.096610084
159	0xbd17ef8e	-0.03709369
160	0x3e430061	0.19043113
161	0x3e4cf3c4	0.20014864
162	0x3d2b59fe	0.04183387
163	0x3edb2ed7	0.42809173
164	0x3e0c2acd	0.13688202
165	0x3d207b9a	0.039180376
166	0x3e87ae2b	0.26500067
167	0x3e069c94	0.13145667
168	0xbcab941a	-0.020944644
169	0x3de4eb58	0.11177701
170	0x3d589ba4	0.052882805
171	0x3da8e05b	0.082459174
172	0xbd54924e	-0.05189734
173	0x3e1ebbf8	0.15501392
174	0x3e83bdf1	0.2573085
175	0xbe30d10b	-0.17267244
176	0xbe39e26d	-0.18152781
177	0x3e8dc668	0.27690434
178	0xbda89c6d	-0.08232961
179	0xbbca8322	-0.006180183
180	0x3d80d4c0	0.06290579
181	0xbe18e652	-0.1493161
182	0xbce679ab	-0.028134188
183	0xbe2f88ec	-0.17142075
184	0xbe0790fc	-0.13238901
185	0x3d04633a	0.032321192
186	0x3e70186b	0.23446815
187	0x3e19c5c0	0.15016842
188	0xbd0a5bda	-0.033779003
189	0x3e97e62e	0.296678
190	0xbe578bf8	-0.21049488
191	0xbdedee52	-0.116177216
192	0x3d84c12f	0.06482159
193	0xbe380138	-0.17969215
194	0xbd90319a	-0.07040711
195	0x3d89887b	0.06715485
196	0xbd78c049	-0.060730252
197	0x3df9cdf5	0.12197486
198	0xbe03e72c	-0.12881154
199	0x3e1eada9	0.15495934
200	0xbdb6725a	-0.089085296
201	0x3d922c3e	0.07137345
202	0x3e685432	0.22688368
203	0x3d2e7c6a	0.04259912
204	0x3e4c2344	0.19935328
205	0xbdb8ec84	-0.09029487
206	0xbdb4ba01	-0.0882454
207	0xbf0036e8	-0.5008378
208	0xbe2d0af1	-0.16898705
209	0xbd23c4ac	-0.039982483
210	0xbdd7e6f1	-0.105420955
211	0x3e549449	0.20759691
212	0xbe13898f	-0.14407943
213	0xbb4ac8cc	-0.0030942438
214	0xbd4ed704	-0.050498024
215	0xbca959ea	-0.020672757
216	0x3dfd25c2	0.12360717
217	0xbd8bc9ab	-0.068255745
218	0xbd254df9	-0.040357564
219	0xbe48b1d8	-0.19599092
220	0xbd92ed3d	-0.07174156
221	0x3e7460ae	0.23865005
222	0xbc43cb34	-0.011950303
223	0xbea403e9	-0.32034233
224	0x3cb32c4c	0.021871708
225	0xbd939948	-0.072069705
226	0x3e6f10cd	0.23346253
227	0xbeb3a634	-0.3508774
228	0xbc8e2700	-0.017352581
229	0xbddd28f2	-0.10798825
230	0xbe4c9a6e	-0.19980785
231	0x3e214337	0.15748297
232	0xbe6a36f5	-0.22872527
233	0xbdb0b1ca	-0.086276606
234	0xbe02179e	-0.12704322
235	0xbdc6e0a6	-0.09710817
236	0xbe0e1a55	-0.13877232
237	0x3ce56742	0.028003339
238	0xbd05ba22	-0.032648213
239	0xbe293884	-0.16525465
240	0x3e5bc620	0.21462297
241	0xbeaf5a3c	-0.3424853
242	0xbc27e184	-0.010246638
243	0x3e2ae035	0.1668709
244	0xbe4be7ad	-0.19912596
245	0xbd334d5e	-0.043774955
246	0x3be73968	0.007056404
247	0xbe16ab04	-0.14713675
248	0x3e653c36	0.2238625
249	0x3e0f1e75	0.13976462
250	0xbe36d4ff	-0.17854689
251	0xbdb0ba9a	-0.086293414
252	0x3d102b9c	0.03519784
253	0xbe67f280	-0.226511
254	0x3dc00266	0.093754575
255	0xbc5520b8	-0.013008289

lin.weight f4 [64, 128]
0	0x3d3fe592	0.046849795
1	0xbcf991e7	-0.03046508
2	0xbc452b5c	-0.012034263
3	0xbca3be81	-0.0199883
4	0xbd8dd219	-0.069248386
5	0x3d941e35	0.07232324
6	0x3d9c57f0	0.0763396
7	0x3d0cb94a	0.034356393
8	0x3d5e8a09	0.05433086
9	0x3d97225a	0.07379599
10	0x3bf1bd1a	0.007377279
11	0xbb2b92d2	-0.002618004
12	0xbb87a3b7	-0.0041393894
13	0x3d126e15	0.035749514
14	0xbcd2dfe9	-0.025741534
15	0xbb13b0a5	-0.0022535708
16	0x3daee7e4	0.085403234
17	0x3d174c8c	0.036938235
18	0xbd2b75e5	-0.04186048
19	0x3d890b5e	0.06691621
20	0xbce6048a	-0.028078336
21	0xbd7d5f61	-0.06185854
22	0x3d870294	0.065922886
23	0x3cd3286a	0.025776107
24	0x3d9a65c8	0.075389445
25	0x3d786228	0.060640484
26	0x3b918783	0.004441203
27	0xbc89ec78	-0.01683639
28	0x3cec4a99	0.028844165
29	0xbbd3babd	-0.00646147
30	0x3c18451e	0.009293823
31	0x3d9f573d	0.07780311
32	0x3cfa31d2	0.030541334
33	0x3d7f49d0	0.062326252
34	0xbdb39459	-0.087685294
35	0x3d84c642	0.06483127
36	0x3d23142b	0.039814156
37	0xbda2f2ee	-0.079564914
38	0x3da0f039	0.07858319
39	0x3d1437ea	0.036186136
40	0xbcd32c91	-0.025778087
41	0x3bab8727	0.0052346173
42	0x3d951749	0.07279832
43	0xbd9fb28b	-0.07797726
44	0x3d81d0a5	0.06338624
45	0xbd4cd682	-0.050009258
46	0xbc832f49	-0.016013758
47	0xbd72f7c1	-0.059318308
48	0xbda0dd17	-0.078546695
49	0x3aabdbd4	0.0013111779
50	0xbda5b276	-0.08090679
51	0xbd1d722b	-0.038438957
52	0x3c6c7ccd	0.014434052
53	0xbd800476	-0.06250851
54	0xbd33878e	-0.043830447
55	0xbd130b48	-0.03589943
56	0x3cc8308f	0.024437217
57	0xbda0366f	-0.078228824
58	0xbbc81b52	-0.0061067725
59	0x3d0acf52	0.033889122
60	0x3d847ec3	0.064694904
61	0x3d43c031	0.04779071
62	0xbda6a511	-0.08136953
63	0xbd87dbd9	-0.066337295
64	0xbc7b577d	-0.015340683
65	0xbd5869ba	-0.052835204
66	0x3cee3379	0.029077278
67	0xbd21ecfc	-0.039532647
68	0x3d9df997	0.07713621
69	0xbda75fa6	-0.0817254
70	0x3d4a5428	0.049396664
71	0xbc34fb01	-0.011046172
72	0x3cd74387	0.026277317
73	0x3c333067	0.010936833
74	0xbcdb5759	-0.026775049
75	0xbda2a0bc	-0.07940814
76	0xbd7246c4	-0.05914952
77	0x3d498ac1	0.04920459
78	0xbc8f1695	-0.017466823
79	0xbd18f472	-0.037342496
80	0x3d8a3dbd	0.06750057
81	0x3d486a24	0.04892935
82	0x3d963d41	0.07335902
83	0x3d953388	0.072852194
84	0x3dafd638	0.08585781
85	0xbc3e3d5c	-0.011611309
86	0xbd3958b3	-0.045250606
87	0x3b6fd861	0.0036597478
88	0x3b950fe7	0.004549015
89	0x3d6fa580	0.058507442
90	0xbd1e0fc1	-0.038589243
91	0x3ccb83fb	0.024843207
92	0xbd917a44	-0.071033984
93	0xbd761dee	-0.060087137
94	0xbba91831	-0.0051603545
95	0x3caf33e5	0.02138705
96	0xbc8f80e4	-0.017517515
97	0x3bf247df	0.0073938216
98	0x3cf0abce	0.029378798
99	0x3b89f5af	0.004210196
100	0xbd8e7e75	-0.069577135
101	0x3d832e01	0.06405259
102	0xbb1ccece	-0.0023926976
103	0x3c81cc19	0.015844392
104	0xbd6a5636	-0.057211123
105	0x3db1b45c	0.08676979
106	0x3c92e757	0.017932577
107	0xbce37a49	-0.027768271
108	0x3d8ef863	0.0698097
109	0x3ceb706f	0.028740136
110	0xbc9056e7	-0.017619563
111	0x3d82c3a8	0.06384975
112	0x3d02d206	0.031938575
113	0x3da03a34	0.07823601
114	0xbb3428af	-0.002749007
115	0x3d753a7f	0.05987024
116	0x39c583ca	0.0003767296
117	0xbdb1275d	-0.08650086
118	0xbda12ba0	-0.07869649
119	0x3ccb6697	0.024829192
120	0xbc6c35d4	-0.0144171305
121	0xbd6527d2	-0.05594618
122	0xbd019e2e	-0.031644993
123	0x3d799ce3	0.060940634
124	0xbd5f183e	-0.05446648
125	0xbd03c0d1	-0.032166306
126	0x3d33771a	0.043814756
127	0x3ba8a62c	0.0051467624
128	0xbd2de2b9	-0.042452548
129	0xbcdcef48	-0.026969567
130	0xbd2703c3	-0.04077507
131	0x3b80812c	0.0039216485
132	0xbcd5ce0b	-0.026099226
133	0xbd7eef07	-0.062239673
134	0x3d04eb1e	0.032450788
135	0xbc9371b1	-0.017998548
136	0x3db25d11	0.08709157
137	0x3ba4a35d	0.0050243572
138	0xbd0f712e	-0.035020046
139	0xbd961b99	-0.073294826
140	0x3cc70e45	0.024298796
141	0xbd241b6c	-0.040065214
142	0xbd8eee5e	-0.06979059
143	0xbcf09056	-0.0293657
144	0x3d1959ce	0.03743916
145	0x3d7d88bf	0.06189799
146	0x3cf5b8f3	0.029995417
147	0xbd6cb43e	-0.05778908
148	0xbbfc9013	-0.0077076047
149	0x3db18e56	0.086697266
150	0xbc553220	-0.013012439
151	0x3d785f10	0.060637534
152	0xbd219036	-0.03944417
153	0xbd5d0455	-0.05395921
154	0x3da43e64	0.080197126
155	0x3da2fd18	0.0795843
156	0x3d83041b	0.063972674
157	0xbca42d3c	-0.0200411
158	0x3d38d3e2	0.045123942
159	0x3d9242d0	0.0714165
160	0xbd5562c0	-0.05209613
161	0xbcb5b099	-0.022178935
162	0x3c4b1678	0.012395494
163	0x3c316479	0.010827177
164	0xbda78fe1	-0.081817396
165	0x3d812dd6	0.06307571
166	0x3d82c0c1	0.06384421
167	0xba142935	-0.0005651892
168	0x3ca34975	0.019932488
169	0xbd7c9041	-0.06166101
170	0x3d4770c1	0.048691515
171	0x3cf78502	0.03021479
172	0x3cfcdc00	0.030866623
173	0xbd436300	-0.047701836
174	0x3cdb0148	0.02673401
175	0x3daed3f1	0.08536518
176	0xbc65cc80	-0.014025807
177	0x3da0faca	0.07860334
178	0xbd813095	-0.063080944
179	0x3c9a4de1	0.018835964
180	0xbd40e9ac	-0.047097847
181	0xbd976292	-0.07391848
182	0xbd88839f	-0.0666573
183	0xbb1f7628	-0.0024331901
184	0x3d10512b	0.035233658
185	0xbd385f17	-0.04501256
186	0x3d9c5128	0.07632667
187	0x3d8fec75	0.070275225
188	0xbdaf4e97	-0.08559912
189	0xbcfd0421	-0.030885758
190	0x3c802c7e	0.015646216
191	0x3c9351c3	0.017983323
192	0xbcf4996c	-0.029858314
193	0xbcbd65df	-0.023119865
194	0x3d8dd9e6	0.069263265
195	0x3c89df5e	0.016830143
196	0xbd75703a	-0.05992148
197	0x3d66c80d	0.056343127
198	0xbd6ffabb	-0.058588725
199	0xbd8364e2	-0.06415726
200	0x3d966dd2	0.07345165
201	0xbd77f1d6	-0.060533367
202	0x3da7c838	0.081924856
203	0xbd3dea44	-0.04636599
204	0x3d5b4475	0.053532083
205	0xbd30eeb2	-0.043196388
206	0xba5376ae	-0.0008066696
207	0x3950e23e	0.00019920708
208	0x3da80ce5	0.082055844
209	0x3c752fe1	0.0149650285
210	0x3d0cf2d4	0.034411266
211	0xbd9bb834	-0.07603493
212	0xbd93b353	-0.07211938
213	0xbd1959d7	-0.037439194
214	0x3be92f8b	0.0071162633
215	0xbcd51812	-0.026012454
216	0xbd19608c	-0.03744559
217	0x3d7e74a4	0.062122956
218	0xbb95edd8	-0.0045754723
219	0x3d85e37e	0.06537531
220	0xbd6763f0	-0.056491792
221	0xbd1eccc6	-0.038769506
222	0x3c513e9c	0.012771275
223	0xbd8253a0	-0.063636065
224	0x3d828fab	0.06375059
225	0x3db0baff	0.08629417
226	0x3d1d6c09	0.03843311
227	0xbd404587	-0.046941306
228	0xbcbd1bfa	-0.02308463
229	0xbcb8527f	-0.022500275
230	0xbc8164d0	-0.015795141
231	0xbc0503ca	-0.008118579
232	0x3c548b4b	0.012972663
233	0x3d9eebe7	0.077598386
234	0x3cbd343d	0.023096198
235	0x3d7030a5	0.05864014
236	0xbbb3dda5	-0.0054890686
237	0x3d90b892	0.07066454
238	0xbd3029f4	-0.04300876
239	0xbdad2bb9	-0.08455605
240	0xbc91f320	-0.017816126
241	0x3d990792	0.07472147
242	0x3c5b106b	0.013370614
243	0xbcec651d	-0.028856808
244	0xbd6187b3	-0.055061053
245	0x3c5731e5	0.013134454
246	0x3da13927	0.07872229
247	0xbc9802bd	-0.018555993
248	0x3bdaa0ea	0.0066720145
249	0x3d88965d	0.066693045
250	0xbd819ecb	-0.063291155
251	0xbc8315fc	-0.016001694
252	0xbc36c706	-0.011155849
253	0xbcaf256b	-0.021380147
254	0x3d8aa57c	0.06769845
255	0x3d57d0c5	0.052689333

lin.bias f4 [64]
0	0xbda5b75a	-0.08091612
1	0xbd04ecc0	-0.032452345
2	0x3c881b87	0.016614689
3	0xbd068eaf	-0.032850917
4	0xbbf0beb8	-0.007346954
5	0xbd721c1b	-0.059108835
6	0xbd402984	-0.046914592
7	0xbd69f1a8	-0.057115227
8	0xbdab4643	-0.08363011
9	0x3c214aa9	0.0098444605
10	0x3d363bbf	0.044490572
11	0x3d92fbbb	0.0717692
12	0xbd0cec52	-0.03440506
13	0xbb34d6cf	-0.0027593856
14	0xbc85a179	-0.016312348
15	0x3d9aaea6	0.07552843
16	0xbd20c603	-0.03925134
17	0x3cf2d7a2	0.029643837
18	0xbd3cdce1	-0.046109084
19	0xbd5f2246	-0.054476045
20	0x3d8a2b56	0.06746547
21	0xbda3c75c	-0.07997009
22	0x3cd1a6d1	0.02559224
23	0xbd12edac	-0.035871193
24	0xbd8ce7be	-0.06880139
25	0xbc9c3a0c	-0.019070648
26	0xbd0b06df	-0.0339421
27	0x3d8d10cb	0.06887969
28	0x3d10e19b	0.035371404
29	0x3d8009b4	0.06251851
30	0xbce7feac	-0.02831968
31	0xbd96965e	-0.07352899
32	0xbc943091	-0.018089565
33	0xbcc05b45	-0.02348102
34	0x3d1b199a	0.037866212
35	0xbd8a6412	-0.06757368
36	0xbdb0ec37	-0.086388044
37	0x3d2797c2	0.040916212
38	0xbcd682cc	-0.026185416
39	0xbd18de78	-0.037321538
40	0x3db456ba	0.08805604
41	0xbd2689b3	-0.040658664
42	0xbd79e902	-0.06101323
43	0x3cb98a5a	0.022648979
44	0xbd9d0b8a	-0.076682165
45	0xbd9305da	-0.071788505
46	0x3b91721f	0.004438653
47	0xbcc56661	-0.02409667
48	0x3d796350	0.060885727
49	0x3d99e8c2	0.07515098
50	0x3c2de399	0.010613346
51	0xbda62d76	-0.0811414
52	0xbc4f8116	-0.012665054
53	0x3d059c99	0.032620046
54	0x3c3f217e	0.0116657
55	0x3d038e80	0.03211832
56	0xbc0b5f81	-0.008506657
57	0xbbd39543	-0.0064570024
58	0xbd507a47	-0.050897863
59	0xbd1e7c9e	-0.038693063
60	0xbd281f0f	-0.041045245
61	0x3d971a0a	0.073780134
62	0x3c10e74f	0.008844211
63	0x3cba5183	0.022743946

out.weight f4 [2, 64]
0	0xbdc4f0dc	-0.09616253
1	0x3ec49b7f	0.38399884
2	0xbe1da338	-0.15394294
3	0x3df0ef86	0.117644355
4	0xbde4b373	-0.1116704
5	0xbddaa688	-0.106762946
6	0x3d18416d	0.03717177
7	0x3d86a2af	0.06573998
8	0x3cc5408d	0.024078632
9	0xbe22a737	-0.158841
10	0xbec959b8	-0.39326262
11	0x3d2da758	0.04239592
12	0xbdbbe3de	-0.091743216
13	0xbd901ec4	-0.07037118
14	0xbdb75fe3	-0.08953836
15	0xbe03dc18	-0.12876928
16	0xbd599b6d	-0.05312674
17	0x3e3f4836	0.1867989
18	0x3ec71171	0.38880494
19	0xbcd93023	-0.026512211
20	0xbde2b486	-0.11069588
21	0xbc2c3910	-0.010511652
22	0x3daf77e6	0.08567791
23	0x3c710b13	0.014712113
24	0x3da7ed13	0.08199515
25	0x3e76562e	0.24056312
26	0xbd9ca4cc	-0.0764862
27	0x3d2d74ae	0.042347603
28	0x3ec58f0e	0.38585705
29	0x3e4c4cbf	0.19951151
30	0xbdc08957	-0.094011955
31	0xbec10576	-0.3769948
32	0xbdbe42ad	-0.09290061
33	0x3d8b0a00	0.06789017
34	0x3bb486f5	0.005509252
35	0xbd1f53fc	-0.038898453
36	0x3ded230b	0.115789495
37	0xbde33c5b	-0.11095496
38	0x3da81bfa	0.08208461
39	0x3c623e62	0.0138088185
40	0x3c9a9611	0.018870385
41	0xbdab8c2c	-0.08376345
42	0x3e826307	0.25466177
43	0xbdeb12cb	-0.11478194
44	0x3e769092	0.24078587
45	0x3b0f1a9c	0.0021835929
46	0xbe8c6aa9	-0.27425125
47	0x3d90c051	0.070679314
48	0x3e5128c2	0.20425704
49	0xbd9ee171	-0.07757843
50	0xbe5c9e9d	-0.21544881
51	0x3ddab6f7	0.10679429
52	0x3d874258	0.06604451
53	0xbe3324c9	-0.17494501
54	0x3e81f6f0	0.2538371
55	0x3db7f012	0.08981337
56	0x3e1d5d25	0.15367563
57	0x3d3bf163	0.0458845
58	0xbd43b770	-0.04778236
59	0x3d620bdc	0.05518709
60	0xbdbd1396	-0.09232251
61	0xbd751a23	-0.05983938
62	0xbe77c884	-0.24197584
63	0x3dc32a2a	0.095295265
64	0x3ce721fa	0.028214443
65	0xbec0e592	-0.37675148
66	0x3e0a6ec8	0.13518822
67	0xbd076924	-0.033059254
68	0x3c7d7b62	0.015471311
69	0x3da0cb01	0.0785122
70	0x3d4a15fa	0.049337365
71	0x3c605a12	0.013693349
72	0xbe070070	-0.1318376
73	0x3e2805a1	0.16408397
74	0x3ea4f3a3	0.3221713
75	0x3dea4021	0.11438013
76	0x3d1ebb5f	0.03875291
77	0xbcd53e62	-0.026030723
78	0x3db12b0d	0.086507894
79	0x3dcef4a5	0.10105256
80	0xbd934491	-0.071908124
81	0xbe807b02	-0.25093848
82	0xbe5ee301	-0.21766283
83	0xbd6d538d	-0.05794101
84	0x3d9f8096	0.07788198
85	0x3d4a9814	0.04946144
86	0xbddfedd5	-0.10934035
87	0x3d931ff4	0.07183829
88	0x3d885d57	0.06658428
89	0xbe4d4bee	-0.20048496
90	0xbd220852	-0.039558716
91	0xbd858f1e	-0.06521438
92	0xbeb40ef1	-0.3516765
93	0xbe329ba7	-0.17442189
94	0xbdc8a57b	-0.09797188
95	0x3eabd0fa	0.33557874
96	0x3cf4559d	0.02982598
97	0x3ddb7205	0.10715107
98	0xbddbdbd5	-0.10735289
99	0xbce4ddd9	-0.027937816
100	0xbde461a1	-0.11151434
101	0xbd58f687	-0.05296948
102	0x3b94a356	0.0045360727
103	0x3dada544	0.084787875
104	0xbdee7f66	-0.11645393
105	0x3d087648	0.033315927
106	0xbe2e915f	-0.17047642
107	0xbca0e5e5	-0.019640872
108	0xbeb6fca7	-0.35739633
109	0x3de4c7b9	0.111709066
110	0x3e97648a	0.29568893
111	0x3da62d6d	0.08114133
112	0xbec02b1f	-0.375329
113	0x3d697299	0.056994054
114	0x3ea5a1da	0.32350045
115	0xbbd55f38	-0.006511595
116	0xbd19717e	-0.03746175
117	0x3e33cc47	0.17558394
118	0xbed24b4f	-0.4107308
119	0x3ce46534	0.027880289
120	0xbd72cc86	-0.05927708
121	0xbd6b8122	-0.057496198
122	0x3e05618e	0.13025495
123	0x3d9eded2	0.07757343
124	0x3e46ce96	0.19414744
125	0x3deac50f	0.11463367
126	0x3e2157fd	0.15756221
127	0x3d3a9b7e	0.045558445

out.bias f4 [2]
0	0xbd3b901d	-0.045791734
1	0x3b4fa8be	0.0031686272
