baseline_explainers/gnninterpreter/ckpts/treegrids_ckpt.pt (torch, 71523 bytes, 10 tensors)

conv.convs.0.bias f4 [64]
00000000: 74b6 02bc cf77 fd3b ae8b 2bbd 001a 03b6
00000010: 5ca1 643c 5cf0 8e3d 30ce 023b 0196 823b
00000020: 3153 6dbd 742e f5bc c9be 613c 5140 4c3d
00000030: 4aad 023c 63f4 c33b 00c4 f7b5 82e9 03bb
00000040: 9dec c3bb 964e 433c 44e5 c33b f730 d53c
00000050: adb2 063e 1379 a33d 8069 08b8 4a01 8abd
00000060: 1fbc 02bb 8845 08bb 64e9 c33b 22e3 0cbb
00000070: 0757 233c ae9f 643c 3bac 643d 70c6 c1bb
00000080: d494 23bc 0159 a3bc 2dd5 b3bc 9ca1 643c
00000090: 4d3c 233c 05a5 e43c d806 753d 74ea ecbd
000000a0: b2b8 82bb d881 02bd 501f 03bc 3f02 d4bc
000000b0: 3eaf 333d 9949 233c 8100 443d 0eab 82bc
000000c0: 703c 44bd ec4e 56be 2ac4 86bd e041 01bb
000000d0: 662c 1b3d 7e57 a4bc 6872 653c e99f 643c
000000e0: 44ad 82bc b53e 2abd 3c72 833b 2027 b83d
000000f0: 517f e4bc ce14 153d a3b1 643c c803 c4bb
-0.0079780705 0.0077352296 -0.041881256 -1.9535655e-06 0.013954487 0.06979439 0.0019959323 0.003985167
-0.057940666 -0.029929377 0.013778397 0.049866024 0.007975886 0.005980061 -1.8459978e-06 -0.0020128195
-0.0059791342 0.011920592 0.0059782583 0.026024325 0.13154097 0.079820774 -3.252318e-05 -0.06738527
-0.0019948555 -0.0020793397 0.00597875 -0.0021497686 0.009969479 0.013954086 0.055828314 -0.005913548
-0.009984214 -0.019939901 -0.021952236 0.013954546 0.009963107 0.027910719 0.05982098 -0.11568156
-0.0039893026 -0.03186211 -0.008003071 -0.025879977 0.043868296 0.0099662775 0.047852043 -0.015950706
-0.0479092 -0.20928544 -0.06580384 -0.0019723102 0.03788414 -0.02006125 0.014004327 0.013954141
-0.01595176 -0.04156371 0.0040114205 0.089918375 -0.02789274 0.036396794 0.0139583675 -0.005981896

conv.convs.0.lin.weight f4 [64, 2]
00000000: a68f 12be 21b7 3c3e 2363 95be 0d20 20be
00000010: 2806 0b3e 5984 a93e 0d80 543e 727f fe3d
00000020: 620d 4bbe 4278 db3d 8366 ecbd c9f0 35bd
00000030: 4b50 3ebd 6725 973e 7cf6 523e cf3d f13c
00000040: 4fb6 67be eb57 9c3e 64c8 713e e89a 133e
00000050: 64ba 82be 2dd4 8ebd 470b 263e cc98 9bbe
00000060: 8f75 073e 951a ba3c cfc6 933e 56b6 d23d
00000070: d1bc 2a3e cdf3 f73d cb06 05be 2121 29be
00000080: a754 9bbe 62bd 3fbd e517 883c 5a30 91bd
00000090: 4f6a be3d 1397 7c3e 3667 353d cac7 e6bd
000000a0: 0456 2ebe cc45 e6bd fab5 c53d 7b6b 95be
000000b0: f6e8 98be f075 053c ad98 34bd 1b27 a7be
000000c0: 4a92 9d3d 53a3 f03d de32 87be b8a8 1cbe
000000d0: 1399 423e a145 8a3e 7f86 61be 0a43 1bbe
000000e0: e638 1ebe 2b2e 0abe 3029 37be e458 833e
000000f0: f874 b93c 6568 4fbe c477 68be 5cce 81be
00000100: 3ec1 98be 8fd9 3b3c 177a 343d a07f 8b3e
00000110: 039f 7c3e fd84 713e 2b17 8f3e ac19 f7bd
00000120: cad8 5fbe fd58 833b 8037 17bd 196e 08bc
00000130: 4120 203d a7d6 1ebe a741 07bd a08d fe3d
00000140: 5bbb 7f3d 6475 153e 2005 8fbe 2277 61be
00000150: 92d5 18bd 2011 abbd 6a8a 0bbe a407 97be
00000160: 6f7a 163e 9d7f eebd 25f1 7c3e e1ea 53be
00000170: 4ba8 84be cd0f 1b3d ce4c 9a3d 1622 273e
00000180: ed84 3c3e 291b a13e ac48 e4bd 1e3a a5be
00000190: 1817 1abe ea71 79bd c865 833d bb05 683e
000001a0: 48b1 973e 9c2d 37be 521d afbd f025 debc
000001b0: 7bc7 4a3e 828d 9cbd d656 cabd a0e6 cc3d
000001c0: 4400 42be 3617 893e 41e7 89be 786c 71be
000001d0: f7da 6abc e95f 57be 07f9 59be 4d45 3b3d
000001e0: 2821 a8bc 8b41 1bbd ef0e 93be 6890 1bbe
000001f0: b0e0 acbd 8405 6f3e 2a0c f23d 8573 11bd
-0.1431261 0.18429233 -0.29177198 -0.15637226 0.13576567 0.33108786 0.20751972 0.12426652
-0.19829324 0.10716297 -0.1154299 -0.044419084 -0.046463292 0.29520723 0.20601839 0.029448418
-0.22628139 0.30535826 0.23611599 0.14414561 -0.2553283 -0.06974063 0.1621524 -0.30390012
0.13228439 0.022717753 0.28862616 0.10288684 0.1667359 0.12107048 -0.12990873 -0.16516544
-0.30338022 -0.04681147 0.016612956 -0.070893005 0.092976205 0.24667005 0.044287883 -0.112685755
-0.17025 -0.112437814 0.0965385 -0.29183564 -0.29865235 0.008145794 -0.044090915 -0.32647023
0.07693918 0.117499016 -0.26405996 -0.15298736 0.19003706 0.27006248 -0.22023962 -0.15162292
-0.15451393 -0.13494174 -0.17886806 0.25653756 0.022638783 -0.20254667 -0.22701937 -0.25352752
-0.29834932 0.011465444 0.044061746 0.27245808 0.24670033 0.23585887 0.27947363 -0.120654434
-0.21860042 0.004008411 -0.036918163 -0.008327031 0.03909326 -0.15511571 -0.033021595 0.124293566
0.062434535 0.14595562 -0.27933598 -0.22018102 -0.03731305 -0.08352876 -0.1362702 -0.29498017
0.14695142 -0.11645434 0.24701364 -0.20695068 -0.25909647 0.037856866 0.075341806 0.16321597
0.18410082 0.31466034 -0.111466736 -0.32270902 -0.15047872 -0.060899653 0.064158976 0.22658436
0.29627442 -0.17888492 -0.08550514 -0.0271177 0.19802658 -0.07644178 -0.09879844 0.10004926
-0.18945414 0.2677552 -0.26934245 -0.23576534 -0.014334432 -0.2103268 -0.21286403 0.045720387
-0.020523623 -0.037904304 -0.2872233 -0.15191805 -0.08441293 0.23341948 0.11818726 -0.03551056

conv.convs.1.bias f4 [64]
00000000: daf3 033c b65c 23bc a89c 643c c38b d43c
00000010: 845d d4bc 9998 223c c818 c43c 21ac d43c
00000020: 925c d43c 71d6 33bd 8d05 13bd 355d d4bc
00000030: 0659 a33c 19af 82bc ea5c d4bc 8d4e 233c
00000040: bca4 823c f2c3 64bc 44b3 e4bc ae5d 02bc
00000050: 909f d43c 0186 d43c ba5e d4bc c81e 6dbd
00000060: 8f69 023b 009e 82bb f6cb 86bd 80a2 b33c
00000070: f6da 0abd 61ab 823c e394 d43c 4d57 d43c
00000080: 9a0a f53c 3070 343d 62ac c53b e69d 643c
00000090: ad59 d4bc 12d6 073b b307 f5bc e67b d43c
000000a0: 06c9 02bb 225d d4bc 8f1b 1bbd 3801 f5bc
000000b0: 5eea 8ebd edaa d43c eddd 0abd 2f5d d4bc
000000c0: 4b9f 443c 685d a3bc 365d d43c e000 3938
000000d0: a259 033c 9ca9 643c d00c 13bd a289 5cbd
000000e0: 6b70 943c 6cbf b33c 20df 3bbd 62b1 33bd
000000f0: 465d d43c ebb2 64bc 574e 443c 08b5 643c
0.008053744 -0.0099708345 0.013953365 0.02594555 -0.025923498 0.009924077 0.023937598 0.025960984
0.025923047 -0.04390568 -0.035893966 -0.02592335 0.01993991 -0.015952634 -0.025923211 0.009967458
0.015947692 -0.013962733 -0.027917512 -0.007956905 0.025954992 0.025942804 -0.025924075 -0.057890683
0.0019899344 -0.00398612 -0.06581871 0.021928072 -0.033900224 0.01595086 0.025949901 0.025920535
0.029912282 0.044052303 0.0060325125 0.013953662 -0.025921667 0.002072696 -0.029910898 0.025937986
-0.0019956245 -0.025923315 -0.03786808 -0.029907808 -0.06978296 0.02596041 -0.03390305 -0.02592334
0.012000869 -0.019942 0.025923353 4.4108252e-05 0.008016976 0.013956454 -0.03590089 -0.053842194
0.018120011 0.021941863 -0.045867085 -0.043870337 0.025923382 -0.013958673 0.011981568 0.013959177

conv.convs.1.lin.weight f4 [64, 64]
00000000: 404d ff3c a9cd 2ebc 88bd d7bd 1e77 46be
00000010: cfa5 1d3e f337 8dbe 0d71 e5bc f773 11bc
00000020: 2a2c 3fbe 3422 073e e46a 83bd 1d42 b93d
00000030: e8ae be3c 9a05 473d 4060 4a3e 9968 f2bd
00000040: d31d dbbd daa8 083e 368b 02bd 0cb2 863c
00000050: d1dc 3fbe cba8 35bd 63d4 02bd 8b31 483d
00000060: 01c1 45be e7aa 76bc 3039 a43d 2b4c 1abe
00000070: 9acb 84bd 6282 e0bd f280 66be 7762 363e
00000080: 9b4a f23b 34e3 03be ea01 f73d bec2 63bc
00000090: d3ac d7bd e0e5 78be e757 29bd 9faf 493e
000000a0: 8283 3ebe 24a9 323e 9a78 223e f0bc 363d
000000b0: 95a0 2ebe 9cee ad3d 7819 503d ad82 acbd
000000c0: f9b1 01be d829 4a3e c18a 2a3d 76bd 01be
000000d0: a428 8dbc 89ee 8f3c a6f1 38be 8436 05be
000000e0: 4570 b8bd 00fa b3bc fa97 2fbe 39ff 203e
000000f0: ea6f 4c3e 6d58 6dbd fd20 28be 463a 00be
00000100: 7866 4dbe 4879 27be 7cdc b3bd 96ea a63d
00000110: 558f 91be 455c 263e 9485 6cbe ed47 afbb
00000120: a81a b0be 8f6c 0b3e 66b4 edbd 2422 66bd
00000130: f18f c43b 3c3b 613c ae9c 013d 741b c3bd
00000140: 5cc7 bd3c 2b63 f23d 9cdf 49be 0ed0 ca3d
00000150: b680 d23e 4847 a93d ec86 65be 0a29 14be
00000160: 7c29 36be cf5c 17be 3e20 d23d b12c a6bd
00000170: ead2 f7bc 54f4 683d 6d01 f6bb ec34 38be
00000180: a6f9 18bd b12a af3d b4b1 cd3d ff80 253d
00000190: 529a 44bd 2bcd 633d 5317 833e 1a72 613d
000001a0: 4010 be3d 680c 4c3e 9310 2bbe abd1 d7bd
000001b0: 94da 6c3e 6cce 143c d12f cb3e e0ed dd3d
000001c0: cf03 10be 7659 0d3e 9c60 03be 338b 51be
000001d0: aafc 453e 847c 3bbe d5c8 223e f860 9bbd
000001e0: 14a8 00be f1f9 cb3d c7d6 46bd 4d56 003e
000001f0: bbd5 3b3d fd98 01be 1498 893c 0fa7 793d
00000200: a982 04be 9647 403e 5475 5c3b 91af 1abe
00000210: df52 9d3d 65c3 f23e b3ed 68be 452d 9dbd
00000220: 8b6f dfbd dd07 b2bd 498a 303d 3eeb a9bd
00000230: a80d 00bd b44b 063e 3312 4c3e e717 edbd
00000240: b821 8d3d 0c41 bf3d 92cd 5f3e bfc3 c0bc
00000250: a4d3 c63d a81e 553b 3733 983d 728a 9bbc
00000260: bfb2 19be a131 203e e91c f0bd a084 743d
00000270: edd7 4cbd a9b4 b23d b9f6 243d ffe2 c33d
00000280: a6c2 1e3e e822 c53c 572c 16be 0b94 7a3e
00000290: ed21 d23d f28a 973e dacb 8c3e e9b6 b1bd
000002a0: c6d9 72bd baaa ecbb 9f79 933d 19b6 c0bc
000002b0: 7288 f13c e8a6 a7bd 3b7d b93e 5e3b 153e
000002c0: 9baa e03c 1859 c83d d755 d3bd 5a48 66bc
000002d0: 2b7c 1a3e c444 92bd 2e57 3fbe 9147 c3bd
000002e0: 43a1 30bd 07b5 c4bc 26f6 f23a 8357 923b
000002f0: 8cea a13d b050 303d 3829 28be 8271 a83d
00000300: 7afc 4fbd 2355 43be 1028 55be a3d7 4e3e
00000310: 4889 4bbe 4974 51bd 43d8 2bbe d363 d5bd
00000320: 2efe f7bd 0547 b93d fbdc 323e afd5 623c
00000330: 095e 083e 5fa4 febd 92a4 153e a6bc 1cbe
00000340: 9e9e 173e 7bce e93d 460f bd3d 59bc 02bd
00000350: 83a2 a53b 98ef 68bd 043b 343e 614f 823b
00000360: f01e 783d c930 493e ef0c 50be 68ee e3bd
00000370: 51a7 1ebc 534f 28be a7dc f2bd 7e75 4abd
00000380: 6a31 d33d 417d 1cbe a6c9 1bbe c0f7 f8bb
00000390: bf1b 25be 1188 8d3d 3c33 2dbe 695c dabd
000003a0: 09c4 29be 42d8 08bd 6ffe b33d 54ef 303e
000003b0: 28f7 82bd 6e47 3fbe b974 8abe 5f53 453e
000003c0: 701b 45bd 417d e93d 3c0c 1cbe 9662 5cbe
000003d0: 1708 37be 640d 293d 50c9 1abe 9e79 0c3e
000003e0: 74e7 67bd 76ad 543e e7f3 1cbe 70d1 9439
000003f0: 76e7 2bbe c2e8 80bd e723 27be c710 97bd
0.031164765 -0.01066915 -0.10534197 -0.19381377 0.15395282 -0.27581748 -0.028008008 -0.008877746
-0.18669191 0.13196641 -0.06416872 0.09045813 0.023276761 0.048589326 0.19763279 -0.11836357
-0.10699048 0.13345662 -0.031871043 0.016442321 -0.18736579 -0.044350427 -0.03194083 0.048875373
-0.19311906 -0.015055395 0.0801872 -0.15068118 -0.064841464 -0.109623685 -0.22510126 0.17810999
0.0073941476 -0.1287964 0.12060912 -0.013901411 -0.105310105 -0.2430644 -0.041343596 0.196959
-0.18604854 0.17447335 0.15866318 0.04461378 -0.17053445 0.08492777 0.05080554 -0.08423362
-0.12665547 0.19742525 0.041636232 -0.1266993 -0.017231293 0.017569797 -0.18060932 -0.13009077
-0.09005789 -0.021969795 -0.17147818 0.1572236 0.19964567 -0.057945658 -0.16418834 -0.1252223
-0.2005862 -0.16354859 -0.087822884 0.081502125 -0.28429666 0.16246136 -0.23097831 -0.0053491504
-0.34395337 0.1361563 -0.11606674 -0.056184903 0.0059986045 0.013747033 0.031643562 -0.09526721
0.023166351 0.11835321 -0.19714206 0.099029645 0.41113824 0.08265549 -0.2241475 -0.1446878
-0.17789263 -0.14781497 0.10260056 -0.08113993 -0.030251939 0.056873634 -0.007507494 -0.17988938
-0.03734746 0.085530646 0.1004366 0.040406223 -0.047998734 0.055615585 0.25603732 0.055040456
0.09280443 0.19926608 -0.16705541 -0.10538038 0.23130256 0.009082418 0.3968492 0.10836387
-0.14063953 0.13803658 -0.12829822 -0.20463257 0.19334665 -0.18309218 0.15896924 -0.07586855
-0.12564117 0.09959782 -0.04854467 0.12532921 0.045858126 -0.12656017 0.01679615 0.060950335
-0.12940468 0.18777308 0.003363927 -0.15106036 0.07681822 0.474147 -0.22746925 -0.0767465
-0.10909947 -0.08692906 0.04310063 -0.08296822 -0.031263024 0.13114816 0.19928817 -0.11576825
0.06891197 0.093385786 0.21855763 -0.023530839 0.09708336 0.0032519493 0.074316435 -0.018986914
-0.15009592 0.15643932 -0.11724264 0.059696794 -0.05001061 0.087258644 0.040274356 0.095647804
0.1550394 0.024064496 -0.14665352 0.24470536 0.10260377 0.29598194 0.27499276 -0.086774655
-0.059289716 -0.0072225006 0.07200932 -0.02352433 0.029484008 -0.08186132 0.36228356 0.14573428
0.027425101 0.09782618 -0.10319107 -0.014055336 0.15086429 -0.07142022 -0.186856 -0.095351346
-0.04312254 -0.024012102 0.0018536493 0.0044659986 0.079060644 0.0430457 -0.16421974 0.08224775
-0.05077789 -0.19075446 -0.20816064 0.20199446 -0.19876587 -0.05113629 -0.16781716 -0.104194306
-0.12109028 0.09046749 0.1746711 0.013844891 0.13317122 -0.12433695 0.1461356 -0.15306339
0.14806601 0.11416336 0.09231429 -0.031917904 0.0050547733 -0.05686912 0.17600638 0.003976748
0.06057638 0.19647516 -0.20317434 -0.11129457 -0.009683446 -0.1643651 -0.11858492 -0.049428456
0.10312159 -0.15282156 -0.15213642 -0.0075978935 -0.16123866 0.06910718 -0.16914076 -0.10662157
-0.16578688 -0.033409365 0.08788764 0.17278796 -0.063947976 -0.18679592 -0.27042177 0.19270085
-0.04812187 0.114008434 -0.15239042 -0.21521983 -0.1787418 0.041272536 -0.15115857 0.13718268
-0.056617215 0.20769295 -0.15327416 0.00028384803 -0.16787514 -0.06294395 -0.1632229 -0.07376247

conv.convs.2.bias f4 [64]
00000000: 96b3 33bd d5b3 333d 47b3 33bd deb3 333d
00000010: e2b3 33bd aeb3 33bd 18b3 333d c0b3 333d
00000020: f1b3 333d d9b3 33bd e0b3 33bd 49b3 33bd
00000030: 88b3 33bd 065d 233d b4b3 33bd a1b3 33bd
00000040: fbb2 333d ccb3 333d b1b2 333d 63b3 333d
00000050: aab3 33bd 4ab3 33bd 94b3 333d 44b2 33bd
00000060: 30a9 333d 3bb5 33bd 93b3 33bd 78b3 333d
00000070: a3b3 333d ceb3 333d adb3 333d edb3 33bd
00000080: 7eb3 33bd 8cb3 33bd 6eb3 333d ceb3 33bd
00000090: aeb3 333d 03b3 33bd d5b3 333d d8b1 33bd
000000a0: d1b3 333d 8eb3 33bd 15b3 333d 58b3 33bd
000000b0: 47b3 333d d0b3 33bd d3b3 33bd 72b3 33bd
000000c0: 05df 3b3d 89b3 33bd d6b3 33bd d8b3 333d
000000d0: eeb2 333d deb3 33bd 6ab3 333d 8eb1 333d
000000e0: deb3 333d 72b3 333d a7b3 33bd 34dd 3b3d
000000f0: f5b3 33bd a3b3 33bd d3b3 33bd 43b3 333d
-0.04387244 0.043872673 -0.043872144 0.043872707 -0.04387272 -0.043872528 0.04387197 0.043872595
0.043872777 -0.043872688 -0.043872714 -0.04387215 -0.043872386 0.039883636 -0.04387255 -0.04387248
0.04387186 0.04387264 0.043871585 0.04387225 -0.043872513 -0.043872155 0.04387243 -0.04387118
0.04386252 -0.043874007 -0.043872427 0.043872327 0.043872487 0.043872647 0.043872524 -0.043872762
-0.04387235 -0.0438724 0.04387229 -0.043872647 0.043872528 -0.04387189 0.043872673 -0.043870777
0.04387266 -0.04387241 0.043871958 -0.043872207 0.043872144 -0.043872654 -0.043872666 -0.043872304
0.045866985 -0.04387239 -0.043872677 0.043872684 0.043871813 -0.043872707 0.043872274 0.0438705
0.043872707 0.043872304 -0.0438725 0.045865253 -0.043872792 -0.043872487 -0.043872666 0.04387213

conv.convs.2.lin.weight f4 [64, 64]
00000000: 5c7e f0bd 66e5 5c3e e31c 20be c911 a8bd
00000010: 84e9 433e 3ec4 a7bd aa6b 63be 2c11 083a
00000020: cee0 173d 96ff b53d b784 1e3e caf4 6fbd
00000030: deac 28bd ac1c e43c c4a4 4a3e 6889 563e
00000040: 6454 03bd 90f7 be3e cbe1 293e 82a5 01be
00000050: c395 21be 5c92 ad3d c9d8 25bd 342a b7bb
00000060: 3f05 303e 9b08 213e 4e34 263e 1934 753e
00000070: be14 8ebc 832d 83bd cdcf 5abe f5ec df3d
00000080: f4b3 f2bd 463a 8c3d 433e 9dbb 8838 083e
00000090: 0fa5 bcbd aac3 cb3d 7a6d 213e 1944 063e
000000a0: 4662 d6bd 0c00 43be 6560 813e 3a3a 1bbd
000000b0: 9e62 aebd d903 503d 4ba9 82bd d8df f73d
000000c0: 8b79 5ebc 87cb 393e 5ea0 0d3c 6b97 57be
000000d0: aac2 3f3e 37c5 5bbe 353e b9bd 81b8 363e
000000e0: 8f76 54be c544 8a3b b229 b1bd 90d1 673d
000000f0: bcba 313d eca5 7a3e e755 c63d 677d 2cbe
00000100: 1749 113e 6c91 1b3e 1328 55be efc9 563e
00000110: f911 9bbd 75e2 183e aeb8 893d 2909 2d3e
00000120: 5bd2 29bd c319 28be 4998 7fbe ce9b 41be
00000130: 416f fc3d 7578 e0bd 1d2d 42be a0cd 8abc
00000140: 328a ecbc 98d3 50be 36da 41bd bb3b d93d
00000150: fc8e 533e 6a8f 5a3e 4c63 813d afca 45be
00000160: d966 a2be f40b 9ebd 9013 773d 6e06 97bd
00000170: 5991 4c3e 34d3 703e 9b78 323e ca6e c6bd
00000180: c568 e33d 5764 71bd 96bb 7e3d 7af8 0ebe
00000190: 589d d6bd a90c 50be b1b7 22be b676 33be
000001a0: 3706 edbd 2638 19be 13f5 75be fa1e e5bd
000001b0: 9a56 c9bd c109 983d c54f 413e 289c f4bc
000001c0: 5e5f 473c 034b f83c 484b a53d 99ce 2f3e
000001d0: ad13 d73d c5c2 1f3e 525b 8e3c 106d c3bc
000001e0: 4886 543e 5d40 3f3e 5fe4 abbd aa9e 2b3e
000001f0: 0e0a 0fbb 0e06 06be 5942 e9bd 6cf8 92bc
00000200: 6a6d 0c3e a899 943d 8b21 32bd da38 a4bd
00000210: 9b31 c53d 461f 47bd 6b89 40be a35a 54be
00000220: f320 683c 9930 4ebd b92c 503e f493 c4bd
00000230: 832d 46be 8b79 1ebe 59cf 6d3e d4b4 fdbd
00000240: 9c96 0bbe f542 093e 14ba f0bd e796 223e
00000250: bb79 46be 78cd 44be 40f7 c6bd 2655 19bc
00000260: 9444 953e 1124 6a3d 7c26 203c a983 babd
00000270: 3be9 e13d 3dae 5cbe dfbe 973d 8469 56be
00000280: 15ee 3b3e cf39 913e 464f 943d afd3 1d3e
00000290: 307e 9d3e 6141 4e3d 84bd 413e 8a78 f63d
000002a0: 83e9 cbbd 84e8 073e 0e72 d43d 0620 c7bc
000002b0: df13 edbc 1640 4a3e d47b 513e 4ee9 27be
000002c0: b68f ae3d 6613 913d cd10 8ebd ea02 f33b
000002d0: c644 ed3d 39ac d5bd c270 37bc 30ca b9bd
000002e0: 75e5 b9bd 2772 d53c 57b3 1d3e 1044 313e
000002f0: 25af dbbc b06f 733e c5dc 63be 7f3e 17be
00000300: 2839 693c f540 74be 9149 e8bd a775 ab3d
00000310: 01db a2bc a302 913d dd00 8fbd 0df4 2d3e
00000320: 3eb7 bfbd 9c2c 673d 9f15 013e 263b 433d
00000330: 42ee 073e eae8 42bd a291 81bd c1cf 6abe
00000340: c65a 5bbe 20a1 5ebe d19c fabd 080e 313e
00000350: f014 04be 68ba 563c 9225 8abd 4b49 b7bd
00000360: 3658 3fbd 7604 b9bb 8cb1 8ebc 06fc 76be
00000370: 98d7 dbbc 1451 803e e249 303c fc6e 17be
00000380: 9245 ec3c 33e2 1ebe ee99 4f3e 6a69 9dbd
00000390: 27a7 40be 2cfb f4bd 1450 01be 7169 2d3e
000003a0: 598c 19be 9894 dbbd a62c 36be 3cae 1e3c
000003b0: e3a0 25be ec7d 67bc 686f a53c 004d 32be
000003c0: 5ffd 58bd ee54 0bbe c523 bebc cf91 1c3e
000003d0: b1eb 80be 5446 b9bd 53f3 21bc 1764 69be
000003e0: 8011 3a3e cbca 153e 818e c8bd 12b4 dfbd
000003f0: 4e4a e73c 1f7e 2bbe 57bf da3d 0490 9d3c
-0.11742851 0.21571884 -0.1563602 -0.08206517 0.19132048 -0.08191727 -0.2220904 0.0005190547
0.037079625 0.0888664 0.15480314 -0.05858306 -0.041180484 0.027845703 0.19789416 0.20950854
-0.032062903 0.3729825 0.1659004 -0.12660792 -0.15779786 0.084751815 -0.040489946 -0.005589748
0.17189501 0.15725939 0.1623089 0.23945655 -0.017343875 -0.06405165 -0.21368332 0.10933868
-0.118507296 0.06847052 -0.004798682 0.13302815 -0.0921117 0.09949429 0.15764418 0.13111915
-0.10467963 -0.19042987 0.25268856 -0.037897326 -0.085149035 0.05078492 -0.06379946 0.12103242
-0.013578783 0.18144046 0.008644192 -0.21053855 0.18726602 -0.2146195 -0.09045068 0.1784382
-0.20748352 0.0042196237 -0.08650531 0.05659634 0.043390974 0.24477357 0.09684353 -0.16844712
0.14188038 0.15192193 -0.20816068 0.20975469 -0.075717874 0.14930137 0.06724678 0.16898026
-0.041460376 -0.16416077 -0.24960436 -0.18907091 0.123259075 -0.10960475 -0.18962522 -0.016943753
-0.02887449 -0.20393217 -0.047327243 0.10607096 0.20660013 0.2134377 0.063177675 -0.19315599
-0.31719092 -0.07717124 0.06032139 -0.07374273 0.1997732 0.23518068 0.1742882 -0.096891
0.111039676 -0.058933582 0.062190615 -0.13961974 -0.1047923 -0.2031733 -0.15890385 -0.17525753
-0.11573451 -0.14962825 -0.2401927 -0.11187549 -0.09830971 0.074237354 0.18878086 -0.029859617
0.012168733 0.030309206 0.080709994 0.17168655 0.105018 0.15601642 0.01737753 -0.023855716
0.20754349 0.18676896 -0.08393168 0.16759744 -0.0021826061 -0.13088247 -0.11389608 -0.017940722
0.13713613 0.0725587 -0.04348902 -0.08018656 0.09628602 -0.04861381 -0.18802421 -0.207377
0.014168012 -0.050339315 0.2032956 -0.09598532 -0.19353299 -0.15476052 0.23223628 -0.12388006
-0.13631672 0.13404448 -0.117542416 0.15877877 -0.19382374 -0.19219005 -0.09715128 -0.00935868
0.29153883 0.0571633 0.0097748 -0.091071434 0.11030813 -0.21550842 0.07409453 -0.20938689
0.1835254 0.28364417 0.07241683 0.15412782 0.30760336 0.05035532 0.1891995 0.1203471
-0.09956648 0.13272291 0.10373317 -0.024307262 -0.02894014 0.1975101 0.20457393 -0.16397592
0.085235044 0.07083778 -0.06936798 0.007416119 0.11585383 -0.104332395 -0.011196317 -0.09071767
-0.090769686 0.026055409 0.15400444 0.1731112 -0.026816914 0.23773074 -0.22252186 -0.14769934
0.0142348185 -0.23852904 -0.11342157 0.0837205 -0.01987982 0.07080581 -0.069825865 0.16987629
-0.093611225 0.056439027 0.12605904 0.04766383 0.13274482 -0.047585405 -0.063266054 -0.22930814
-0.21421346 -0.21741152 -0.122369416 0.17290509 -0.12898612 0.013105966 -0.06745447 -0.089495264
-0.046714984 -0.0056462837 -0.017418645 -0.24119577 -0.026836202 0.25061858 0.010759803 -0.14788431
0.028841767 -0.15515976 0.20273563 -0.07686122 -0.18813764 -0.1196197 -0.12628204 0.16934754
-0.14994945 -0.107217014 -0.1779047 0.009685095 -0.16174655 -0.014129143 0.020194724 -0.17412186
-0.05297601 -0.13606617 -0.023210416 0.15289997 -0.25179818 -0.09046617 -0.009884673 -0.22792087
0.18170738 0.1462814 -0.097928055 -0.109230176 0.028233673 -0.1674733 0.106810264 0.019233711

lin.weight f4 [64, 128]
00000000: 92e5 3f3d e791 f9bc 5c2b 45bc 81be a3bc
00000010: 19d2 8dbd 351e 943d f057 9c3d 4ab9 0c3d
00000020: 098a 5e3d 5a22 973d 1abd f13b d292 2bbb
00000030: b7a3 87bb 156e 123d e9df d2bc a5b0 13bb
00000040: e4e7 ae3d 8c4c 173d e575 2bbd 5e0b 893d
00000050: 8a04 e6bc 615f 7dbd 9402 873d 6a28 d33c
00000060: c865 9a3d 2862 783d 8387 913b 78ec 89bc
00000070: 994a ec3c bdba d3bb 1e45 183c 3d57 9f3d
00000080: d231 fa3c d049 7f3d 5994 b3bd 42c6 843d
00000090: 2b14 233d eef2 a2bd 39f0 a03d ea37 143d
000000a0: 912c d3bc 2787 ab3b 4917 953d 8bb2 9fbd
000000b0: a5d0 813d 82d6 4cbd 492f 83bc c1f7 72bd
000000c0: 17dd a0bd d4db ab3a 76b2 a5bd 2b72 1dbd
000000d0: cd7c 6c3c 7604 80bd 8e87 33bd 480b 13bd
000000e0: 8f30 c83c 6f36 a0bd 521b c8bb 52cf 0a3d
000000f0: c37e 843d 31c0 433d 11a5 a6bd d9db 87bd
00000100: 7d57 7bbc ba69 58bd 7933 ee3c fcec 21bd
00000110: 97f9 9d3d a65f a7bd 2854 4a3d 01fb 34bc
00000120: 8743 d73c 6730 333c 5957 dbbc bca0 a2bd
00000130: c446 72bd c18a 493d 9516 8fbc 72f4 18bd
00000140: bd3d 8a3d 246a 483d 413d 963d 8833 953d
00000150: 38d6 af3d 5c3d 3ebc b358 39bd 61d8 6f3b
00000160: e70f 953b 80a5 6f3d c10f 1ebd fb83 cb3c
00000170: 447a 91bd ee1d 76bd 3118 a9bb e533 af3c
00000180: e480 8fbc df47 f23b ceab f03c aff5 893b
00000190: 757e 8ebd 012e 833d cece 1cbb 19cc 813c
000001a0: 3656 6abd 5cb4 b13d 57e7 923c 497a e3bc
000001b0: 63f8 8e3d 6f70 eb3c e756 90bc a8c3 823d
000001c0: 06d2 023d 343a a03d af28 34bb 7f3a 753d
000001d0: ca83 c539 5d27 b1bd a02b a1bd 9766 cb3c
000001e0: d435 6cbc d227 65bd 2e9e 01bd e39c 793d
000001f0: 3e18 5fbd d1c0 03bd 1a77 333d 2ca6 a83b
00000200: b9e2 2dbd 48ef dcbc c303 27bd 2c81 803b
00000210: 0bce d5bc 07ef 7ebd 1eeb 043d b171 93bc
00000220: 115d b23d 5da3 a43b 2e71 0fbd 991b 96bd
00000230: 450e c73c 6c1b 24bd 5eee 8ebd 5690 f0bc
00000240: ce59 193d bf88 7d3d f3b8 f53c 3eb4 6cbd
00000250: 1390 fcbb 568e b13d 2032 55bc 105f 783d
00000260: 3690 21bd 5504 5dbd 643e a43d 18fd a23d
00000270: 1b04 833d 3c2d a4bc e2d3 383d d042 923d
00000280: c062 55bd 99b0 b5bc 7816 4b3c 7964 313c
00000290: e18f a7bd d62d 813d c1c0 823d 3529 14ba
000002a0: 7549 a33c 4190 7cbd c170 473d 0285 f73c
000002b0: 00dc fc3c 0063 43bd 4801 db3c f1d3 ae3d
000002c0: 80cc 65bc cafa a03d 9530 81bd e14d 9a3c
000002d0: ace9 40bd 9262 97bd 9f83 88bd 2876 1fbb
000002e0: 2b51 103d 175f 38bd 2851 9c3d 75ec 8f3d
000002f0: 974e afbd 2104 fdbc 7e2c 803c c351 933c
00000300: 6c99 f4bc df65 bdbc e6d9 8d3d 5edf 893c
00000310: 3a70 75bd 0dc8 663d bbfa 6fbd e264 83bd
00000320: d26d 963d d6f1 77bd 38c8 a73d 44ea 3dbd
00000330: 7544 5b3d b2ee 30bd ae76 53ba 3ee2 5039
00000340: e50c a83d e12f 753c d4f2 0c3d 34b8 9bbd
00000350: 53b3 93bd d759 19bd 8b2f e93b 1218 d5bc
00000360: 8c60 19bd a474 7e3d d8ed 95bb 7ee3 853d
00000370: f063 67bd c6cc 1ebd 9c3e 513c a053 82bd
00000380: ab8f 823d ffba b03d 096c 1d3d 8745 40bd
00000390: fa1b bdbc 7f52 b8bc d064 81bc ca03 05bc
000003a0: 4b8b 543c e7eb 9e3d 3d34 bd3c a530 703d
000003b0: a5dd b3bb 92b8 903d f429 30bd b92b adbd
000003c0: 20f3 91bc 9207 993d 6b10 5b3c 1d65 ecbc
000003d0: b387 61bd e531 573c 2739 a13d bd02 98bc
000003e0: eaa0 da3b 5d96 883d cb9e 81bd fc15 83bc
000003f0: 06c7 36bc 6b25 afbc 7ca5 8a3d c5d0 573d
0.046849795 -0.03046508 -0.012034263 -0.0199883 -0.069248386 0.07232324 0.0763396 0.034356393
0.05433086 0.07379599 0.007377279 -0.002618004 -0.0041393894 0.035749514 -0.025741534 -0.0022535708
0.085403234 0.036938235 -0.04186048 0.06691621 -0.028078336 -0.06185854 0.065922886 0.025776107
0.075389445 0.060640484 0.004441203 -0.01683639 0.028844165 -0.00646147 0.009293823 0.07780311
0.030541334 0.062326252 -0.087685294 0.06483127 0.039814156 -0.079564914 0.07858319 0.036186136
-0.025778087 0.0052346173 0.07279832 -0.07797726 0.06338624 -0.050009258 -0.016013758 -0.059318308
-0.078546695 0.0013111779 -0.08090679 -0.038438957 0.014434052 -0.06250851 -0.043830447 -0.03589943
0.024437217 -0.078228824 -0.0061067725 0.033889122 0.064694904 0.04779071 -0.08136953 -0.066337295
-0.015340683 -0.052835204 0.029077278 -0.039532647 0.07713621 -0.0817254 0.049396664 -0.011046172
0.026277317 0.010936833 -0.026775049 -0.07940814 -0.05914952 0.04920459 -0.017466823 -0.037342496
0.06750057 0.04892935 0.07335902 0.072852194 0.08585781 -0.011611309 -0.045250606 0.0036597478
0.004549015 0.058507442 -0.038589243 0.024843207 -0.071033984 -0.060087137 -0.0051603545 0.02138705
-0.017517515 0.0073938216 0.029378798 0.004210196 -0.069577135 0.06405259 -0.0023926976 0.015844392
-0.057211123 0.08676979 0.017932577 -0.027768271 0.0698097 0.028740136 -0.017619563 0.06384975
0.031938575 0.07823601 -0.002749007 0.05987024 0.0003767296 -0.08650086 -0.07869649 0.024829192
-0.0144171305 -0.05594618 -0.031644993 0.060940634 -0.05446648 -0.032166306 0.043814756 0.0051467624
-0.042452548 -0.026969567 -0.04077507 0.0039216485 -0.026099226 -0.062239673 0.032450788 -0.017998548
0.08709157 0.0050243572 -0.035020046 -0.073294826 0.024298796 -0.040065214 -0.06979059 -0.0293657
0.03743916 0.06189799 0.029995417 -0.05778908 -0.0077076047 0.086697266 -0.013012439 0.060637534
-0.03944417 -0.05395921 0.080197126 0.0795843 0.063972674 -0.0200411 0.045123942 0.0714165
-0.05209613 -0.022178935 0.012395494 0.010827177 -0.081817396 0.06307571 0.06384421 -0.0005651892
0.019932488 -0.06166101 0.048691515 0.03021479 0.030866623 -0.047701836 0.02673401 0.08536518
-0.014025807 0.07860334 -0.063080944 0.018835964 -0.047097847 -0.07391848 -0.0666573 -0.0024331901
0.035233658 -0.04501256 0.07632667 0.070275225 -0.08559912 -0.030885758 0.015646216 0.017983323
-0.029858314 -0.023119865 0.069263265 0.016830143 -0.05992148 0.056343127 -0.058588725 -0.06415726
0.07345165 -0.060533367 0.081924856 -0.04636599 0.053532083 -0.043196388 -0.0008066696 0.00019920708
0.082055844 0.0149650285 0.034411266 -0.07603493 -0.07211938 -0.037439194 0.0071162633 -0.026012454
-0.03744559 0.062122956 -0.0045754723 0.06537531 -0.056491792 -0.038769506 0.012771275 -0.063636065
0.06375059 0.08629417 0.03843311 -0.046941306 -0.02308463 -0.022500275 -0.015795141 -0.008118579
0.012972663 0.077598386 0.023096198 0.05864014 -0.0054890686 0.07066454 -0.04300876 -0.08455605
-0.017816126 0.07472147 0.013370614 -0.028856808 -0.055061053 0.013134454 0.07872229 -0.018555993
0.0066720145 0.066693045 -0.063291155 -0.016001694 -0.011155849 -0.021380147 0.06769845 0.052689333

lin.bias f4 [64]
00000000: 5ab7 a5bd c0ec 04bd 871b 883c af8e 06bd
00000010: b8be f0bb 1b1c 72bd 8429 40bd a8f1 69bd
00000020: 4346 abbd a94a 213c bf3b 363d bbfb 923d
00000030: 52ec 0cbd cfd6 34bb 79a1 85bc a6ae 9a3d
00000040: 03c6 20bd a2d7 f23c e1dc 3cbd 4622 5fbd
00000050: 562b 8a3d 5cc7 a3bd d1a6 d13c aced 12bd
00000060: bee7 8cbd 0c3a 9cbc df06 0bbd cb10 8d3d
00000070: 9be1 103d b409 803d acfe e7bc 5e96 96bd
00000080: 9130 94bc 455b c0bc 9a19 1b3d 1264 8abd
00000090: 37ec b0bd c297 273d cc82 d6bc 78de 18bd
000000a0: ba56 b43d b389 26bd 02e9 79bd 5a8a b93c
000000b0: 8a0b 9dbd da05 93bd 1f72 913b 6166 c5bc
000000c0: 5063 793d c2e8 993d 99e3 2d3c 762d a6bd
000000d0: 1681 4fbc 999c 053d 7e21 3f3c 808e 033d
000000e0: 815f 0bbc 4395 d3bb 477a 50bd 9e7c 1ebd
000000f0: 0f1f 28bd 0a1a 973d 4fe7 103c 8351 ba3c
-0.08091612 -0.032452345 0.016614689 -0.032850917 -0.007346954 -0.059108835 -0.046914592 -0.057115227
-0.08363011 0.0098444605 0.044490572 0.0717692 -0.03440506 -0.0027593856 -0.016312348 0.07552843
-0.03925134 0.029643837 -0.046109084 -0.054476045 0.06746547 -0.07997009 0.02559224 -0.035871193
-0.06880139 -0.019070648 -0.0339421 0.06887969 0.035371404 0.06251851 -0.02831968 -0.07352899
-0.018089565 -0.02348102 0.037866212 -0.06757368 -0.086388044 0.040916212 -0.026185416 -0.037321538
0.08805604 -0.040658664 -0.06101323 0.022648979 -0.076682165 -0.071788505 0.004438653 -0.02409667
0.060885727 0.07515098 0.010613346 -0.0811414 -0.012665054 0.032620046 0.0116657 0.03211832
-0.008506657 -0.0064570024 -0.050897863 -0.038693063 -0.041045245 0.073780134 0.008844211 0.022743946

out.weight f4 [2, 64]
00000000: a1a3 8abe 1e3a 233e 66c1 90be 4075 283e
00000010: 1878 28be 3713 bdbe 5add ac3e bb20 ff3d
00000020: c841 303d 589f f5bd 8abe 03be f092 67be
00000030: 3f62 b4be ac6c b6bb b6b9 3cbe b09c d1be
00000040: c411 a33d 32f8 003e 5acc a33e 543c 5e3d
00000050: c5a5 d6be 44c8 47be 9c6a 893e 266a 40be
00000060: 21c2 9d3d 2ff1 82bc fb1b c4be 42a4 b33e
00000070: b461 d33e e4a5 053e 2afc 79bc 1025 e6bd
00000080: 0bc2 abbe 46ac fd3c e249 e0bc e338 ccbd
00000090: 4276 893e 61b1 d2be 6230 0a3e 4cc8 263d
000000a0: aff6 7c3d e2d3 07be 6955 6d3e 54ad d5be
000000b0: 7841 923e b92b 0ebd 12e1 0ebe b876 3b3d
000000c0: a1af e8bc 9f24 20be 721f 11bc 7571 213e
000000d0: bd96 ba3d 9e1f a8bd 0f1b 10bc 4ca4 bc3e
000000e0: b1a3 2a3e 02d3 053e d9b9 2ebe 3eeb cc3d
000000f0: e66d 19bd e59a bcbe 2f03 27be 2296 c73e
00000100: 47b0 4f3e 3ace 1bbe d126 873e 58a8 a3bd
00000110: f8e4 8b3d c09b ae3e bf90 80be cad8 38bd
00000120: e66c 1abe 232e 003e 81bd 6b3d 8b11 c43e
00000130: af3f 993e 410f babd 229f 393e 5d6b c33e
00000140: dd96 51be fca8 42be 6452 18be a30d 0ebe
00000150: 25d8 c53e 4eac 6f3e 9888 95be 2287 8c3e
00000160: 1494 923d 30a8 653d 7caf 883e de59 bfbe
00000170: e3e0 c1be 79e7 d7bd 66ff 34be 784f 913d
00000180: 6d75 8b3e 1e8f 133e 3d89 98bd a4a4 063d
00000190: b545 87be 7a80 7d3e cde6 45bd 6021 6d3d
000001a0: 702e 23be e351 a83d 6a1d 17be 95d7 903e
000001b0: 20f8 cdbe 732f 183e afd5 243e 133e d93d
000001c0: f11d 12be 9b0f 0b3e 4e76 ef3d b7f2 6abd
000001d0: 040b 80bd c26e a93d 77ad 17be b15f 80be
000001e0: 26ec 93bd 58b7 11be 7398 813e 0f08 063d
000001f0: 52a4 0e3e fba9 d83e 621e a13d 08eb 7ebe
-0.27077964 0.15940139 -0.2827255 0.16450977 -0.16452062 -0.36928722 0.33762628 0.12457415
0.043031484 -0.11993283 -0.12865654 -0.22614646 -0.35231206 -0.005567154 -0.18430218 -0.40939856
0.07962373 0.12594679 0.31991845 0.054256752 -0.41923347 -0.19509989 0.2683915 -0.18790492
0.07703043 -0.015984146 -0.38302597 0.35086256 0.4128548 0.13051564 -0.0152578745 -0.11237538
-0.3354648 0.030965935 -0.02737898 -0.09971788 0.26848036 -0.41150954 0.13495019 0.04071836
0.061758693 -0.1326442 0.23177113 -0.417338 0.28565574 -0.034709666 -0.13953045 0.045767516
-0.028404059 -0.1563897 -0.008857595 0.15765937 0.09110782 -0.082091555 -0.008795514 0.368441
0.16664006 0.13068774 -0.17063083 0.100058064 -0.037458323 -0.36836925 -0.16309808 0.3898173
0.20282088 -0.15215388 0.26396802 -0.079910934 0.06830782 0.34103203 -0.25110433 -0.04512862
-0.15080604 0.125176 0.057553772 0.38294634 0.299314 -0.09084941 0.1812711 0.3816785
-0.20467706 -0.19009775 -0.1487518 -0.1387239 0.38641468 0.23405573 -0.29205775 0.27446848
0.0715715 0.0560686 0.26696384 -0.3737325 -0.37866887 -0.10542197 -0.17675552 0.070952356
0.27238026 0.14410064 -0.07448051 0.032871857 -0.2642037 0.24756041 -0.048315812 0.057893157
-0.15935683 0.08218744 -0.14757314 0.28289476 -0.40228367 0.1486185 0.16097139 0.10607543
-0.14269234 0.13580172 0.11692487 -0.057360377 -0.06252101 0.082730785 -0.14812265 -0.25073007
-0.07222776 -0.14230096 0.25311622 0.03272253 0.1392987 0.42317185 0.07867123 -0.24894345

out.bias f4 [2]
00000000: 602c 53bc 46a2 f3bc
-0.012888998 -0.029740464
